nero/collections/planning/models/outputs/2020-11-12/11-10-05/checkpoints/epoch=0.ckpt (torch, 155812 bytes, 12 tensors)

encoder.layer0.weight f4 [100, 100]
0	0xbc361a40	-0.011114657
1	0xbb3cb09a	-0.0028791786
2	0x3af1999a	0.0018432618
3	0x3dc86a9f	0.09785961
4	0xba172000	-0.0005764961
5	0xbd6f198d	-0.058373976
6	0xbd1aae70	-0.037764013
7	0xbdc46902	-0.09590341
8	0x3d3163b7	0.043307986
9	0xbc635db3	-0.01387732
10	0xbdb77fd8	-0.08959931
11	0x3d7512ad	0.059832264
12	0x3c300d0d	0.010745299
13	0x3d96aca5	0.07357148
14	0x3d4537ad	0.0481488
15	0x3b6678cd	0.0035167218
16	0x3dc92e4d	0.09823284
17	0xbda1861f	-0.0788691
18	0xbc694d9a	-0.014239693
19	0xbdbef2d7	-0.09323662
20	0x3ced1173	0.028938984
21	0x3d8d6720	0.06904435
22	0x3dca61b3	0.09881916
23	0xbd56f433	-0.05247898
24	0xbc6cdca7	-0.0144569045
25	0x3bd9b7e7	0.0066442373
26	0x3c9009a0	0.017582715
27	0xbc9f5960	-0.019451797
28	0x3c4a019a	0.012329483
29	0xbc7c0a80	-0.015383363
30	0x3cb6dea0	0.022322953
31	0xbcc22bed	-0.023702586
32	0xbd1c1dda	-0.038114406
33	0xbc859927	-0.01630838
34	0x3d8af4db	0.06784984
35	0xbb180067	-0.00231936
36	0xbdb52273	-0.08844461
37	0x3d268fb3	0.040664386
38	0xbd43506d	-0.047684122
39	0xbc5a9c9a	-0.013343001
40	0xbbc9e333	-0.0061611175
41	0x3d3eccad	0.046581913
42	0xbd46b3bd	-0.048511256
43	0x3d6a7f37	0.057250228
44	0xbd5ef8ea	-0.0544366
45	0xbd3ac5c0	-0.045598745
46	0xbda585fa	-0.080821946
47	0x3d0123cd	0.031528283
48	0xbdbf5922	-0.093431726
49	0xbd7ed83a	-0.06221793
50	0xbb52b9cd	-0.0032154203
51	0x3d4312aa	0.04762522
52	0xbdbe2322	-0.09284045
53	0xbdb72628	-0.089428246
54	0xbdb8432a	-0.089971855
55	0x3d734743	0.059394132
56	0xbbf9959a	-0.007616711
57	0xbaefc333	-0.0018292427
58	0x3db0b222	0.08627726
59	0xbd81c750	-0.06336844
60	0xbda4483a	-0.080215886
61	0x3d8bb933	0.06822433
62	0x3d040b77	0.032237496
63	0x3d85e6d7	0.0653817
64	0xbdc0db2d	-0.094168045
65	0x3d972b70	0.07381332
66	0xbd3f0d5d	-0.046643604
67	0xbd6a9857	-0.05727419
68	0xbdc12bd5	-0.094321884
69	0x3d8d8635	0.069103636
70	0xbb565e67	-0.0032710077
71	0xbdad0dc5	-0.08449892
72	0x3d06c377	0.032901254
73	0x3d56c707	0.0524359
74	0xbc694f73	-0.014240134
75	0x3dacdc78	0.084404886
76	0xbd02712a	-0.031846203
77	0x3d8c8e6a	0.06863101
78	0xbcf1bfe0	-0.029510438
79	0xbdb66fef	-0.089080684
80	0xbdc4f0d3	-0.09616246
81	0xbcf83f2d	-0.030303562
82	0x3d695bea	0.05697242
83	0xbabb2467	-0.0014277817
84	0x3d0b7e90	0.034056246
85	0xbdbe266b	-0.092846714
86	0x3d6f7cda	0.058468677
87	0x3cf90f80	0.030402899
88	0x3cea751a	0.028620292
89	0x3cf0d267	0.029397203
90	0xbd2edc27	-0.042690422
91	0xbdc5bb1a	-0.096548274
92	0xbd6c8490	-0.05774361
93	0x3d198190	0.037477076
94	0x3d436c07	0.047710445
95	0xbd275527	-0.040852692
96	0xbd421820	-0.04738629
97	0xbd14c317	-0.036318865
98	0x3d82cfff	0.06387328
99	0x3d19812d	0.037476707
100	0x3d09dc80	0.03365755
101	0xbd996aa7	-0.074910454
102	0x3dca3c90	0.09874833
103	0x3c2322f3	0.009957063
104	0xbbaa8fe7	-0.005205143
105	0xbd92a67a	-0.07160659
106	0x3d7610b0	0.06007451
107	0xbdb666c2	-0.08906318
108	0x3a7ba333	0.0009599209
109	0x3c21e0c0	0.009880245
110	0xbc3ce9cd	-0.011530352
111	0x3db01713	0.08598151
112	0xbd9a197a	-0.075243905
113	0x3d8b1535	0.06791154
114	0x3cff6a07	0.031178487
115	0xbd870943	-0.065935634
116	0xbd7ea7dd	-0.062171806
117	0xbbc24acd	-0.005929327
118	0xbd80a193	-0.06280818
119	0x3c8496a0	0.016185105
120	0xbdc1efc2	-0.09469558
121	0x3daf59b2	0.0856203
122	0x3d47cc9a	0.048779108
123	0xbc81ed53	-0.015860235
124	0xbd7b3cea	-0.06133739
125	0x3dab0692	0.083508626
126	0x3dc0ff6f	0.0942372
127	0xbcc1f9fa	-0.023678768
128	0xbdc859ef	-0.097827785
129	0xbc09fa9a	-0.0084215645
130	0x3d09652a	0.033543743
131	0x3d1754cd	0.036946107
132	0x3d74abba	0.059734084
133	0xbbcca480	-0.006245196
134	0xbd575387	-0.052569892
135	0xbca80273	-0.02050898
136	0xbce421c7	-0.027848138
137	0x3d623ec7	0.05523565
138	0x3d837a13	0.06419768
139	0x3d979858	0.07402104
140	0xbc8221da	-0.015885282
141	0x3d3358b3	0.043785762
142	0xbd53b36a	-0.051684774
143	0xbd7e461a	-0.062078573
144	0x3d0c3cc3	0.034237634
145	0x3dbfd568	0.09366876
146	0xbd32a400	-0.043613434
147	0x3d46723a	0.04844878
148	0xbd837e6b	-0.06420597
149	0x3d64f53a	0.05589793
150	0xbc4531f3	-0.012035835
151	0x3dbdf9d0	0.092761636
152	0xbdbd6a3f	-0.092487805
153	0xbd8321d3	-0.06402936
154	0x3d4c2727	0.049842026
155	0x3dc168c0	0.094438076
156	0x3da47650	0.08030379
157	0xbd74bf23	-0.059752595
158	0xbdbcb490	-0.09214127
159	0x3d28522d	0.041093994
160	0xbd6d4f2a	-0.057936825
161	0xbd153603	-0.036428463
162	0xbd715287	-0.058916595
163	0xbd9da05f	-0.07696604
164	0xbda70baa	-0.081565216
165	0x3cb8d673	0.022563195
166	0x3da7ab2b	0.081869446
167	0x3d3df323	0.04637445
168	0xbcf6032d	-0.030030811
169	0x3d8b8b7b	0.06813713
170	0x3d7ff560	0.062489867
171	0x3d37f880	0.044914722
172	0x3d6876e7	0.05675402
173	0x3d8c3623	0.06846263
174	0x3dc3b928	0.095568
175	0x3dabbf47	0.08386093
176	0x3d11fd9d	0.035642255
177	0x3d5a9a3d	0.05336975
178	0xbd3e4e13	-0.046461176
179	0xbdca7718	-0.098859966
180	0xbd48bb07	-0.04900649
181	0xbd4f2ef3	-0.050581884
182	0xbd06c29a	-0.03290043
183	0xbdaa395b	-0.08311721
184	0x3d3a243a	0.045444705
185	0x3d7ade7a	0.061247326
186	0x3c069d4d	0.008216214
187	0x3c823bc7	0.015897645
188	0x3d418c8d	0.04725318
189	0x3da8422b	0.082157455
190	0xbd814dbf	-0.06313657
191	0x3d84de7a	0.064877465
192	0x3dabdd78	0.08391851
193	0x3cee3b80	0.029081106
194	0x3d5ed253	0.0543998
195	0xbd3358d0	-0.04378587
196	0xbdc2bfe7	-0.09509259
197	0x3caac413	0.020845449
198	0x3cf9a17a	0.030472506
199	0x3d545ce0	0.051846385
200	0xbcea9780	-0.028636694
201	0x3d817ed3	0.06323018
202	0x3c070600	0.008241177
203	0x3d61461d	0.054998506
204	0xbc76bb80	-0.015059352
205	0xbdc4cfb8	-0.09609932
206	0xbcf6b67a	-0.030116308
207	0xbc277a40	-0.010222018
208	0x3dc1591f	0.094408266
209	0xbd12b83d	-0.035820235
210	0x3c8208f3	0.015873408
211	0xbce7a6f3	-0.02827785
212	0xbdac4dcf	-0.08413278
213	0x3d9f0792	0.07765116
214	0x3ca1fa13	0.019772565
215	0x3d4aebc0	0.049541235
216	0xbcf9f9c7	-0.03051461
217	0x3b809e4d	0.003925121
218	0x3cfd6847	0.030933512
219	0xbd003920	-0.03130448
220	0xbc4ff04d	-0.0126915695
221	0xbdb19305	-0.0867062
222	0x3da7b002	0.08187868
223	0x3c767e5a	0.015044773
224	0xbd712053	-0.058868717
225	0x3c05238d	0.008126152
226	0x3d95124f	0.07278883
227	0xbdbbd56d	-0.09171567
228	0x3c98254d	0.018572474
229	0xbda2e6a2	-0.07954146
230	0x3d213cfa	0.039364792
231	0x3dac37c7	0.08409076
232	0x3da9af7a	0.082854226
233	0xbd70873d	-0.058722723
234	0xbdc9b4db	-0.098489486
235	0xbcac3760	-0.021022499
236	0x3aaf7533	0.0013386369
237	0xbdb58a1a	-0.088642314
238	0x3d4e5967	0.05037823
239	0x3dc269e0	0.0949285
240	0x3c7f1fcd	0.015571547
241	0xbbd00267	-0.0063479426
242	0x3d0fa39d	0.035068143
243	0x3d2b74a7	0.041859295
244	0x3c2dca80	0.010607362
245	0xbd96908a	-0.073517874
246	0x3dc959f2	0.09831609
247	0xbdbb86d7	-0.09156578
248	0xbd07eb73	-0.033183526
249	0xbd49564d	-0.04915457
250	0xbcc9150d	-0.02454617
251	0x3d896f57	0.067106895
252	0xbd3ff9c0	-0.04686904
253	0x3d09687a	0.033546902
254	0x3d7d1630	0.061788738
255	0xbd532503	-0.05154897

encoder.layer0.bias f4 [100]
0	0x3d97a600	0.07404709
1	0x3db14528	0.08655769
2	0x3d854afd	0.065084435
3	0x3d28c29d	0.041201223
4	0xbd28eb23	-0.04123987
5	0x3cd4205a	0.025894333
6	0xbda5447d	-0.08069704
7	0x3c5e131a	0.013554359
8	0xbda0cc8f	-0.078515165
9	0x3c88afcd	0.01668539
10	0xbd49af5a	-0.049239494
11	0xbd7f9570	-0.062398374
12	0xbda9d0a8	-0.08291751
13	0xbd59fbb0	-0.053218544
14	0xbbaf5ab3	-0.0053513884
15	0xbc0bc60d	-0.008531106
16	0xbd82f8af	-0.06395089
17	0xbd75b653	-0.05998833
18	0xbcf6879a	-0.030093957
19	0xbd996520	-0.07489991
20	0x3d8df142	0.06930782
21	0xbd2fda30	-0.04293269
22	0x3da83e32	0.08214988
23	0x3c40f633	0.0117774485
24	0xbdc0ee3d	-0.0942044
25	0xbda36ffa	-0.07980342
26	0xbdb964ff	-0.090524666
27	0x3dcb2347	0.09918838
28	0xbd289830	-0.041160762
29	0x3dc7bc48	0.09752709
30	0x3dc15eb0	0.09441888
31	0x3c95807a	0.018249739
32	0xbd8fa1d3	-0.070132874
33	0xbb5c6f33	-0.0033635616
34	0x3da9e723	0.08296039
35	0x3dc8a36a	0.09796794
36	0xbdbdda15	-0.092701115
37	0xbcaae6ad	-0.020861948
38	0xbdc0ed12	-0.094202176
39	0xbc32929a	-0.01089921
40	0xbd72ceca	-0.05927924
41	0xbda2ac30	-0.079429984
42	0x3d0deb6d	0.034648348
43	0x3d9ab3ad	0.07553802
44	0xbd997873	-0.07493677
45	0x3dad34d7	0.08457344
46	0xbd446ac3	-0.04795338
47	0xbd9ed200	-0.07754898
48	0xbd969f7b	-0.07354637
49	0x3db961b2	0.09051837
50	0xbdb31ef2	-0.08746137
51	0xbc0bfe80	-0.008544564
52	0xbd81e3b0	-0.06342256
53	0x3d06151d	0.03273498
54	0xbd692227	-0.056917336
55	0xbc7f0d40	-0.015567124
56	0x3d9f73ca	0.07785757
57	0x3b833f9a	0.0040053846
58	0xbcad5dcd	-0.021162892
59	0xbdc1076f	-0.09425246
60	0xbd9ac842	-0.075577274
61	0x3cdc4f3a	0.026893247
62	0xbd07bc30	-0.033138454
63	0xbd61437a	-0.05499599
64	0x3d1051e0	0.035234332
65	0x3d9fbcf3	0.07799711
66	0x3d9a80c2	0.0754409
67	0xbd93ae97	-0.07211035
68	0x3da48b2d	0.08034358
69	0x3d3eb42d	0.046558548
70	0x3d9c4d7d	0.07631967
71	0xbd843fad	-0.06457458
72	0xbd80844a	-0.06275232
73	0xbd259800	-0.04042816
74	0x3c35a7da	0.011087382
75	0x3d6ec08a	0.05828909
76	0x3d4e6d03	0.05039693
77	0x3d7fcc1d	0.062450517
78	0x3da85333	0.08218994
79	0xbd831f48	-0.06402451
80	0x3cce358d	0.02517202
81	0xbc2e141a	-0.01062491
82	0x3c9b7a67	0.018979264
83	0xbb24e967	-0.0025163533
84	0xbd03cdd3	-0.03217871
85	0x3d939ac3	0.07207253
86	0xbbab9f00	-0.00523746
87	0x3d0c294a	0.034219064
88	0xbb0c5733	-0.002141428
89	0x3d84828f	0.064702146
90	0x3cf36f80	0.029716253
91	0xbd7b071d	-0.06128608
92	0x3ba4d5e7	0.005030382
93	0x3d800035	0.062500395
94	0x3d9f3b0b	0.077749334
95	0x3da43747	0.08018356
96	0x3d4854d3	0.04890902
97	0x3bd48800	0.006485939
98	0x3db292c2	0.08719398
99	0x3c8453e0	0.016153276

encoder.layer2.weight f4 [256, 100]
0	0xbd94bb97	-0.072623424
1	0x3dcae405	0.099067725
2	0xbd1d2ec0	-0.038374662
3	0xbd07c1dd	-0.033143867
4	0xbd5e3ba0	-0.05425608
5	0xbc1076cd	-0.008817387
6	0xbd1f71bd	-0.03892683
7	0xbc8ff83a	-0.017574418
8	0xbd6e5760	-0.058188796
9	0xbcf8950d	-0.03034451
10	0xbcc869ed	-0.024464572
11	0x3b9c179a	0.0047635557
12	0xbdc50a8a	-0.09621151
13	0x3c2e8c73	0.010653603
14	0xbba0f580	-0.0049120784
15	0x3d566c07	0.052349117
16	0x3cfc1000	0.030769348
17	0x3cac6bad	0.021047438
18	0xbd7d18ea	-0.061791338
19	0xbd5c952a	-0.05385319
20	0x3d06396a	0.032769598
21	0x3d393c9d	0.04522382
22	0x3d5553e0	0.052081943
23	0xbdc18263	-0.094486974
24	0xbd704687	-0.05866101
25	0xbda3535b	-0.07974883
26	0xbcac7067	-0.021049691
27	0xbc467167	-0.012111998
28	0x3d893413	0.066993855
29	0xbdaebf08	-0.0853253
30	0xbcda0f1a	-0.02661853
31	0x3d5fb0fa	0.054612137
32	0x3d9da62f	0.07697713
33	0x3cde520d	0.027138734
34	0x3daefc1f	0.08544182
35	0x3db279a8	0.0871461
36	0x3d1aed23	0.037823807
37	0xbbf94533	-0.007607126
38	0x3d7ebe17	0.062193003
39	0xbd63b0b3	-0.055588435
40	0x3d91d815	0.071212925
41	0xbd54d2c0	-0.0519588
42	0xbd9d4feb	-0.07681259
43	0xbdb319d7	-0.08745163
44	0x3baa6eb3	0.0052011847
45	0xbd878e40	-0.06618929
46	0x3dc95518	0.098306835
47	0x3d8a2900	0.067461014
48	0xbcd9f9e0	-0.026608407
49	0xbcca7ea7	-0.024718596
50	0xbdaaba6f	-0.08336341
51	0xbd0d4183	-0.034486305
52	0x3d8ca512	0.06867422
53	0x3cf86e27	0.030325962
54	0x3bece1cd	0.007229066
55	0x3db7b5ff	0.0897026
56	0xbcd3573a	-0.025798429
57	0xbd65a84a	-0.056068696
58	0xbd43ad03	-0.04777242
59	0xbc29eac0	-0.01037091
60	0x3da95588	0.08268267
61	0x3d96ed57	0.07369488
62	0xbd20625d	-0.039156307
63	0x3d3ebaa0	0.0465647
64	0x3da80b1b	0.08205243
65	0x3ce64627	0.028109623
66	0x3dbbed58	0.09176129
67	0x3d7935f7	0.06084248
68	0xbd31a1e7	-0.043367293
69	0xbd323f63	-0.04351748
70	0x3d6da30d	0.058016825
71	0x3d16a5a7	0.036779072
72	0x3d50b773	0.0509562
73	0x3d854195	0.065066494
74	0x3d8ecd0b	0.069727026
75	0xbd83e4df	-0.06440138
76	0x3d97371b	0.073835574
77	0x3d4a3507	0.049366977
78	0x3cc07ad3	0.023496067
79	0x3c575573	0.013142931
80	0x3daefaa5	0.085439004
81	0xbd974880	-0.07386875
82	0x3bdef6e7	0.0068043354
83	0xbd866f0f	-0.065641515
84	0xbdc59c93	-0.09649005
85	0x3cbd70a7	0.023125006
86	0x3d9069d2	0.070514336
87	0x3bb76467	0.0055966857
88	0xbc9aa380	-0.018876791
89	0xbcc39cd3	-0.02387849
90	0xbc684b8d	-0.014178169
91	0x3db7d5f5	0.08976356
92	0xbd9f0097	-0.077637844
93	0xbd9fbfba	-0.07800241
94	0x3dc26567	0.09491997
95	0xbbb08b33	-0.0053876876
96	0xbd2765b7	-0.040868487
97	0xbd2847a0	-0.041083932
98	0xbb664c67	-0.0035140754
99	0xbdac47a0	-0.08412099
100	0x3d95e667	0.073193364
101	0xbc00c3c0	-0.00785917
102	0x3d21d9e7	0.03951445
103	0xbd61d37d	-0.05513333
104	0xbd1886f0	-0.03723806
105	0x3dcc5dba	0.099788144
106	0x3c2dd8e7	0.010610796
107	0xbdb49375	-0.08817188
108	0xbd3b4f00	-0.045729637
109	0xbd183f9a	-0.03717003
110	0xbd89a335	-0.067205824
111	0xbd119a2d	-0.035547424
112	0xbd7eef73	-0.062240075
113	0xbda09bc7	-0.07842212
114	0xbdab1058	-0.08352727
115	0xbc6e8180	-0.014557242
116	0xbdca1e32	-0.098690405
117	0xbda2ab1d	-0.079427935
118	0x3da069cb	0.078326784
119	0x3d91c890	0.071183324
120	0xbd454617	-0.048162546
121	0x3ce0d7e7	0.0274467
122	0xbdb8d965	-0.0902584
123	0xbc9c5233	-0.019082164
124	0xbd0700cd	-0.032959748
125	0x3dbdd2df	0.09268736
126	0x3cb06480	0.021532297
127	0x3dad7dff	0.084712975
128	0xbd250647	-0.04028919
129	0xbd68f1aa	-0.056871094
130	0x3cb84360	0.022493064
131	0x3d1a5a70	0.037683904
132	0x3d6cdc2a	0.057827152
133	0x3c8d1bf3	0.017225241
134	0xbd4eaf4d	-0.05046015
135	0xbdb5585b	-0.08854743
136	0x3d162f4a	0.036666192
137	0xbd9f2bd0	-0.077720284
138	0xbdc214e2	-0.09476639
139	0xbdb65aba	-0.089040235
140	0xbdbdc457	-0.092659645
141	0x3d21b18a	0.039475955
142	0x3d2889b7	0.04114696
143	0x3c5f2127	0.013618744
144	0x3dc6f0fd	0.097139336
145	0xbd58d2fa	-0.052935578
146	0x3b1ff967	0.002441013
147	0xbd9b1443	-0.07572224
148	0x3d48c777	0.04901835
149	0x3d3ff69d	0.046866048
150	0xbd448fba	-0.04798863
151	0x3d68a6ad	0.05679958
152	0xbd9b4a33	-0.07582512
153	0xbb667a9a	-0.003516829
154	0x3bad7d80	0.005294502
155	0x3db6d0fd	0.0892658
156	0x3d0040a0	0.03131163
157	0xbd3510d3	-0.044205498
158	0x3dbbbc2d	0.09166751
159	0x3d6d0c8d	0.057873297
160	0xbd68503a	-0.056717135
161	0xbd47ff4d	-0.04882746
162	0x3d5e4307	0.05426314
163	0xbd55caf3	-0.0521955
164	0xbd7a8c33	-0.06116886
165	0x3d450743	0.04810263
166	0xbd9bb202	-0.07602312
167	0x3d9ff9e2	0.07811333
168	0x3d9b12b8	0.0757193
169	0xbd86b4d5	-0.0657746
170	0xbd91b0db	-0.07113811
171	0xbc6c73a7	-0.014431871
172	0x3ce5687a	0.02800392
173	0x3d634d3d	0.055493582
174	0x3dbb886f	0.09156882
175	0xbd9979db	-0.07493945
176	0xbdaba0e8	-0.083803
177	0xbd3968f3	-0.045266103
178	0xbc67c3e7	-0.014145828
179	0x3da726a7	0.08161669
180	0x3da854dd	0.082193114
181	0xbdc7adba	-0.097499326
182	0xbdc7e063	-0.09759595
183	0x3d176e4d	0.036970425
184	0xbd92ce87	-0.07168298
185	0xbda2c675	-0.07948009
186	0x3bdcb5cd	0.0067355395
187	0x3d1afcba	0.037838675
188	0x3aa212cd	0.0012365222
189	0xbd74d87a	-0.05977676
190	0x3d9e9137	0.07742541
191	0x3d4626ea	0.048376955
192	0xbd3a0afd	-0.045420635
193	0x3d18053d	0.03711437
194	0x3dbe5e88	0.09295374
195	0x384cf333	4.8863887e-05
196	0x3bc72a4d	0.0060780407
197	0x3d16f377	0.03685328
198	0xbc5bfc8d	-0.013426912
199	0x3c41c8f3	0.011827695
200	0xbca0ec00	-0.019643784
201	0xbceb37d3	-0.028713142
202	0xbd29cab3	-0.041453075
203	0x3d7d99e3	0.061914336
204	0x3d3656c7	0.04451635
205	0x3daaa325	0.083318986
206	0xbd3916e3	-0.045187842
207	0x3dc580c8	0.09643704
208	0x3b099233	0.0020991683
209	0xbceb9b3a	-0.028760541
210	0xbc32bbcd	-0.010909033
211	0x3d9c2835	0.076248564
212	0xbdac940b	-0.084266745
213	0x3ce43d27	0.027861191
214	0xbc8ce587	-0.01719929
215	0xbd3341ad	-0.043763805
216	0xbc773867	-0.015089131
217	0xbd9135b8	-0.07090324
218	0x3d748f03	0.0597067
219	0x3dbb2e08	0.09139639
220	0xbd67f327	-0.056628373
221	0x3cc433f3	0.023950553
222	0x3d87ab63	0.06624486
223	0x3d7874c3	0.060658228
224	0x3dac980d	0.08427439
225	0xbd32b8dd	-0.04363333
226	0x3dc6d402	0.09708406
227	0x3c8c0d27	0.017096115
228	0xbdad42df	-0.0846002
229	0x3dae4f7d	0.08511255
230	0x3d852be2	0.065025106
231	0xbd4d2c03	-0.0500908
232	0xbd97ecd3	-0.074182175
233	0x3d27529d	0.04085027
234	0x3dc50c4d	0.09621487
235	0xbd35e92d	-0.044411827
236	0xbdc1a2f3	-0.09454908
237	0x3dc1c8ad	0.09462104
238	0xbbfaa533	-0.007649088
239	0x3b570367	0.0032808424
240	0x3dbddd00	0.09270668
241	0x3c767d8d	0.015044582
242	0x3d0e30bd	0.03471445
243	0xbda6a5a2	-0.08137061
244	0xbd99b9fd	-0.075061776
245	0xbd487693	-0.048941206
246	0xbd6ffbe7	-0.058589842
247	0x3d939742	0.072065845
248	0x3db1bfbb	0.08679148
249	0xbd8f161f	-0.06986641
250	0x3cd81a40	0.026379704
251	0xbc099000	-0.008396149
252	0x3db6492b	0.089006744
253	0x3d4c58a3	0.049889218
254	0x3d8c19fd	0.06840894
255	0xbd243450	-0.04008895

encoder.layer2.bias f4 [256]
0	0x3db1cd18	0.08681697
1	0x3dc41e2a	0.09576066
2	0xbc818ee7	-0.015815211
3	0x3d853c1b	0.06505605
4	0x3d7203e0	0.059085727
5	0x3c255e0d	0.010093224
6	0x3dc0b7aa	0.09410031
7	0xbdac09af	-0.084002845
8	0xbd5fafc3	-0.05461098
9	0x3d96bcff	0.07360267
10	0x3d25cde0	0.04047954
11	0x3d689a6d	0.056787897
12	0x3d99e27b	0.07513901
13	0xbd004aa3	-0.03132118
14	0xbc9d636d	-0.019212449
15	0xbd151903	-0.036400806
16	0xbd357b80	-0.044307232
17	0xbbbbc6b3	-0.005730474
18	0x3b88b067	0.0041714194
19	0xbd8c07a2	-0.06837393
20	0xbc5211a7	-0.012821591
21	0xbc8f1cb3	-0.01746974
22	0xbb8973b3	-0.0041947006
23	0xbce363da	-0.027757574
24	0xbd3f3b93	-0.046687674
25	0xbdc10ddf	-0.09426474
26	0xbdc1bde7	-0.09460049
27	0x3d5c851d	0.053837884
28	0xbd4db29a	-0.050219156
29	0x3c6f8c1a	0.014620805
30	0x3d906cf8	0.07052034
31	0x3d3c83d0	0.046024144
32	0xbdc6e1e7	-0.09711056
33	0x3cc29a80	0.023755312
34	0x3d8e88ad	0.069596626
35	0x3cd820a7	0.026382757
36	0xbc53db1a	-0.012930656
37	0xbd98484b	-0.07435664
38	0x3d6d829a	0.05798588
39	0x3d8b596d	0.06804166
40	0x3cb1106d	0.021614278
41	0x3d6235a0	0.055226922
42	0xbd687e5a	-0.056761123
43	0x3aa2c133	0.0012417197
44	0xbd4ef10d	-0.050522853
45	0xbb6acc00	-0.003582716
46	0xbc9ae8e0	-0.018909872
47	0xbdafd4b5	-0.085854925
48	0x3d39c400	0.045352936
49	0xbd56004d	-0.05224638
50	0x3d7f22b7	0.062288966
51	0xbd8e4583	-0.06946852
52	0x3d495c67	0.049160387
53	0x3dbaadea	0.09115203
54	0xbd0f5253	-0.03499062
55	0x3d59a7ed	0.053138662
56	0x3d77671d	0.06040107
57	0xbd225eed	-0.03964131
58	0x3d64a8b0	0.055824935
59	0x3d6125ba	0.05496762
60	0xbd860d68	-0.06545526
61	0xbda6f80a	-0.081527784
62	0x3d4fc0bd	0.05072092
63	0xbdcc39c7	-0.09971958
64	0x3d5d768a	0.054068126
65	0x3d6637a0	0.056205392
66	0x3d8ff89f	0.070298426
67	0xbd16886d	-0.0367512
68	0xbd971383	-0.073767684
69	0xbbd7444d	-0.0065694214
70	0xbcc000ed	-0.023437941
71	0x3c54465a	0.012956226
72	0xbdb506ba	-0.088391736
73	0x3d728e1d	0.05921756
74	0xbcd6624d	-0.02616992
75	0xbd084f9a	-0.03327904
76	0xbd63cef0	-0.055617273
77	0x3dad6bb0	0.084678054
78	0xbb6df69a	-0.0036310316
79	0xbc71f927	-0.014768875
80	0x3cc6017a	0.024170626
81	0x3d0508bd	0.032479037
82	0x3d6a3f53	0.057189297
83	0x3bc46c80	0.0059943795
84	0x3d291d6d	0.04128783
85	0x3c823ada	0.015897203
86	0xbd8b6835	-0.06806985
87	0x3daf1632	0.08549155
88	0xbbfde633	-0.007748389
89	0xbdb0a378	-0.08624929
90	0xbd94fdc0	-0.072749615
91	0x3d40ec6d	0.047100473
92	0xbba70be7	-0.0050978544
93	0xbd65113d	-0.055924643
94	0x3d8c7c2d	0.06859622
95	0xbd41628d	-0.047213126
96	0x3da2644d	0.07929287
97	0x3db3a7bf	0.087722294
98	0x3d235870	0.039879262
99	0xbd979bdb	-0.07402774
100	0xbdaa75df	-0.083232634
101	0xbd125383	-0.035724174
102	0xbd2af507	-0.041737583
103	0xbdadb2fa	-0.08481403
104	0x3bd04900	0.0063563585
105	0xbd55b09a	-0.052170373
106	0x3d373647	0.044729497
107	0x3ccb06fa	0.0247836
108	0x3dc56c3f	0.09639787
109	0xbda0fcb8	-0.07860702
110	0x3cc7d89a	0.024395276
111	0xbd7313aa	-0.059344925
112	0x3c8620c0	0.016373038
113	0xbd8864af	-0.06659829
114	0x3d0ab71d	0.033866037
115	0x3cf1b840	0.029506803
116	0xbd792d07	-0.060833957
117	0xbc64174d	-0.013921571
118	0xbce81d1a	-0.02833419
119	0xbc9a6a0d	-0.018849397
120	0x3c231040	0.009952605
121	0x3c9f785a	0.019466568
122	0x3dbf57af	0.09342896
123	0xbdbf7b48	-0.09349686
124	0xbbae26e7	-0.005314696
125	0x3d3441f3	0.044008207
126	0xbd7bc8b0	-0.061470687
127	0x3ccb5bc7	0.024824036
128	0x3dbda5d5	0.092601456
129	0x3ccf20d3	0.025284206
130	0xbb23dd00	-0.0025003552
131	0x3d984b1b	0.074362
132	0x3d0a6eda	0.033797123
133	0xbdc5e300	-0.096624374
134	0x3d8bd212	0.06827177
135	0xbc34f473	-0.011044609
136	0xbd318e67	-0.043348696
137	0xbcf0d0c7	-0.029396428
138	0xbc3af51a	-0.011410976
139	0x3dcb005f	0.0991218
140	0x3d527100	0.051377296
141	0x3d462a6a	0.048380293
142	0xbd8d43ed	-0.068977214
143	0x3d410b2a	0.047129788
144	0xbda3196b	-0.079638325
145	0xbd5eb593	-0.05437238
146	0xbd78ebfd	-0.06077193
147	0x3d001e6d	0.031279016
148	0xbc4b808d	-0.012420786
149	0xbdac8c43	-0.0842519
150	0xbdaa8097	-0.08325308
151	0xbdbd595a	-0.09245558
152	0xbd3e9920	-0.04653275
153	0xbdb05dd8	-0.08611649
154	0xbd3902ed	-0.045168806
155	0x3c26e380	0.010186076
156	0x3d46a3e3	0.04849614
157	0x39fb4ccd	0.00047931672
158	0x3d0e2220	0.034700513
159	0xbdc9ef1b	-0.09860059
160	0xbda30c42	-0.07961322
161	0xbd11adad	-0.03556602
162	0x3b141b00	0.00225991
163	0xbdba8227	-0.09106856
164	0xbdc97e0d	-0.098384954
165	0xbdb8f12f	-0.09030377
166	0x3d6a10ea	0.057145037
167	0x3cfec353	0.031098997
168	0x3bddaa9a	0.006764722
169	0x3d0dba9d	0.034601796
170	0x3c831f07	0.016006006
171	0x3cf4c240	0.029877782
172	0x3d8c8bea	0.06862624
173	0xbca31e27	-0.019911839
174	0xbdba419b	-0.090945445
175	0x3d8bf6ef	0.06834208
176	0x3be40a9a	0.0069592716
177	0x3db81720	0.08988786
178	0xbda94328	-0.08264762
179	0xbcb0ac3a	-0.021566499
180	0x3da50c0d	0.08058939
181	0xbd43a603	-0.047765743
182	0xbcdf2f7a	-0.027244318
183	0x3d8648b8	0.06556839
184	0x3dc70ac7	0.097188525
185	0x3bae3b67	0.00531714
186	0xbd08c730	-0.033393085
187	0x3d4f7600	0.050649643
188	0xbc6bb05a	-0.014385307
189	0x3dbde60d	0.09272394
190	0x3d103da3	0.03521503
191	0xbd2baef0	-0.04191488
192	0xbd3d608d	-0.046234656
193	0xbd241e1d	-0.04006778
194	0xbd653120	-0.055955052
195	0x3d2a6c50	0.0416072
196	0x3d169577	0.036763635
197	0xbd23f90d	-0.040032435
198	0xbda4b23a	-0.080418065
199	0xbd3fa107	-0.046784427
200	0x3d82d632	0.06388511
201	0xbdc41a3d	-0.09575317
202	0xbd1765fa	-0.036962487
203	0x3d45bf03	0.048277866
204	0xbd891e50	-0.06695235
205	0x3ce89fda	0.028396536
206	0x3dc2351d	0.09482787
207	0x3ca6604d	0.020309592
208	0x3db59b2f	0.088674895
209	0x3d8af48f	0.06784927
210	0xbd616310	-0.055026114
211	0xbca14380	-0.019685507
212	0x3d566c10	0.05234915
213	0x3dc51e97	0.09624975
214	0x3dc394d8	0.09549874
215	0xbbcf0e1a	-0.0063188197
216	0x3da2a0a0	0.07940793
217	0x3d9491ca	0.072543696
218	0x3cdea5a0	0.027178586
219	0xbda42e02	-0.08016588
220	0xbc90d9a0	-0.017681897
221	0x3dbc2e42	0.091885105
222	0xbd827168	-0.06369287
223	0xbc299f5a	-0.010352934
224	0xbd796807	-0.060890224
225	0xbdb970cf	-0.0905472
226	0xbdc77ad2	-0.09740223
227	0x3cd29913	0.025707757
228	0x3c054527	0.008134163
229	0x3db8c5b7	0.09022086
230	0xbc8df420	-0.017328322
231	0x3d2ab14a	0.041672982
232	0x3d81af93	0.06332316
233	0x3db70e1f	0.0893824
234	0xbc536e1a	-0.012904668
235	0x3d34e91a	0.044167615
236	0x3d711f1a	0.05886755
237	0x3b136533	0.002249074
238	0x3d8760bf	0.0661025
239	0xbd9ab273	-0.07553568
240	0xbd8a60fb	-0.06756779
241	0x3d5beeea	0.053694643
242	0x3d9daaf8	0.07698625
243	0x3db0b1a2	0.08627631
244	0xbcd5577a	-0.026042689
245	0xbd5a36b7	-0.053274836
246	0xbd5dccb0	-0.054150283
247	0x3d060627	0.03272071
248	0xbb1f03cd	-0.002426374
249	0x3d84b79f	0.064803354
250	0xbd739ff7	-0.059478726
251	0x3dc9d1d5	0.098544754
252	0xbcc79b00	-0.024365902
253	0x3da43880	0.08018589
254	0x3db9b49f	0.09067654
255	0xbd5dc7e3	-0.054145705

fc_mu.weight f4 [2, 256]
0	0xbb914e80	-0.0044344068
1	0x3bf8a960	0.0075885504
2	0x3d145822	0.036216862
3	0x3b90dda0	0.004420951
4	0xbd481f06	-0.04885771
5	0xbd2912f8	-0.041277856
6	0x3d25b00a	0.040451087
7	0xbd225544	-0.039632097
8	0xbcb6d2a0	-0.02231723
9	0xbc97e744	-0.018542893
10	0xbb4db080	-0.003138572
11	0x3ce611f8	0.02808474
12	0x3d3b9558	0.045796722
13	0xbd0cb37e	-0.034350865
14	0x3ccda014	0.025100745
15	0x3cd87460	0.02642268
16	0xbb7404a0	-0.0037234202
17	0xbd5236d0	-0.051321805
18	0x3d4caa82	0.049967296
19	0xbc480db8	-0.012210302
20	0x3d70de48	0.058805734
21	0x3d08d0a0	0.033402085
22	0xbd3044f8	-0.043034524
23	0xbbc13ee0	-0.005897388
24	0xbd76cd48	-0.060254365
25	0x3cd90f0c	0.026496433
26	0xbccea480	-0.025224924
27	0x3d11aab4	0.035563186
28	0xbd7c2896	-0.061562143
29	0xbd0051fa	-0.03132818
30	0xbd4b1a12	-0.04958541
31	0x3d4cf2b4	0.050036147
32	0xbc4251a0	-0.011860281
33	0x3cf5684c	0.02995696
34	0xbcd0e1a8	-0.025498226
35	0xbd6fcaf6	-0.058543168
36	0xbd72a1aa	-0.059236206
37	0xba3fd300	-0.0007317513
38	0x3c5892d0	0.013218597
39	0xbd3fb5ea	-0.046804346
40	0x3d41731c	0.047228917
41	0x3d7d3644	0.06181933
42	0xbcd5e108	-0.02610828
43	0x3d2c84c8	0.042118818
44	0x3d1f6fc2	0.03892494
45	0xb7c5d000	-2.3581088e-05
46	0xba9eee00	-0.0012125373
47	0xbd15d7ec	-0.036582872
48	0x3d2da82c	0.04239671
49	0xbb4659a0	-0.0030265823
50	0xbd470fe0	-0.048599124
51	0x3d279092	0.040909357
52	0x3d5f9cb4	0.054592803
53	0xbd3b7bc0	-0.045772314
54	0xbc939a6c	-0.01801797
55	0x3d3b361e	0.045705907
56	0xbd6ada9c	-0.05733739
57	0x3d3bc562	0.045842536
58	0x3c38a030	0.01126866
59	0x3bdcbda0	0.0067364722
60	0xbc86bc48	-0.016447201
61	0xbd6a4e38	-0.0572035
62	0x3cd61bb4	0.026136257
63	0x3d41d096	0.047318064
64	0xbafeda00	-0.0019443631
65	0x3b62cf60	0.0034608468
66	0x3b0ef400	0.0021812916
67	0x3c9e6348	0.01933445
68	0x3d794bf2	0.060863443
69	0x3c99fddc	0.018797807
70	0xbd0ad992	-0.033898897
71	0x3d57f5a0	0.05272448
72	0x3cbb0714	0.022830524
73	0xbd25f59e	-0.040517442
74	0xbd3c5aec	-0.045985147
75	0x3a4e0480	0.0007858947
76	0x3d7c8024	0.061645642
77	0x3bfa5e20	0.007640615
78	0xbd39a584	-0.045323864
79	0xbd281ac4	-0.04104115
80	0xbd5740fe	-0.052552216
81	0xbca1fdf4	-0.019774415
82	0xbba58400	-0.005051136
83	0xbd7c4c22	-0.061596043
84	0x3d7c68a6	0.061623238
85	0xbc9a85b8	-0.01886259
86	0x3c86bcfc	0.016447537
87	0xbcd0e5f0	-0.025500268
88	0x3d3c0df4	0.045911744
89	0x3cc65984	0.024212606
90	0x3c9ec018	0.019378707
91	0x3d073974	0.033013776
92	0x3d3596ae	0.044333152
93	0xbccc1a7c	-0.024914972
94	0x3bb66540	0.005566269
95	0xbcd4bf44	-0.025970109
96	0xbd1559b8	-0.036462516
97	0xbcd12d44	-0.02553428
98	0xbb69ff20	-0.0035705045
99	0x3d5fd19a	0.05464325
100	0x3c8e87a4	0.017398663
101	0x3c9fe2d8	0.019517347
102	0x3c831450	0.016000897
103	0xbd24a62a	-0.04019753
104	0x38e22400	0.00010783225
105	0x3cf9fab8	0.03051506
106	0xbd731c5e	-0.059353225
107	0xbbf32900	-0.007420659
108	0xbd6d61c4	-0.057954565
109	0xbd543470	-0.05180782
110	0xbd0fe104	-0.0351267
111	0xbbeba910	-0.0071917847
112	0x3d2879c0	0.041131735
113	0xbd070328	-0.032961994
114	0xbcd2320c	-0.02565863
115	0xbd31fae6	-0.043452166
116	0x3ae0f980	0.00171642
117	0x3d4b8eaa	0.049696602
118	0x3ba71a30	0.0050995573
119	0x3d264374	0.040591672
120	0xbcb4e48c	-0.022081636
121	0xbce39a08	-0.027783409
122	0xbd5d5902	-0.054039963
123	0x3c74cca8	0.014941372
124	0x3c585678	0.0132042095
125	0x3d66d912	0.056359358
126	0xbb52c920	-0.0032163337
127	0xbd32934e	-0.043597512
128	0x3a5aef00	0.0008351654
129	0xbd7052d4	-0.05867274
130	0x3cf33684	0.029689081
131	0x3bc7bb80	0.00609535
132	0xbc122650	-0.008920267
133	0x3d5be724	0.05368723
134	0x3b2999a0	0.002587892
135	0xbd77dda4	-0.060514107
136	0xbd702a3c	-0.058634028
137	0xbd6362ec	-0.05551426
138	0x3ceb544c	0.02872672
139	0x3ba1f380	0.0049423575
140	0x3c3ab090	0.011394635
141	0xbd1d9dde	-0.038480632
142	0xbce0ef58	-0.027457878
143	0xbc42ead8	-0.011896811
144	0xbd184460	-0.037174582
145	0x3c1e9260	0.009678453
146	0xbc95da7c	-0.018292658
147	0xbd411b70	-0.047145307
148	0x3c936d1c	0.017996363
149	0x3c1c0ca0	0.009524494
150	0x3c6c4ca8	0.014422573
151	0x3cbfd6f8	0.023417935
152	0xbd29d3fa	-0.041461922
153	0xbb887840	-0.0041647255
154	0x3c8140e0	0.015778005
155	0xbd077e96	-0.033079706
156	0x3d3dead6	0.046366535
157	0xbc759c30	-0.014990851
158	0x3d7b193a	0.061303355
159	0xbd2b434a	-0.04181222
160	0xbca29da4	-0.01985056
161	0xbd3862d4	-0.045016125
162	0x3cf2b648	0.029627934
163	0xbd0c214e	-0.03421145
164	0x3d40fbe0	0.047115207
165	0xbba0d650	-0.0049083605
166	0x3d1a7952	0.037713356
167	0x3d079f08	0.03311065
168	0xbd6ffee6	-0.0585927
169	0xbd42751a	-0.047474958
170	0xbc8666cc	-0.01640644
171	0x3d465574	0.04842134
172	0xbd313f46	-0.043273233
173	0x3d302552	0.04300434
174	0x3d281694	0.041037157
175	0x3d02e834	0.031959727
176	0x3cfb8a4c	0.030705594
177	0x3d576ce0	0.052594066
178	0x3b870ee0	0.0041216463
179	0xbd2c982c	-0.04213731
180	0x3d16a23e	0.03677582
181	0xbc1623b0	-0.009163782
182	0xbd17871c	-0.036994085
183	0x3cc42e64	0.023947902
184	0xb9700a00	-0.00022891909
185	0xbcc32d78	-0.023825392
186	0x3bfb60c0	0.0076714456
187	0x3cc0bbb8	0.023527011
188	0x3b4adba0	0.003095366
189	0x3d06f008	0.032943755
190	0xbd3fd768	-0.046836287
191	0x3c2ceb68	0.010554172
192	0xbd4c0844	-0.04981257
193	0xbc4ad958	-0.01238092
194	0xbcecb2c8	-0.028893843
195	0xbcc31740	-0.023814797
196	0x3d63277c	0.055457577
197	0x3be84d50	0.0070892945
198	0x3bef03a0	0.0072941333
199	0x3d6444a2	0.055729516
200	0xbd590158	-0.052979797
201	0x3d186ec6	0.037215017
202	0x3d46b1c4	0.048509374
203	0x3c5e9428	0.013585128
204	0xbd5ea204	-0.05435373
205	0x3d6d9a5c	0.058008537
206	0xbd39a3b6	-0.045322143
207	0x3cec1534	0.028818704
208	0x3b16a6c0	0.0022987574
209	0x3b5d1300	0.0033733249
210	0x3cefbf38	0.029265985
211	0x3d6176a8	0.0550448
212	0xbd539520	-0.05165589
213	0x3d194cac	0.037426636
214	0x3aec4c80	0.001802817
215	0xbd3684cc	-0.04456024
216	0xbcef1f60	-0.029189765
217	0x3c9ef500	0.019403934
218	0x3d2599e0	0.04042995
219	0xbd0555be	-0.032552473
220	0xbd55a504	-0.052159324
221	0x3cdbb740	0.026820779
222	0xbd03c3be	-0.032169096
223	0xbc45b1a0	-0.012066275
224	0xbc744628	-0.014909305
225	0x3b6ef4a0	0.0036461726
226	0xbc526dc0	-0.012843549
227	0xbd1d03ca	-0.03833369
228	0xbd519a80	-0.051172733
229	0x3d240b40	0.04004979
230	0xbd06834a	-0.03284005
231	0xbd4ae91e	-0.049538724
232	0xbd61ba56	-0.055109344
233	0x3cc4814c	0.023987435
234	0x3cbf9304	0.023385532
235	0xbd134d84	-0.035962597
236	0xbb9cec30	-0.004788898
237	0x3d665bb0	0.056239784
238	0x3d326a54	0.043558434
239	0x3c4a29b8	0.012339048
240	0x3c3685f0	0.011140332
241	0xbc81dab4	-0.015851356
242	0xbcdf89a8	-0.02728732
243	0xbd0215d4	-0.0317591
244	0x3cac29e4	0.021016069
245	0xbd5c7a84	-0.053827778
246	0xbc7503f0	-0.014954552
247	0x3d4938a2	0.049126275
248	0xbcb2782c	-0.021785818
249	0x3c71d478	0.014760129
250	0xbc7930d0	-0.015209392
251	0x3d79bc34	0.0609705
252	0x3bf3b860	0.0074377507
253	0x3d0a210c	0.033722922
254	0xbbaf5730	-0.0053509697
255	0xbd2a60ae	-0.041596107

fc_mu.bias f4 [2]
0	0xbc58dea8	-0.013236679
1	0xbd1691e6	-0.036760233

fc_var.weight f4 [2, 256]
0	0x3d5b76e6	0.053580187
1	0x3d7aaf6c	0.06120245
2	0xbd776682	-0.060400493
3	0xbcb44d98	-0.022009656
4	0x3d150c9c	0.03638898
5	0x3d14bc10	0.036312163
6	0xbd7c17c8	-0.061546117
7	0x3c818014	0.015808143
8	0x3d34a688	0.04410413
9	0x3c0a3180	0.008434653
10	0x3a93b6c0	0.0011269674
11	0x3ccc86bc	0.02496659
12	0x3d2884a2	0.041142114
13	0xbccc87cc	-0.024967097
14	0x3c8bdc90	0.017072946
15	0xbd4702d4	-0.04858668
16	0x3d1bf1b0	0.038072288
17	0x3c017478	0.0079013035
18	0xbd02e544	-0.031956926
19	0xbbd03bf0	-0.0063548014
20	0xbbf48500	-0.007462144
21	0xbbda9e60	-0.006671712
22	0x3d07593e	0.033044092
23	0xbcc346ac	-0.02383741
24	0xbbb147c0	-0.0054101646
25	0xbd695316	-0.056964003
26	0x3d40599a	0.04696045
27	0xbd090b64	-0.03345813
28	0x3d2ece84	0.042677417
29	0xbd2016cc	-0.03908424
30	0xbcb2e214	-0.021836318
31	0xbd7f291a	-0.062295057
32	0xbd7dd69e	-0.061972253
33	0xbcb3ae78	-0.02193378
34	0xbd08c6a6	-0.03339257
35	0x3b589900	0.003305018
36	0xbd3a08a6	-0.045418404
37	0x3d29654c	0.04135637
38	0x3d471a2e	0.04860895
39	0x3cc5f454	0.024164356
40	0x3d25e206	0.040498756
41	0x3c29b548	0.010358162
42	0x3d6902be	0.05688738
43	0x3d612432	0.05496616
44	0xbc8163f8	-0.01579474
45	0x3d1ffc58	0.039059013
46	0x3c994454	0.01870934
47	0x3bf525f0	0.007481329
48	0x3bb46ee0	0.0055063814
49	0xbcc0ae08	-0.023520485
50	0x3c2022c8	0.0097739175
51	0xbc762638	-0.0150237605
52	0xbd0c58e2	-0.034264453
53	0x3c87676c	0.016528808
54	0x3c176458	0.009240232
55	0x3d2e7d80	0.042600155
56	0xbc3a2d60	-0.011363357
57	0xbabad0c0	-0.0014252886
58	0xbd4573e0	-0.04820621
59	0xbd3d5a5e	-0.04622876
60	0xbc8710d8	-0.016487524
61	0x3d341858	0.04396853
62	0x3c33bdc8	0.01097054
63	0xbc5a3fe8	-0.0133209005
64	0xbccdda28	-0.02512844
65	0xbd7685e0	-0.060186267
66	0x3c867fb0	0.016418308
67	0xbd6edb7c	-0.058314785
68	0x3ac02400	0.0014659166
69	0xbd67293c	-0.05643581
70	0xbd0e51c0	-0.03474593
71	0xbc877cb0	-0.016538948
72	0x3d3134ba	0.043263175
73	0x3cfd89b0	0.030949444
74	0xbd6afecc	-0.0573719
75	0xbceb348c	-0.02871158
76	0xbcbee244	-0.023301251
77	0xbc67f268	-0.014156915
78	0x3d42a868	0.047523886
79	0x3d7a8834	0.06116505
80	0x3d649f52	0.055816002
81	0xbd0615aa	-0.032735504
82	0x39653c00	0.00021861494
83	0xbd48aeb0	-0.04899472
84	0x3d3022c8	0.04300192
85	0x3d72c3de	0.059268825
86	0xbd6c4dd0	-0.057691395
87	0xbbd42ca0	-0.0064750463
88	0x3c3e92f0	0.011631712
89	0x3d39e17e	0.04538106
90	0x3c455368	0.012043811
91	0xbcf611ac	-0.030037723
92	0xbd16767e	-0.036734097
93	0x3d6c4ce8	0.05769053
94	0x3c8d3628	0.017237738
95	0xbb9f9be0	-0.0048708767
96	0x3d223996	0.0396057
97	0x3d7b7d08	0.061398536
98	0xbd5368d0	-0.05161363
99	0x3d580c62	0.052746184
100	0x3d5ca730	0.05387038
101	0x3ba2e6a0	0.0049713403
102	0x3c1809c8	0.009279676
103	0x3d796c7c	0.060894474
104	0x3ccb2864	0.024799533
105	0x3d61e1a2	0.05514682
106	0x3c4a5f00	0.012351751
107	0xbd463730	-0.048392475
108	0x3cd35678	0.025798067
109	0xbd2eb3d2	-0.04265196
110	0xbb6fff00	-0.0036620498
111	0x3d3c51d6	0.045976482
112	0x3d7006fc	0.05860041
113	0xbd29cec0	-0.041456938
114	0x3cc8b964	0.024502464
115	0xbd3e663a	-0.04648421
116	0x3c823dac	0.015898548
117	0xbcdf2714	-0.027240314
118	0xbd0c95b4	-0.034322456
119	0xbd6e444a	-0.058170594
120	0xbd46d120	-0.04853928
121	0x3d61e3b2	0.055148788
122	0xbcf6a650	-0.0301086
123	0xbce81920	-0.028332293
124	0xbcd92ab0	-0.026509613
125	0x3bc0a140	0.0058785975
126	0x3b10dd60	0.0022104606
127	0xbd2cd890	-0.042198718
128	0xbd0ef238	-0.034898967
129	0x3c92548c	0.01786258
130	0x3d0f42e0	0.034975886
131	0x3d2f94f0	0.042866647
132	0xbcfd3efc	-0.030913822
133	0x3d0a89ba	0.033822753
134	0xbd3dc26e	-0.046328
135	0xbd7a18d4	-0.061058834
136	0xbd169692	-0.03676469
137	0xbd722ea2	-0.059126504
138	0x3c46ffd0	0.012145951
139	0x3d58fda6	0.052976273
140	0x3c278938	0.010225587
141	0x3c4fe450	0.012688711
142	0x3ca2e3ac	0.019883953
143	0xbd089198	-0.033341974
144	0x3d7db3a4	0.061938897
145	0x3ca0c314	0.01962427
146	0xbcd20d08	-0.02564098
147	0xbd072cc4	-0.033001676
148	0xbd5e0890	-0.054207385
149	0x3b828440	0.0039830506
150	0x3c580e48	0.013186999
151	0xbbd3af10	-0.006460078
152	0xbd554a82	-0.05207301
153	0x3d7dc0bc	0.061951384
154	0xbcc8a8c4	-0.024494536
155	0xbcdc3b40	-0.026883721
156	0xbc6f8ad0	-0.014620498
157	0xbca0fca4	-0.019651718
158	0x3d192db2	0.037397094
159	0xbd391966	-0.045190237
160	0xbd137422	-0.035999425
161	0xbd78f7f6	-0.06078335
162	0xbbda3ad0	-0.006659843
163	0x3d2f85bc	0.04285215
164	0x3c65abb8	0.014017992
165	0xbd4d1c5e	-0.05007588
166	0x3d2d5d88	0.042325526
167	0xbceb59ec	-0.028729402
168	0xbd5c105c	-0.05372654
169	0x3d0f22a2	0.034945138
170	0x3d0c99de	0.034326427
171	0x3ca28048	0.01983656
172	0x3d458578	0.04822299
173	0xbd1300d0	-0.035889447
174	0xbc6104a8	-0.01373402
175	0x3d4204e0	0.04736793
176	0x3bedb930	0.007254742
177	0x3d3c1b8a	0.0459247
178	0xbc42b998	-0.011885069
179	0x3d1faf22	0.03898538
180	0xbd6036f6	-0.054739915
181	0x3b96a210	0.004596956
182	0x3caab734	0.020839311
183	0xbcb7c2ac	-0.022431694
184	0xbd5c19c2	-0.053735502
185	0xbd18c8f4	-0.03730102
186	0xbcd861cc	-0.02641382
187	0x3d53e0a2	0.0517279
188	0x3c97401c	0.018463187
189	0x3d3eb9a2	0.046563752
190	0xbd4956b6	-0.04915496
191	0xbd2787ea	-0.040901102
192	0xbcfc3304	-0.030786045
193	0x3cb6213c	0.022232644
194	0x3d7dc89a	0.061958887
195	0x3c123fa0	0.008926302
196	0xbd2edd1e	-0.042691343
197	0x3cc6c610	0.024264365
198	0x3b94ef20	0.0045451075
199	0xbc3020b0	-0.010749981
200	0x3c577aa0	0.013151795
201	0xbd20010a	-0.03906349
202	0x3c82bc10	0.015958816
203	0xbd74ff14	-0.059813574
204	0xbb7d2920	-0.0038629249
205	0xbc30aad8	-0.01078292
206	0x3ccd97a8	0.02509673
207	0x3d71dd14	0.059048727
208	0xbd4e8a6c	-0.050424978
209	0xbd64bbd4	-0.05584319
210	0xbd70623c	-0.058687434
211	0x3c7cf1d0	0.015438512
212	0x3aff0580	0.0019456595
213	0xba472f00	-0.0007598251
214	0x3d59f700	0.053214073
215	0xbc5fca58	-0.013659082
216	0xbd287146	-0.04112365
217	0x3d573170	0.05253738
218	0x3d255a5e	0.040369384
219	0x3c79acb8	0.015238933
220	0xbcfc7064	-0.03081531
221	0x3d67c24c	0.05658178
222	0x3d4c89ca	0.049936093
223	0xbcf97130	-0.03044948
224	0x3d02673a	0.031836726
225	0xbc992ac8	-0.018697158
226	0xbbaa1950	-0.0051910058
227	0x3cabf808	0.020992294
228	0xbc80309c	-0.015648179
229	0x3bd75f90	0.0065726712
230	0x3c805544	0.015665658
231	0x3c8e0300	0.017335415
232	0xbbb40e90	-0.0054949
233	0x3d2c073a	0.04199908
234	0x3d760e80	0.060072422
235	0x3d02b2fe	0.03190898
236	0xbd7c57d6	-0.061607204
237	0x3cc94504	0.024569042
238	0xbcf61d3c	-0.030043237
239	0xbcda40bc	-0.026642196
240	0xbcbafa48	-0.022824422
241	0xbd512e82	-0.051069744
242	0xbbf1fa70	-0.007384591
243	0xbd68ead4	-0.056864575
244	0xbcad0d80	-0.021124601
245	0x3d4a3432	0.049366184
246	0x3d546a14	0.051858976
247	0xbd35ec9c	-0.0444151
248	0x3d120772	0.03565163
249	0x3d1e1ace	0.03859978
250	0xbcfc93a0	-0.030832112
251	0x3c9a9310	0.018868953
252	0xbd501668	-0.05080262
253	0x3d46ed54	0.048566177
254	0x3d5aa5cc	0.053380772
255	0xbd15877e	-0.03650617

fc_var.bias f4 [2]
0	0xbd2d8bcc	-0.04236965
1	0xbaccd300	-0.0015626848

decoder.layer0.weight f4 [2, 2]
0	0x3eef4bcf	0.46737525
1	0xbe139aed	-0.14414568
2	0x3e4cc03c	0.19995207
3	0x3ec232c4	0.37929356

decoder.layer0.bias f4 [2]
0	0xbd00745b	-0.031360965
1	0xbeea0769	-0.45708779

decoder.layer2.weight f4 [100, 2]
0	0xbefb377b	-0.49065766
1	0x3ecadbb9	0.3962076
2	0xbeacd28e	-0.3375439
3	0xbe7b9212	-0.2456744
4	0xbf164e61	-0.58713347
5	0x3e805cb9	0.25070742
6	0xbf1b0b8e	-0.60564506
7	0x3e5a81d9	0.21338595
8	0x3cf08c29	0.029363709
9	0x3e4edc11	0.20201136
10	0xbf005cf0	-0.5014181
11	0x3ec29418	0.38003612
12	0xbe87dba7	-0.2653477
13	0x3f29870e	0.662217
14	0xbee786f0	-0.45220137
15	0xbe02f033	-0.12786941
16	0x3f028af4	0.50993276
17	0x3eaac667	0.33354494
18	0x3e602168	0.21887743
19	0x3ebc5df1	0.36790422
20	0x3f054173	0.5205299
21	0x3ee8f880	0.4550209
22	0xbedc69dc	-0.43049514
23	0x3ea1b999	0.31586912
24	0x3e465acc	0.19370574
25	0xbe9bd442	-0.30435377
26	0xbef28dda	-0.4737385
27	0x3f050f92	0.51976883
28	0x3f2b88c1	0.67005545
29	0x3e188078	0.14892757
30	0xbeb6f540	-0.35733986
31	0x3e92cdd2	0.28672653
32	0xbe20810c	-0.15674227
33	0xbe1e456b	-0.15456168
34	0x3ef60a00	0.48054504
35	0xbe690f8c	-0.22759837
36	0xbefc7d42	-0.49314314
37	0xbe98bb15	-0.29830232
38	0x3edd952d	0.43277875
39	0x3f27890c	0.6544349
40	0x3ed028d6	0.40656155
41	0x3eab9905	0.33515182
42	0x3f08823a	0.5332371
43	0xbf309348	-0.68974733
44	0x3ef12de9	0.4710534
45	0xbe652e21	-0.22380878
46	0x3df9121e	0.12161659
47	0x3e8d3f60	0.27587414
48	0xbe510807	-0.20413218
49	0xbe2db90f	-0.16965126
50	0x3ea4a9b8	0.32160735
51	0x3d72c496	0.05926951
52	0x3e8ee85b	0.27911648
53	0xbefc09d3	-0.49226245
54	0x3f050598	0.5196166
55	0xbf02e2bb	-0.51127213
56	0xbf1ddc35	-0.61664134
57	0xbd1aa7cb	-0.037757676
58	0x3ee582f6	0.44826478
59	0xbc859218	-0.016305014
60	0x3c149072	0.009067642
61	0x3e8cbb9f	0.27486894
62	0x3e5c7d43	0.21532159
63	0x3e46e3e3	0.1942287
64	0xbde93309	-0.11386687
65	0xbe83b753	-0.25725803
66	0xbee03959	-0.43793753
67	0xbe1255f7	-0.14290605
68	0xbda68e68	-0.081326306
69	0x3da0c1bf	0.07849454
70	0xbc65fc2f	-0.014037176
71	0x3ed28e5d	0.4112424
72	0xbe08db87	-0.13364993
73	0x3f162108	0.5864415
74	0x3eb15f67	0.346431
75	0x3f03de2c	0.5151088
76	0xbe093d8d	-0.13402386
77	0xbf2cf7ef	-0.67565817
78	0x3f1a12ab	0.60184735
79	0xbf1e44a2	-0.61823475
80	0x3ed1a124	0.40943253
81	0x3f09fee2	0.53904545
82	0xbf04e145	-0.51906234
83	0x3d288bd5	0.04114898
84	0x3dd97dfc	0.10619733
85	0x3ee2cd06	0.44297045
86	0xbdf99e4d	-0.121883966
87	0xbf0176cd	-0.505719
88	0xbed90fbb	-0.42394814
89	0xbe265592	-0.1624358
90	0xbed87c8e	-0.42282528
91	0x3f22d0d0	0.6359987
92	0xbf238643	-0.6387674
93	0xbec6781b	-0.38763508
94	0x3e9f873a	0.31157857
95	0xbeaddc35	-0.33957067
96	0x3f1798c2	0.59217465
97	0xbf2c3208	-0.6726384
98	0x3e0abb5e	0.13548037
99	0x3ea5c6b4	0.3237816
100	0xbf0d6077	-0.5522532
101	0x3f340e32	0.7033416
102	0xbe7d0c6a	-0.24711767
103	0x3e8a9ee2	0.27074343
104	0x3f116845	0.5679973
105	0x3e38f340	0.18061543
106	0x3ebbe5d2	0.36698776
107	0x3eae5990	0.34052706
108	0xbf0035e5	-0.50082237
109	0xbeb897cd	-0.36053315
110	0xbefe0e14	-0.49620116
111	0xbe3ce55a	-0.18446866
112	0xbec457bf	-0.38348195
113	0x3e9fb4f5	0.31192747
114	0x3f29cab7	0.66324943
115	0x3cf1e9d3	0.029530441
116	0xbef451c0	-0.4771862
117	0xbec6f0a8	-0.3885548
118	0xbeb83dca	-0.3598464
119	0x3f1ab807	0.60437053
120	0xbe925f8b	-0.28588519
121	0xbe1dea39	-0.1542138
122	0x3f025ec0	0.5092583
123	0xbebc903f	-0.368288
124	0x3d022202	0.031770714
125	0x3de00a0c	0.10939416
126	0xbf20d412	-0.62823594
127	0xbf14917c	-0.5803449
128	0xbec3ad99	-0.38218382
129	0xbe900264	-0.28126824
130	0x3f0e4f77	0.55590004
131	0x3f305030	0.68872356
132	0xbf31c890	-0.6944666
133	0x3ec7ed59	0.3904827
134	0xbda519c3	-0.08061554
135	0x3edbb4e8	0.42911458
136	0x3e4febd1	0.203048
137	0x3e8a772d	0.2704405
138	0x3eadeb74	0.339687
139	0xbf04b769	-0.5184236
140	0x3ebd4cb3	0.3697258
141	0x3ef545b6	0.47904748
142	0xbf104ec3	-0.5637018
143	0x3d5bbe69	0.053648386
144	0xbe34a4fb	-0.1764106
145	0xbd1e3d43	-0.038632642
146	0x3ee80227	0.45314142
147	0xbdc56798	-0.096388996
148	0x3efe0dd3	0.49619922
149	0x3e81c53c	0.2534579
150	0xbeb59bc0	-0.3547039
151	0xbc6cbaf0	-0.014448866
152	0x3ef423c1	0.47683528
153	0xbd2d1448	-0.04225567
154	0x3f02eba8	0.5114083
155	0x3e89d630	0.26921225
156	0xbc809fd7	-0.015701218
157	0x3d48db20	0.0490371
158	0x3e813f89	0.25243786
159	0xbbae6f35	-0.0053233155
160	0xbec0fa04	-0.37690747
161	0xbda3c69d	-0.07996867
162	0x3d7c198c	0.0615478
163	0xbef876cc	-0.48528135
164	0x3f2ae692	0.6675807
165	0x3e2183ce	0.15772936
166	0xbf24076b	-0.6407382
167	0xbea3f95f	-0.32026193
168	0x3da9c1f1	0.082889445
169	0xbf1b3a64	-0.6063597
170	0xbf036897	-0.51331466
171	0x3f2dd417	0.6790175
172	0xbeba351b	-0.3636864
173	0x3ef8b530	0.48575735
174	0x3d8acf08	0.06777769
175	0x3e388946	0.18021116
176	0x3f2353d3	0.6379978
177	0xbeb76d83	-0.35825738
178	0xbf172fc7	-0.5905728
179	0xbf10880f	-0.5645761
180	0x3f107f79	0.5644451
181	0x3d263681	0.040579323
182	0x3d809e35	0.062801756
183	0x3f1324a8	0.5747781
184	0x3d986194	0.074404866
185	0x3f0f5f3c	0.5600469
186	0xbe6d3967	-0.23166429
187	0x3efa682b	0.489076
188	0xbe9d0d98	-0.30674434
189	0x3f039510	0.51399326
190	0xbe4e2399	-0.20130767
191	0xbe000244	-0.12500864
192	0xbe7eee93	-0.24895696
193	0x3aca089e	0.0015413945
194	0x3eac53b8	0.33657622
195	0x3f09becc	0.5380676
196	0x3eb1bc77	0.347141
197	0x3ef4d318	0.47817302
198	0xbc4a0f56	-0.012332758
199	0x3e97f693	0.2968031

decoder.layer2.bias f4 [100]
0	0xbc0ebbbe	-0.008711753
1	0x3efc82cb	0.49318537
2	0x3f0b02d4	0.5430119
3	0x3e13f1a2	0.14447644
4	0x3e23cfc9	0.15997232
5	0xbd434c84	-0.047680393
6	0xbecdd3c0	-0.40200615
7	0x3d2f48e8	0.04279414
8	0xbc574d34	-0.013140965
9	0x3e0f973c	0.14022535
10	0x3d100229	0.03515831
11	0xbebe3398	-0.37148738
12	0xbdacc7b2	-0.08436526
13	0xba17f630	-0.00057968777
14	0xbf11f1d6	-0.5700964
15	0xbf345506	-0.70442235
16	0xbc637803	-0.0138835935
17	0xbf2cc665	-0.67490226
18	0xbf0daf58	-0.5534568
19	0xbec8c79a	-0.39214784
20	0x3eb6a101	0.3566971
21	0xbc56d067	-0.01311121
22	0xbe88c0d8	-0.26709628
23	0xbe0d39f3	-0.13791637
24	0x3e61d923	0.22055487
25	0xbde78561	-0.11304737
26	0x3e86c3da	0.26321298
27	0xbe032552	-0.12807205
28	0x3ef4b121	0.4779139
29	0x3f089898	0.5335784
30	0xbf02e5de	-0.51132
31	0xbe4c1ab4	-0.19932061
32	0x3e8a1f62	0.26977068
33	0x3f237fd8	0.6386695
34	0xbd9f9bd0	-0.07793391
35	0xbf1158ed	-0.56776315
36	0x3ef17f2f	0.47167346
37	0x3df7fd98	0.12108916
38	0x3d75c3e3	0.060001265
39	0x3e7adad7	0.24497543
40	0x3e0845d7	0.13307892
41	0x3f068744	0.5255015
42	0xbf034181	-0.51271826
43	0xbeb055f0	-0.34440565
44	0x3eedf7e4	0.46478188
45	0x3eedb60d	0.46427956
46	0xbec2e71a	-0.38066941
47	0xbf297fd3	-0.6621067
48	0x3eb7a075	0.35864606
49	0xbf02efd1	-0.5114718
50	0x3d1d7caa	0.038448967
51	0xbf1541d6	-0.5830358
52	0xbe279a6c	-0.16367501
53	0x3eabfb79	0.33590296
54	0x3e8be325	0.27321735
55	0x3e873886	0.2641031
56	0x3f299f09	0.66258293
57	0x3d4c6bbc	0.04990743
58	0xbe638221	-0.22217609
59	0x3df88156	0.12134044
60	0xbed20532	-0.4101959
61	0x3f091ce1	0.5355969
62	0x3f32be84	0.69821954
63	0xbe14b241	-0.14521123
64	0x3ebd0902	0.36920935
65	0x3dc97c42	0.098381534
66	0xbc44267b	-0.011972065
67	0x3e12118d	0.14264508
68	0x3ec33758	0.3812816
69	0xbf12f631	-0.5740691
70	0xbf28403b	-0.6572301
71	0x3e16d692	0.1473029
72	0xbf2504ee	-0.6446065
73	0xbeb5dc00	-0.3551941
74	0x3eee17a4	0.4650241
75	0xbeefdcaa	-0.4684804
76	0xbd7352ce	-0.05940514
77	0xbe6fdcb0	-0.2342403
78	0x3f0fa0eb	0.56104916
79	0x3f109529	0.564776
80	0x3dd0fd8e	0.10204612
81	0x3ef7427f	0.4829292
82	0xbecee854	-0.40411627
83	0xbe9a9708	-0.30193353
84	0x3ef99696	0.487477
85	0xbe8f5ee8	-0.28002095
86	0xbe832c61	-0.25619796
87	0xbd9321a2	-0.07184149
88	0xbe0a080c	-0.13479632
89	0x3ef0819f	0.46973893
90	0x3e6f9452	0.23396423
91	0xbdbe120d	-0.09280787
92	0x3f2a609e	0.66553676
93	0xbe8545bc	-0.26029766
94	0xbe35ad49	-0.17741884
95	0xbecb90ff	-0.3975906
96	0xbd08588f	-0.03328758
97	0x3eecdfff	0.46264645
98	0x3e024e83	0.12725262
99	0x3d9926dc	0.07478115
