nero/collections/planning/models/outputs/2020-11-10/17-59-44/checkpoints/epoch=1.ckpt (torch, 155812 bytes, 12 tensors)

encoder.layer0.weight f4 [100, 100]
000000 9a c9 ad bd cd a9 54 3b 9a 2a 36 3c a7 f5 ac bc
       -0.08485718 0.0032449842 0.011118555 -0.02111323
000010 da 08 50 3c 70 5b 14 3d bd 42 45 3d 57 f2 9e bd
       0.012697423 0.036220014 0.04815935 -0.077610664
000020 f3 b0 26 3c a0 c1 f7 bc df 1c bf 3d 33 74 7b bd
       0.010174024 -0.030243695 0.093316786 -0.061390113
000030 4b 76 9f 3d 73 3c a6 bc fd 7b 39 bd 5b 2e a9 bd
       0.077862345 -0.020292496 -0.04528426 -0.08260795
000040 47 9d db bc a3 cd 7b bd d3 ad c0 bd ed f3 a4 bc
       -0.026808394 -0.061475407 -0.09408154 -0.020135844
000050 05 dd b1 3d 1a 57 ec 3c ea 33 51 bd 9d fa ab 3d
       0.08684734 0.028850127 -0.0510749 0.0839741
000060 8d aa 7d 3d 6a 31 11 bd ea f9 3f 3d 90 1f 5b bd
       0.061930228 -0.035447516 0.046869196 -0.053496897
000070 10 87 9b bd 80 b7 cc 3c 73 e1 7f bc c0 35 a4 bc
       -0.075941205 0.024989843 -0.015617716 -0.020045161
000080 fa a2 8a bd 3b c0 8b bd 7d 81 ae 3d cd 4b 83 bb
       -0.067693666 -0.068237744 0.08520792 -0.004006839
000090 1a 19 fb bc 8d fa 18 bc cb f9 b1 bd ff 21 bb bd
       -0.030651618 -0.00933708 -0.08690222 -0.091373436
0000a0 aa 6e 0a bd ba 18 2f 3d 8d 26 73 bc c8 42 97 bd
       -0.033796944 0.04274819 -0.014840734 -0.073857844
0000b0 9a 4c 69 bc 92 5b 9a 3d b3 87 1b bc da c0 c2 bd
       -0.014239455 0.07536997 -0.009492802 -0.0950944
0000c0 e7 49 14 3c 80 cf 80 bb e0 76 e2 3c 00 52 d3 3a
       0.009050823 -0.003930986 0.027644575 0.001612246
0000d0 1f a9 bc bd 33 14 53 bc e7 15 b9 bb 77 cf 92 3d
       -0.09211945 -0.012883234 -0.005648363 0.07168477
0000e0 aa 14 a1 bd 7d a4 72 bd bd 90 ad bd 80 8c 21 bc
       -0.078652695 -0.0592389 -0.08474872 -0.009860158
0000f0 e7 df 57 bc ab 24 9e bd 6d d5 7d 3d 90 ec 3e 3d
       -0.013175941 -0.077218376 0.061971117 0.046612322
000100 4d 52 93 3c bd 6e a6 bd 1a ca bb 3c c5 23 8b 3d
       0.01798358 -0.081265904 0.022923518 0.06793932
000110 5d b1 8e 3d 2b 06 cc 3d 8d 6c 68 bc 7d 20 1f bd
       0.06967423 0.09962114 -0.014186037 -0.038849343
000120 40 9c 74 bd 4d 9b 99 bb 73 ab 2d 3d da 81 6d bc
       -0.059719324 -0.0046877027 0.042399835 -0.014496291
000130 f2 e7 c0 3d 4d f8 90 bd fd e2 ad 3d bf 3a 95 3d
       0.0941924 -0.070786096 0.0849056 0.072865956
000140 80 5f a0 bc da 60 36 bd 4d 5f 42 3d ea 1f 2b 3d
       -0.019576788 -0.04452596 0.047454167 0.041778482
000150 f7 20 30 bd 2d fd 98 bd 4d fb a5 bb 5a 93 7f 3d
       -0.043000188 -0.074701644 -0.005065358 0.062396385
000160 a3 9f 52 bd a7 9c b2 bc 82 0d a5 3d 52 37 c7 3d
       -0.051421773 -0.021803213 0.08059217 0.097273484
000170 6a c4 15 bd c7 98 1e 3d aa 04 c8 bd c7 79 30 bd
       -0.03656427 0.03871992 -0.097665146 -0.043084886
000180 47 ec 98 bd 0d ed 4c bc 17 9e 9f 3d d0 3e 2d 3d
       -0.07466941 -0.012507689 0.07793825 0.04229623
000190 fd 76 75 bd 9a d7 2a bb 37 5d 9b bd 77 f9 a7 3d
       -0.05992793 -0.002606845 -0.07586139 0.082018785
0001a0 0d cf e1 3c 9a 81 8e 39 e0 a9 5c bd c0 9d 01 bc
       0.02756455 0.0002718091 -0.053872943 -0.007911146
0001b0 ba 1f 76 3d 67 33 85 3c 38 a2 93 bd 98 9f b9 bd
       0.06008885 0.016259862 -0.07208675 -0.09063643
0001c0 73 d2 d9 3c 80 72 7d 3c b7 0a b4 bd 30 30 0b 3d
       0.026589608 0.015469193 -0.08791106 0.033981502
0001d0 1a 80 04 3c 7a 72 81 bd 4a a4 48 bd 80 d4 fb bb
       0.008087182 -0.06320663 -0.048984803 -0.007685244
0001e0 90 ae 2c 3d ca db b3 bd a7 cd 65 bd 2d b1 f9 3c
       0.042158663 -0.08782156 -0.05610433 0.030479992
0001f0 7d 96 cc 3d e7 46 37 3c 63 d5 bc 3d 15 7c cc bd
       0.09989641 0.011186338 0.09220388 -0.09984604
000200 1a 2b 70 bc 7d 2f 90 3d f3 40 2a 3c 4d dd c5 3b
       -0.014658714 0.07040308 0.010391462 0.006038344
000210 a3 da 19 bd 4d 0c f4 bc 3a 51 67 3d bf 23 cb 3d
       -0.037562024 -0.029791022 0.056473948 0.099189274
000220 85 d8 93 bd cd 09 0b bb b3 5c 29 bc 43 46 b6 bd
       -0.07219032 -0.0021215559 -0.010337043 -0.0890012
000230 a2 fa 91 3d 4d e6 77 3c 1d e1 b5 bd 87 69 f6 bc
       0.071278825 0.015130592 -0.088808276 -0.030079616
000240 9d 45 c6 bd 47 47 12 bd d8 ec a6 3d 5d 04 36 bd
       -0.096812464 -0.035712507 0.08150643 -0.044437755
000250 38 60 b8 bd 00 b0 00 3d f3 3c dd 3c 2f 1b 9e bd
       -0.09002727 0.031417847 0.027006602 -0.077200286
000260 33 87 92 ba a0 70 e4 3c 60 77 9c bc 65 b4 c8 3d
       -0.0011179209 0.027885735 -0.019099891 0.098000325
000270 48 ef c8 3d 9a 3d 3f bd a0 22 51 3d cd 4f 33 bb
       0.09811264 -0.046689607 0.05105841 -0.0027360797
000280 67 1a 61 3b 33 cc 46 bd 67 e9 f5 3b b3 4f 30 bc
       0.0034348012 -0.048534583 0.0075046304 -0.010761189
000290 67 58 82 bd 80 8d aa 3d 40 d2 21 bc 00 fd c1 bc
       -0.06364518 0.0832777 -0.009876788 -0.02368021
0002a0 6a 99 c9 bd 0a 30 26 3d 37 bc 68 bd 77 8b 3c bd
       -0.098437145 0.040573157 -0.05682012 -0.04603144
0002b0 b3 54 aa bd 20 a9 98 3c 03 1d 6b 3d 27 93 6f bd
       -0.08316936 0.018635333 0.057400715 -0.058489945
0002c0 ea 9d 97 bd 30 ad 0c bd cd 8e 41 3c e7 0e b1 3c
       -0.074031666 -0.034344852 0.0118138315 0.021613551
0002d0 53 93 d2 3c 93 fb 48 bd b3 72 f5 bc d7 df 55 bd
       0.025705015 -0.049068045 -0.02996192 -0.052215423
0002e0 1f 8a 94 bd eb f7 89 bd 80 c2 a3 3d 73 e8 90 bc
       -0.07252907 -0.0673674 0.07996082 -0.017688965
0002f0 53 22 be 3c f3 28 2f 3c e7 63 fc bb 43 fb 58 bd
       0.023209726 0.010690915 -0.007702339 -0.052973997
000300 93 d2 c9 bc 47 b1 8e 3d 93 38 93 3d f3 5a 2d bc
       -0.024636542 0.06967407 0.07188525 -0.010580766
000310 b5 d4 aa bd 82 43 b9 bd 70 a7 4f 3d 7f d0 83 3d
       -0.08341352 -0.09046079 0.05069679 0.06436252
000320 4b bc b7 bd cd c7 51 bc d7 7a b7 bd 07 2b 8f 3d
       -0.08971461 -0.012803984 -0.08958977 0.06990629
000330 1d dd 32 3d 7b 25 b6 3d b3 ae 2e 3d 37 36 8d 3d
       0.0436679 0.088938676 0.042647075 0.06895106
000340 27 79 93 3d c0 0f 22 bd 8b 0b 90 bd 9a 67 34 3d
       0.07200842 -0.0395658 -0.07033452 0.044044115
000350 c7 74 ed bc aa 4a 01 3d 85 1d b7 3d 73 1a f4 bc
       -0.028986348 0.031565346 0.08941177 -0.029797768
000360 58 46 99 3d f5 e3 c1 3d ad 1c e5 3c 6a 9f 47 3d
       0.0748412 0.094673075 0.027967775 0.048736013
000370 e5 c6 a4 3d 5a 30 d7 3c 67 b2 00 bd c2 f9 c2 3d
       0.080457486 0.026268173 -0.031420138 0.09520294
000380 50 b7 48 bd 6d cd a7 3c 27 ba 18 bc cd ff 47 3c
       -0.049002945 0.020483697 -0.009321726 0.012206984
000390 a7 af 24 bc f3 a5 94 3c fd d6 5b 3d 60 7d bc bd
       -0.010051644 0.018145537 0.053671826 -0.09203601
0003a0 33 e9 68 bc 23 9d 8b bd ba a1 97 bd 85 68 98 bd
       -0.014215755 -0.06817081 -0.07403894 -0.074418105
0003b0 f2 49 93 bd 47 92 ea bc a8 14 97 bd 8d d9 c1 bd
       -0.07191838 -0.028634204 -0.07376987 -0.09465323
0003c0 6d 3d 5c 3d 1a bd 9b bc bd 71 91 bd c7 8c 50 3d
       0.053769518 -0.01901107 -0.07101772 0.050915506
0003d0 53 14 97 bd 53 e9 c9 3d 2a 28 61 bd b7 58 86 3d
       -0.073769234 0.09858956 -0.054969944 0.0655989
0003e0 2a cf c9 bd af 29 c3 bd bd 08 6e bd 2a f1 93 3d
       -0.098539665 -0.09529435 -0.058113802 0.07223733
0003f0 9a 2f 80 3a e3 55 7d bd 9a ee 9b bb a7 86 3d 3d
       0.0009779811 -0.061849486 -0.004758668 0.046270993

encoder.layer0.bias f4 [100]
000000 6d fb 84 3c 48 43 c3 bd e7 0b 10 3d 9a 0d 69 3b
       0.01623317 -0.09534317 0.0351676 0.0035561086
000010 4a 5e 09 3d d3 7b 83 bc 17 d6 82 bd 4a 40 24 bd
       0.033537187 -0.016050255 -0.06388491 -0.040100373
000020 67 58 44 bd cf e4 bf 3d d2 10 8c bd 80 10 88 bc
       -0.04793587 0.09369814 -0.06839146 -0.01660943
000030 2d ad e7 3c 80 30 2d 3c ea f7 89 3d 00 ff 42 bd
       0.028280819 0.010570645 0.06736739 -0.04760647
000040 aa 7c c5 bd e2 5d c0 3d 38 8e 8f 3d ea 1b 0d bd
       -0.096429184 0.09392907 0.07009548 -0.03445045
000050 33 53 8f b8 5b 5d 81 bd 38 f0 9b bd 0d 5f 51 bd
       -6.8342684e-05 -0.06316634 -0.076141775 -0.051116038
000060 00 fd 99 3b 53 47 47 3d ad 43 d5 3c c0 9f e2 bc
       0.0046993494 0.048652004 0.026033247 -0.027664065
000070 e7 09 4f bd 3d 6a a5 3d dd 68 27 bd da d5 1b bd
       -0.050546553 0.08076904 -0.04087149 -0.03804574
000080 9a 5e 27 bb 70 b1 9f bd 32 72 8f 3d f5 9b 8a 3d
       -0.0025538565 -0.077975154 0.07004203 0.06768028
000090 8d 60 b9 3d 00 d1 e0 bb e7 cb 3f 3c fd 49 a8 bd
       0.09051619 -0.0068608522 0.011706329 -0.08217237
0000a0 10 72 86 bd db 3b 98 bd ba 0b 04 3d 8d 25 53 3c
       -0.065647244 -0.074332915 0.032237746 0.012887371
0000b0 0b 5b 8c bd 87 d2 f2 3c 4d 81 cc 3c eb 7d a2 bd
       -0.068533026 0.029641403 0.024964 -0.07934173
0000c0 1b 46 8a 3d d0 cd a1 bd 22 5d b1 bd 38 e1 82 bd
       0.06751653 -0.07900584 -0.08660342 -0.06390613
0000d0 7d b8 68 3d 27 9a 35 bc b3 e3 ad bc 17 40 9a bd
       0.056816567 -0.011084116 -0.02122674 -0.075317554
0000e0 80 a3 f4 bb 27 c9 55 bc 6a d0 74 3d 6d f7 c6 bc
       -0.00746578 -0.013048447 0.05976907 -0.024287904
0000f0 67 76 59 ba f3 c9 36 3c 6a 6a 4d 3d b3 bd 4d 3c
       -0.00082955364 0.011156547 0.050150312 0.012557435
000100 8d a5 9e 3d 4d f3 7b bc f3 a5 a7 bd 3d 45 af 3d
       0.0774642 -0.015377832 -0.08185949 0.08558128
000110 40 b2 11 bd 80 ab b4 3d 1a f2 f9 3b d0 05 2b bd
       -0.035570383 0.088217735 0.0076277377 -0.04175359
000120 3a 7b c0 3d 8d ff 38 3d e0 25 c7 bd 57 0d 33 3d
       0.093985036 0.045165587 -0.09724021 0.043713894
000130 53 dc 46 bd 80 ad 1b bd 03 36 37 bd cd 39 f1 bb
       -0.04854996 -0.03800726 -0.044729244 -0.0073616267
000140 27 6a e3 bc e2 ac 9e 3d 67 cc 95 bb 7f 15 a9 bd
       -0.027760578 0.077478185 -0.004571486 -0.08256053
000150 2d f4 16 bd 93 07 5d 3d 58 9b c1 3d 4d 44 e1 3c
       -0.036853958 0.0539623 0.094534576 0.027498389
000160 67 f2 63 ba 58 31 c2 3d 13 b2 aa bc 4b 89 80 bd
       -0.00086954836 0.09482068 -0.020836866 -0.062761866
000170 c0 4c f5 bc 00 19 f3 3c 13 26 db 3c 87 36 8a bc
       -0.029943824 0.029675007 0.026751554 -0.016871704
000180 00 bc cf 3c 6d 35 82 3c ad 37 4a bd 18 3f c6 bd
       0.0253582 0.015894616 -0.049369503 -0.09680003

encoder.layer2.weight f4 [256, 100]
000000 10 4d 41 bd f7 a6 97 bd bd dd 47 3d 40 f6 9d 3c
       -0.047192633 -0.07404893 0.04879545 0.01928246
000010 2d 10 a4 3c bd 04 bb 3d 4a ad 2e 3d 00 b0 9a bd
       0.020027244 0.09131763 0.04264573 -0.075531006
000020 90 50 2a 3d d0 94 7d bd 33 d8 99 3d 9a c7 f1 ba
       0.041580737 -0.061909497 0.0751194 -0.0018446327
000030 00 e4 ba bd 40 55 9b 3d da 77 0a bd 0d 98 aa bd
       -0.09125519 0.075846195 -0.033805706 -0.08329783
000040 e0 e3 b3 bc 0f d4 9f bd d7 ff 9d 3d c7 2f 6a bd
       -0.021959245 -0.07804119 0.07714813 -0.05717447
000050 ed 10 eb 3c c7 90 49 3d c7 bc 54 bd 3a df 9d bd
       0.028694594 0.049210336 -0.051937845 -0.07708593
000060 13 ee 3a 3d 83 b1 8c 3d 28 e6 b4 3d f0 ac 48 bd
       0.0456372 0.06869795 0.08832961 -0.04899305
000070 f3 2d 31 3c 0a 16 2b 3d e7 73 28 3c 57 c3 62 bd
       0.010814178 0.041769065 0.0102815395 -0.05536207
000080 8d ec bb 3c 9a 97 77 3c ad 9e 74 bd a2 a1 a5 bd
       0.022939945 0.015111828 -0.059721638 -0.0808747
000090 b3 1a 59 3d 00 8f 04 3d 7f cb 9e 3d 15 65 a1 3d
       0.053003978 0.032362938 0.077536575 0.07880608
0000a0 7a 99 f4 3c 30 59 2e 3d 0d 8b 43 bc 1a 00 06 bc
       0.02985834 0.042565525 -0.011935008 -0.008178735
0000b0 58 88 c2 3d c5 08 a5 3d ef 2e 86 3d 72 85 bc 3d
       0.09498662 0.08058313 0.065519206 0.0920514
0000c0 df 6c b9 bd 53 3f 95 bd c2 db 9d bd 67 12 1f 3b
       -0.09053969 -0.07287469 -0.07707931 0.0024272443
0000d0 da b9 76 3c 0a b4 43 bd d0 a7 09 3d a0 0d 58 bd
       0.015058959 -0.04777912 0.033607304 -0.05274737
0000e0 47 c8 5e 3d b8 b4 87 bd 3b 3d 8e 3d 83 40 0d 3d
       0.054390218 -0.06626266 0.069452725 0.03448535
0000f0 2a 9e 43 3d 00 97 f2 3c d3 e2 dc 3c cd fd c0 bc
       0.04775826 0.029613018 0.026963627 -0.023558522
000100 4d 66 33 bd 27 ca 39 bc 4d 9b 87 3b 3d 82 c2 3d
       -0.043798734 -0.011339701 0.0041383863 0.09497497
000110 6d a8 98 3c 28 69 90 3d 20 80 00 3d d0 b1 88 bd
       0.018635 0.07051307 0.03137219 -0.0667454
000120 7a 93 c6 bc 9a cf dc bb 4d 83 b4 bd 13 ed ae bd
       -0.024240244 -0.006738615 -0.08814106 -0.08541312
000130 00 46 95 bb dd a1 cb bd 57 f9 ad 3d 62 b6 9d 3d
       -0.004555464 -0.09942982 0.084948234 0.077008024
000140 f7 2e 07 bd da 44 0f bc 5a 10 d1 bc f0 19 2b bd
       -0.033003774 -0.008744443 -0.025520492 -0.041772783
000150 a7 10 0a 3c 1b ac 96 3d e7 bf d0 bb 27 68 79 bd
       0.008426822 0.07357045 -0.006370533 -0.060890343
000160 5a 16 1b bc 57 73 84 bd a0 85 96 3d f7 91 03 3d
       -0.009465778 -0.06467312 0.07349706 0.032121625
000170 3d d0 ad 3d b5 d5 90 bd c3 b8 c5 3d 73 b5 3e bd
       0.08486984 -0.070720114 0.09654381 -0.046559762
000180 5d 39 1b 3d f2 80 bb 3d f7 d6 5a bd 98 48 89 bd
       0.037896503 0.09155454 -0.053427663 -0.06703299
000190 4d 1e 30 3c b7 68 73 bd 1f 22 b8 3d 3a fb 74 3d
       0.010749412 -0.059426036 0.08990883 0.0598099
0001a0 75 bd c3 bd 1d 8f a0 3d a8 18 9c 3d 9d bb a5 3d
       -0.095576204 0.07839797 0.0762189 0.08092425
0001b0 cd 30 37 3c 80 73 50 3c e3 98 b1 3d 12 40 81 3d
       0.011181069 0.01272285 0.08671739 0.063110486
0001c0 60 49 a7 3d f3 30 61 bc cd 26 4b bd a2 e4 bf bd
       0.08168292 -0.013744581 -0.04959755 -0.0936978
0001d0 ad c9 67 bd 3d 75 95 bd cd 74 43 3b b7 f7 56 3d
       -0.056588817 -0.07297752 0.0029824257 0.052482333
0001e0 27 88 16 bc 0d 7c a0 3d e7 36 60 3c 6a 88 53 bd
       -0.009187735 0.07836161 0.013684965 -0.051643766
0001f0 da a0 8f bc c7 95 96 3c ab 72 84 3d 67 8c b1 bd
       -0.017532755 0.018381966 0.06467184 -0.08669358
000200 73 5c a6 3c 00 5e 65 bb 8f 8c aa bd a0 08 d3 bc
       0.020307755 -0.0034998655 -0.08327591 -0.025760949
000210 5a 4f 3a 3c 9a 0b 28 3d ff fb 92 bd 9a a6 88 bb
       0.011371458 0.04102669 -0.07176971 -0.004170251
000220 4a 9d 2b bd 00 69 09 3b 67 1c 3d bb 2d 25 ec bc
       -0.04189805 0.0020967126 -0.002885604 -0.02882632
000230 f3 01 81 3d 67 ce 44 3b 1b 11 be bd 77 02 45 3d
       0.062992 0.0030030252 -0.09280606 0.048098054
000240 a7 63 83 3d f7 dc 64 3d 9a c1 35 3a d2 97 96 3d
       0.064154916 0.05587479 0.0006933451 0.07353176
000250 67 7e fb 3a 27 ef 43 3c a8 e9 c2 bd e8 28 c7 bd
       0.0019187451 0.011958874 -0.09517223 -0.09724599
000260 c3 78 ac 3d 1a 80 a7 bc 70 78 13 bd 07 3b de bc
       0.08421471 -0.020446826 -0.03600353 -0.027127756
000270 45 32 bf 3d 42 b7 99 bd 37 35 58 3d ef 4c b0 bd
       0.0933576 -0.07505657 0.052785125 -0.08608424
000280 e0 b3 a1 bd 67 73 58 bc 1f d7 c2 bd 40 7a 35 3c
       -0.078956366 -0.013211108 -0.09513687 0.01107651
000290 e5 50 80 3d 4d 70 9c bd 53 ab 33 3d c7 26 a3 bc
       0.062654294 -0.07638607 0.04386456 -0.019915951
0002a0 b2 30 81 bd 30 c3 00 bd c0 c2 cb bc 5b 8e 8b bd
       -0.06308116 -0.031436145 -0.024873137 -0.068142615
0002b0 33 13 51 39 63 5c a4 3d cd 3e 45 3b 7a 6b c6 bc
       0.00019938945 0.08025434 0.0030097247 -0.02422117
0002c0 57 cb 0e 3d 63 8d 96 bd 6d fe 74 3d 93 c6 74 bd
       0.03486189 -0.07351186 0.05981295 -0.059759688
0002d0 cd 39 1a bc 10 ce 3e 3d 33 96 26 3d 67 4b a8 bd
       -0.009413195 0.046583235 0.040670585 -0.08217507
0002e0 7a ad db bc 93 b8 36 bd a7 ef 54 bd 00 1f 0a bc
       -0.026816119 -0.044609617 -0.051986363 -0.008430243
0002f0 cd b2 a4 bc 9a 88 fc 3b e7 9d 40 3d 9a 61 aa bd
       -0.02010479 0.007706714 0.047025587 -0.08319397
000300 00 f9 97 3d f3 a3 58 3d dd c1 c6 bd e8 6b 87 3d
       0.0742054 0.05289073 -0.09704945 0.06612378
000310 1d b2 76 bd c0 88 9f bd a0 e8 e9 bc af 75 ad 3d
       -0.060228456 -0.07789755 -0.028553307 0.08469712
000320 12 11 82 3d 5b c3 ba 3d bd 19 88 3d d7 61 19 bd
       0.06350912 0.09119292 0.06645534 -0.037446823
000330 70 13 a8 bd 28 2d 93 3d ea 55 5b bd 40 ec aa bc
       -0.082068324 0.07186347 -0.05354873 -0.020864606
000340 33 ae 9e bc 0f f4 98 3d f0 09 c7 3d a7 8f 9e bc
       -0.019370174 0.074684255 0.09718692 -0.019355608
000350 7f 86 8a 3d 70 eb 72 bd 1a 2c 5a bc a3 af 71 3d
       0.06763934 -0.059306562 -0.013316179 0.05900539
000360 5a 0b f4 3c 80 5e 1d 3c b3 40 ae bb 8d d0 de 3c
       0.02979057 0.00960505 -0.0053177713 0.027199054
000370 68 11 b1 3d ad a5 53 3d 5a 40 58 3d 9a 83 55 3c
       0.08645898 0.051671673 0.052795745 0.013031865
000380 5f 7a 81 bd 02 ab a9 3d da 9b f7 bc c0 d0 16 3d
       -0.063221686 0.0828457 -0.030225683 0.036820173
000390 0d da 07 3d d3 65 90 3d 5a a7 53 3d 0d 31 53 bc
       0.033166934 0.070506714 0.05167327 -0.012890113
0003a0 0b 91 89 3d 33 fe 03 bd 82 57 b5 bd c0 12 1d bc
       0.06717118 -0.032224845 -0.088545814 -0.00958699
0003b0 9a f8 38 3d 07 b6 2a bd ed 8e 81 3c ad 3f 86 bd
       0.04515896 -0.0416775 0.015815223 -0.06555114
0003c0 4d 34 a1 3b 00 7d e0 3b 33 ec 0a bc 60 a1 85 3c
       0.004919565 0.0068508387 -0.008479166 0.016312301
0003d0 55 13 c8 bd 13 74 33 3d 5a 61 97 bc 40 f7 01 bd
       -0.09769312 0.04381187 -0.018479038 -0.031729937
0003e0 1a fc 98 3b e7 64 a4 bc 00 00 c6 3b 80 a4 82 3d
       0.0046687247 -0.020067645 0.0060424805 0.06379032
0003f0 92 8f bd 3d c5 e1 ac bd 40 e2 f0 bc 40 36 e8 3c
       0.092558995 -0.084414996 -0.02940476 0.02834618

encoder.layer2.bias f4 [256]
000000 27 5c f8 3c da 5c ea 3c 82 cf 92 bd 13 df 20 3d
       0.03031738 0.028608728 -0.07168485 0.03927524
000010 47 58 c7 3c 18 0e a2 bd 0a a3 8a bd 4d f1 17 bc
       0.024334086 -0.079128444 -0.067693785 -0.009273839
000020 67 f5 58 bb 73 10 ad bd e7 cc 8c bd 07 b0 95 bc
       -0.0033105256 -0.08450403 -0.068750195 -0.018272413
000030 03 67 a0 bd 18 c0 b3 3d 57 3e a0 3d 53 3f 5e bd
       -0.07832148 0.08776873 0.078243904 -0.05425961
000040 1a 76 7b 3d 8d cc d9 bc 0d 62 9e bd 7a e1 81 3c
       0.061391927 -0.026586795 -0.077335455 0.015854586
000050 93 98 d4 bc 57 4a 54 3d 1a 1b b9 3b a7 4c 98 3d
       -0.02595166 0.05182871 0.0056489827 0.07436495
000060 cd 48 f8 3c e0 aa d0 bc 83 17 53 bd 6d 65 a6 bc
       0.030308152 -0.025472105 -0.051536094 -0.020312035
000070 9f b3 b3 bd f7 aa 4e 3d cd 61 3e bd ad 97 92 3c
       -0.087744944 0.050456014 -0.04647999 0.01789459
000080 e7 6e 4d bc 9a 55 e3 ba 60 29 1a bd 9a 28 08 3b
       -0.012538648 -0.0017344237 -0.037637115 0.0020776154
000090 33 f3 b1 3c 30 c6 61 bd 2a f9 6c 3d 0f d4 b1 3d
       0.021722412 -0.055120647 0.05785481 0.08683025
0000a0 87 77 19 3d 27 ce 7a bd a3 d9 29 bd aa 87 22 3d
       0.037467506 -0.06123176 -0.04146732 0.03968016
0000b0 1a c9 19 bd 73 eb 79 bc 00 1b 86 bc 98 44 a0 bd
       -0.0375453 -0.015253889 -0.016370296 -0.07825583
0000c0 6f 44 81 bd d3 60 b7 bd f8 ec a6 3d c7 f9 04 3d
       -0.06311881 -0.08954015 0.08150667 0.03246477
0000d0 e7 ec 8e bb 7a 8a fd bc 00 34 ee ba dd b5 5a bd
       -0.004361737 -0.03094982 -0.0018173456 -0.053396095
0000e0 1a 8b ba 3d 93 ed ae bd 9a fd 96 bb bb ea 87 bd
       0.09108563 -0.085414074 -0.0046078684 -0.06636568
0000f0 58 5e 9a 3d 00 fa 6e bb 0d 02 b8 3d 1f d7 83 3d
       0.07537526 -0.003646493 0.08984766 0.064375155
000100 e7 82 0f bd 40 25 19 3c 5a 1f ed 3c 3a 41 b7 3d
       -0.035036948 0.00934726 0.028945614 0.08947988
000110 f5 1c b0 3d 8d 92 b5 3c ba 80 5d bd d3 c8 51 bd
       0.08599273 0.022164607 -0.05407784 -0.05121691
000120 fa a5 93 bd 00 64 4d 3b 23 80 1c 3d ba f1 d1 bc
       -0.07209392 0.0031340122 0.03820814 -0.02562796
000130 3a ad b6 3c 6f 1f 91 3d 4a 75 7b 3d 70 52 00 3d
       0.022299398 0.070860736 0.061391152 0.03132862
000140 67 af de bb cd ba 70 bb 1d 25 b0 3d 80 ff 46 bd
       -0.006795812 -0.0036732436 0.08600829 -0.048583508
000150 75 fa b1 bd 20 9d d6 3c 7d 2c 69 bd 17 57 b6 bd
       -0.08690349 0.02619797 -0.056927193 -0.0890333
000160 a7 3d 44 3c b7 45 c4 bd fd 94 60 bd fa 20 1e 3d
       0.01197759 -0.095836096 -0.054829586 0.038605668
000170 68 95 90 3d 7d 60 64 bd 58 a5 ac bd ed e4 16 3d
       0.07059747 -0.05575608 -0.08429974 0.036839414
000180 a0 1f a1 bd d7 1d 21 3d 5f 7b a8 3d 9f 2d b1 3d
       -0.0786736 0.039335098 0.08226656 0.0865128
000190 0d 20 86 bc fa ed c7 3c 4b 79 9a bd ad 5b 30 bd
       -0.016372705 0.024405468 -0.07542666 -0.04305618
0001a0 0d 60 ca bd 3b b9 bc bd 83 23 2e 3d 2f fc c8 3d
       -0.098816015 -0.092150174 0.042514335 0.09813725
0001b0 f7 ec 65 3d da de c2 3c 5a 2a cc 3c ca 95 45 3d
       0.05613419 0.023787905 0.024922539 0.048238553
0001c0 0d 3c 6e bc f0 37 cb 3d cd fd 1b 3d 97 bf c4 3d
       -0.014540684 0.099227786 0.03808384 0.09606855
0001d0 d0 10 1c 3d d0 71 c7 3d 85 49 c8 3d 73 fd 5d 3d
       0.03810197 0.09738505 0.09779648 0.054196786
0001e0 67 9e 19 bd 0a b8 68 3d ef fb 91 3d fa a9 8d 3c
       -0.03750458 0.05681614 0.07128131 0.017292965
0001f0 93 96 41 bd 6d 9b 29 bd 5a b8 bd bc 73 3b af bd
       -0.04726274 -0.04140799 -0.023159195 -0.08556261
000200 90 77 80 bd 8d 49 34 3c da b9 3b 3c 2a 15 0e bd
       -0.06272805 0.011003864 0.011457885 -0.034688152
000210 70 77 39 3d d8 5d cb 3d 7f 9e c2 bd 1a a2 2a bc
       0.04527992 0.09930009 -0.09502887 -0.010414625
000220 f3 87 a0 3d d7 aa 31 bd ca ca ca 3d 9d 83 b3 bd
       0.0783843 -0.043375816 0.0990196 -0.087653376
000230 ff a6 98 3d 1f 1d ba bd b0 f1 9c 3d 47 2f ab 3c
       0.07453727 -0.09087586 0.07663286 0.020896567
000240 7f 9c b0 3d 7d 28 a1 bd cd 93 03 bb 00 9b 46 3b
       0.08623599 -0.07869051 -0.002007711 0.003030479
000250 f0 99 88 bd e3 47 74 3d aa e6 6d 3d d0 8e 35 3d
       -0.06669986 0.05963887 0.058081307 0.04432565
000260 2b 73 be bd 67 3f 4d 3d 87 49 3f bd cd 6b 8f bb
       -0.0929931 0.050109293 -0.04670098 -0.0043768645
000270 70 db 1f 3d 17 88 74 bd 5d 37 05 3d 67 f4 48 3d
       0.03902763 -0.059700098 0.0325235 0.049061205
000280 f5 19 ac bd 2d f4 b1 bd a3 97 11 3d c8 68 85 3d
       -0.084033884 -0.08689151 0.035545003 0.06514126
000290 40 54 36 3d 00 8e 0d bd d7 f4 3c bd fb cb 8c bd
       0.04451394 -0.03455925 -0.046131935 -0.06874844
0002a0 20 fb 39 bd 45 06 b1 3d b3 2b bf 3c 23 45 c1 bd
       -0.045405507 0.08643774 0.023336267 -0.09437015
0002b0 fd c6 ac 3d 1d 91 65 bd 10 2a be bd 2d e9 c6 bc
       0.084363915 -0.056046594 -0.092853665 -0.024281109
0002c0 7d bc 97 3d 5a d4 96 bd 5a 59 71 bc 00 07 b9 bc
       0.07408998 -0.073647216 -0.014730776 -0.022586346
0002d0 cd ac 83 3d 1d 16 5d bd 80 7c 0a 3c 95 ca 82 3d
       0.064294435 -0.053976167 0.008452535 0.06386296
0002e0 67 92 68 3b ba ef a2 bc 5a 29 ad bc 5a 0b 79 3c
       0.0035487653 -0.019889701 -0.021137882 0.01520046
0002f0 0d 88 fe 3c 10 c7 44 3d 9f 3f c5 3d a2 90 b4 bd
       0.031070733 0.048041403 0.096312754 -0.08816649
000300 33 70 c4 bc 87 09 91 3c 00 ca bc 3c b7 cd 97 3d
       -0.023979282 0.017704738 0.02304554 0.07412284
000310 e5 f6 bc 3d f3 04 fc 3c 5d c8 63 bd 1a 01 5d 3d
       0.09226779 0.030764079 -0.055611003 0.05395613
000320 95 8a af 3d e7 12 bb 3d aa 8b 8b bd 1a c7 e3 3c
       0.08571354 0.09134465 -0.06813748 0.0278049
000330 3d 7c 45 3d 67 75 c7 3d 8a 7f 86 3d 57 0f 3e 3d
       0.048214186 0.097391896 0.06567295 0.046401348
000340 73 05 a7 bc 67 f1 c6 bd bd a4 4a bd 4b 63 9f bd
       -0.02038834 -0.097140126 -0.049473513 -0.077826105
000350 df 01 98 3d d3 d4 f3 bc 67 bc db bc 4d ac d2 bc
       0.07422232 -0.029764568 -0.026823236 -0.025716925
000360 a7 3c 80 3d b3 26 7c 3d a3 d8 0f bd 8d 95 81 bd
       0.062615685 0.061560344 -0.03511871 -0.06327353
000370 52 64 9a bd c2 a3 88 bd 9a 23 fa bc 2d 61 d9 3c
       -0.07538666 -0.06671859 -0.030534554 0.026535595
000380 37 8e 8f bd 12 f2 95 bd 00 c1 9f 3b f3 d4 c7 bc
       -0.07009547 -0.07321562 0.0048753023 -0.024393534
000390 7d ac c6 bd c0 3b 8b bd 67 9a d1 bc a0 5b 50 bd
       -0.09700868 -0.06798506 -0.02558632 -0.05086863
0003a0 1a b6 97 bd 60 dd 0b bd 8d c0 cc bc bd 79 65 3d
       -0.0740778 -0.034146667 -0.02499416 0.0560243
0003b0 2a 7e 8e 3d 87 b2 ea 3c da 32 3e 3d b3 95 a7 3c
       0.06957658 0.028649582 0.046435215 0.020457124
0003c0 ea 40 95 bd 6a 6d 30 3d f0 e9 1e 3d e0 24 b9 3d
       -0.07287772 0.043073095 0.03879732 0.090402365
0003d0 c7 e8 98 3c 00 84 3b 3a 13 e1 cb 3c fa 08 8c 3c
       0.018665684 0.00071531534 0.024887597 0.017094124
0003e0 90 1f 79 3d ea 6a a4 bd 00 98 b6 3b 4d a6 0d bc
       0.060821116 -0.08028205 0.005572319 -0.008645606
0003f0 e0 e6 e5 3c 9d 4c 9c 3d 9a 9e e9 3b ed 25 48 bd
       0.028064191 0.076318 0.0071295025 -0.048864294

fc_mu.weight f4 [2, 256]
000000 a6 4f 33 3d f0 09 cd 3b 74 63 b5 3c b0 48 ad 3b
       0.04377713 0.006257288 0.02214215 0.005288206
000010 60 e1 28 bc c0 5c 4e 3d 78 84 01 bc a8 1d 4a bc
       -0.01030764 0.050381422 -0.007905118 -0.012336172
000020 50 75 1f bc 18 40 5a 3d 28 d7 df bc 08 eb 05 bc
       -0.009732559 0.05328378 -0.027324274 -0.008173712
000030 ec 32 d0 3c d0 f8 82 3c 86 00 59 bd b0 24 05 bc
       0.025414906 0.015987784 -0.052979015 -0.008126423
000040 28 94 4d bc 10 d1 a0 3c 44 e3 95 bc a0 37 75 bb
       -0.01254753 0.019630939 -0.018296845 -0.0037417188
000050 88 79 8d 3c 38 db 62 bc 4a b3 77 bd e0 65 2b bb
       0.017269865 -0.013846211 -0.060473718 -0.0026153252
000060 14 8f 92 3c 8c 36 0d 3d 4c 14 96 3c ae be 27 bd
       0.01789049 0.034475848 0.018320225 -0.04095333
000070 00 f6 23 39 84 88 e7 3c f0 8d d8 bb f8 b4 7e bc
       0.00015636533 0.028263338 -0.006608717 -0.015546076
000080 a0 01 80 bb 5a 62 00 bd 50 e6 cb bc 10 80 28 bc
       -0.0039064437 -0.031343795 -0.024890095 -0.010284439
000090 96 64 1f 3d 40 5b 49 bd ee 0c 05 3d a6 20 39 3d
       0.038914286 -0.04915929 0.032483034 0.04519715
0000a0 82 d5 24 3d 70 45 75 3c c8 2b 73 3c c8 fc 6f bd
       0.04024268 0.0149701685 0.014841981 -0.05859068
0000b0 08 5b 14 bd 24 cb 76 3d c0 90 4b bc 1c 5d 2d 3d
       -0.036219627 0.060252324 -0.012424648 0.042325124
0000c0 a0 5e 3e bd 14 79 9a 3c 80 aa 0d 3d 48 3a 9d bc
       -0.04647696 0.018856563 0.03458643 -0.01919283
0000d0 a8 9f 6c 3d 92 28 4e 3d 72 b5 25 bd 8c ef 65 3d
       0.057769448 0.05033166 -0.040456243 0.056136653
0000e0 c4 ad d6 bc f6 67 08 3d a8 59 48 bc 80 90 4b bc
       -0.026205905 0.03330227 -0.012228407 -0.012424588
0000f0 70 79 3d bc e2 6f 56 bd 1c 7e a2 3c e0 0f 49 bd
       -0.0115645975 -0.052352794 0.019835524 -0.049087405
000100 18 d3 c6 bc 40 c8 db 3b 28 f5 7e 3d 90 a8 2c bd
       -0.02427058 0.0067072213 0.062245518 -0.04215294
000110 80 3d 98 ba c4 02 18 3d f0 48 a9 3c 78 49 48 3c
       -0.0011615008 0.037112013 0.020664662 0.012224548
000120 e2 41 34 3d 88 46 57 3d f8 df 2c 3c 60 9d 5d 3d
       0.044008143 0.0525575 0.010551445 0.054105163
000130 40 85 9b 3c 5a b3 4c 3d de 50 77 3d 90 80 1c 3d
       0.018984437 0.04997573 0.060379855 0.038208544
000140 b8 4a 9d bc c0 09 45 3b 66 13 7c bd c0 85 3f 3b
       -0.019200668 0.0030065626 -0.061541937 0.0029224008
000150 18 2e 9a bc 52 73 3c 3d 8c 32 f0 bc be dc 1a bd
       -0.018820807 0.046008416 -0.029320978 -0.037808172
000160 a8 54 9a 3c 14 0e d2 3c 58 27 45 bc 0e fe 66 3d
       0.018839195 0.025641479 -0.012033306 0.05639463
000170 06 a9 61 3d c0 ce 15 bb a8 5f dc 3c f6 92 6b 3d
       0.055092834 -0.0022858828 0.026901081 0.0575132
000180 00 80 a5 3b 70 52 c4 bb f0 f1 7a bd 90 00 39 bd
       0.005050659 -0.0059912726 -0.061265886 -0.045166552
000190 aa c7 26 3d 08 10 0f bc 7c 4f 8d bc 40 e0 0f bb
       0.04071776 -0.0087318495 -0.017249815 -0.0021953732
0001a0 3c cc b7 3c e8 d0 01 bd c0 75 8f bc a8 84 d9 3c
       0.022436254 -0.03169337 -0.017512202 0.026552513
0001b0 08 76 73 bc a6 9e 65 3d 18 47 2c 3c 4a 12 0f 3d
       -0.014859684 0.056059502 0.010514997 0.03492955
0001c0 18 9a 24 3c 52 5a 30 bd 98 3d 14 bd 7c 8e 26 3d
       0.010046504 -0.043054886 -0.036191553 0.040663227
0001d0 4e 85 05 bd 02 64 39 bd 2c 5f 2d bd a0 84 df 3b
       -0.032597832 -0.04526139 -0.04232709 0.00682123
0001e0 40 fb c2 ba 6e f6 06 bd 00 66 d9 ba d6 27 78 3d
       -0.0014875904 -0.032949857 -0.0016586185 0.060584866
0001f0 24 e8 2f bd 68 8d 1c bc 38 9b 79 3d 50 a6 5d 3c
       -0.042945996 -0.009555198 0.060939044 0.0135284215
000200 88 7d 77 3c 84 8d 2d 3d aa 1b 52 3d a8 2b 47 3d
       0.015105613 0.042371288 0.051295914 0.04862562
000210 a2 e1 43 3d cc ae de 3c ce 31 58 bd 8e 77 68 bd
       0.047822602 0.027182959 -0.052781872 -0.05675464
000220 18 72 55 3c 84 73 bd bc 4c 89 98 bc 3c d0 00 bd
       0.01302769 -0.023126371 -0.018620156 -0.031448588
000230 4e 37 3d 3d 78 3b 52 3d a8 af e6 bc b8 ba e6 bc
       0.04619532 0.051326245 -0.028159931 -0.028165206
000240 0e 30 41 3d 4a 19 47 3d 48 ee 4b 3d a2 a2 5e bd
       0.04716497 0.048608102 0.04978779 -0.054354317
000250 46 98 5c 3d da 5e 7c 3d 70 86 14 3d a2 c9 3a 3d
       0.053856157 0.061613895 0.036261022 0.04560245
000260 d4 42 6a bd c8 36 25 bd 76 9d 33 bd b8 24 68 3d
       -0.05719264 -0.040335447 -0.04385134 0.056675643
000270 be 87 71 bd 5a f0 16 bd f8 28 38 3d d8 d4 6f 3d
       -0.058967344 -0.03685031 0.044960946 0.058552593
000280 d8 5a 85 3c ee f6 68 3d 60 d0 13 3b 48 4f 49 3d
       0.01627867 0.056876116 0.002255462 0.049147874
000290 82 4f 41 3d f0 65 10 3d 6c 99 54 bd 20 52 07 bc
       0.047194965 0.035253465 -0.051904127 -0.008259326
0002a0 b0 a8 bd 3b 00 ce 3b ba ae 13 0b bd 2c e2 f1 bc
       0.0057879314 -0.000716418 -0.033954315 -0.029526792
0002b0 00 5a 54 39 44 d4 2b 3d 18 e6 60 bd a0 90 3f 3b
       0.00020251423 0.04195048 -0.054906934 0.002923049
0002c0 f8 81 21 bc e0 99 4e bd f6 3e 15 bd 44 25 70 bd
       -0.009857647 -0.050439715 -0.036436997 -0.05862929
0002d0 be fa 62 bd 48 93 40 bd 80 2b bd 3a a8 17 29 3c
       -0.055414908 -0.04701546 0.001443252 0.0103205815
0002e0 00 63 9c 3c b4 c2 69 3d 44 63 13 bd ae f4 1c 3d
       0.019090176 0.05707045 -0.03598334 0.038319282
0002f0 08 a5 7a 3d 90 dc 25 3d 88 dc 8c 3c a6 84 19 3d
       0.061192542 0.040493548 0.017195001 0.03748002
000300 f4 3c c6 3c 98 fb 4d bc aa c5 70 3d 44 1b 1e bd
       0.024198987 -0.012572192 0.058782257 -0.03860022
000310 c8 39 5a 3d f8 e0 77 bd f8 89 1e bd 00 79 ef 3a
       0.05327776 -0.06051728 -0.038705796 0.0018270314
000320 10 a1 aa 3c 00 67 3d 3b 10 f8 e4 3b 88 90 37 3c
       0.020828754 0.0028900504 0.006987579 0.0112038925
000330 34 07 20 3d a8 a6 17 bd 60 c6 46 bd fc 9e c9 bc
       0.03906937 -0.03702417 -0.04852903 -0.024611942
000340 1c 97 d7 bc fc 83 ef 3c e6 3b 5f 3d e8 90 24 3c
       -0.026317172 0.02923774 0.054500483 0.010044314
000350 22 00 23 bd 40 b0 39 3b 40 62 7e bd 54 6b 57 3d
       -0.03979505 0.0028333813 -0.062105417 0.05259259
000360 b0 80 b8 bc 50 de c7 bb ac 16 c6 3c d4 e6 fc 3c
       -0.0225223 -0.0060994998 0.024180733 0.030871786
000370 cc b4 1d 3d 46 14 71 3d 90 d9 a8 bb 00 65 36 bd
       0.0385025 0.058857225 -0.0051528886 -0.044529915
000380 20 de 3d bb 50 de 90 bc d0 6c 5f bd a2 ec 4b bd
       -0.0028971508 -0.017684132 -0.05454713 -0.049786218
000390 d4 ca 60 3d f4 cb c6 bc 00 f0 86 bc 48 4c 33 bc
       0.054880932 -0.024267174 -0.016471863 -0.01094348
0003a0 92 17 52 3d a0 b8 46 bc 18 8a 77 3d 60 be 04 bd
       0.05129201 -0.012128979 0.06043443 -0.03240812
0003b0 90 d9 bb 3b 24 75 da 3c 46 e0 0a 3d 60 0b ec 3b
       0.0057327226 0.026667185 0.03390529 0.0072035044
0003c0 e8 0e af 3c d4 99 d2 bc 64 00 40 3d 38 00 fe 3c
       0.021369413 -0.025708117 0.046875373 0.031005964
0003d0 10 54 dc 3b 30 55 53 3d 68 5d d9 3c cc 65 7e 3d
       0.006723888 0.051594913 0.026533797 0.0621088
0003e0 60 96 73 3c 00 af 96 b9 be c8 14 bd f0 1d d4 3b
       0.014867395 -0.00028740615 -0.036324255 0.0064732954
0003f0 ee 30 5a bd 00 56 c7 39 ac e7 de 3c 60 bf 4e bb
       -0.05326932 0.00038020313 0.02721008 -0.0031547174

fc_mu.bias f4 [2]
000000 8e 4b 1f 3d 28 b7 f8 3c
       0.038890414 0.030360773

fc_var.weight f4 [2, 256]
000000 08 06 68 3d 60 c5 b8 3b 20 b0 c6 3c 84 6c 7f bd
       0.056646377 0.0056387633 0.024253905 -0.062359348
000010 44 e6 cb bc 4c 28 64 bd dc 4e 88 3c cc ad 19 3d
       -0.024890073 -0.055702493 0.016639166 0.03751926
000020 cc 46 2d 3d 3e c2 2a bd b0 74 33 3d 52 b5 1a bd
       0.042303845 -0.04168915 0.043812454 -0.037770577
000030 86 95 4f 3d 00 af 81 3a 90 f3 50 bd d0 62 57 3c
       0.050679706 0.0009894073 -0.05101353 0.013146117
000040 50 b6 30 3c 6c f3 53 bd c4 8a 55 bd e0 f9 6c bd
       0.010785654 -0.051745817 -0.05213429 -0.057855487
000050 10 d8 37 bd 18 c3 95 3c c0 cc 8c 3b 0a fc 28 bd
       -0.044883788 0.018281505 0.004296869 -0.04125599
000060 08 e2 48 bc 28 9c c8 3c e8 4d dd bc e8 5f 57 3d
       -0.012260921 0.024488524 -0.027014688 0.052581698
000070 aa 43 43 bd ac d5 56 bd 28 81 09 bd 58 43 6a 3d
       -0.04767195 -0.052449867 -0.03357044 0.05719313
000080 08 37 21 3c 00 c9 f0 b9 e0 f8 75 bd 24 b6 5e bd
       0.009839781 -0.00045926124 -0.0600518 -0.05437292
000090 10 81 3e bd 50 dc 09 bc 50 4f e1 bb 46 f0 5d bd
       -0.046509802 -0.008414343 -0.00687591 -0.05418422
0000a0 d4 5f cd bc a0 90 f7 3b 88 fa 07 bd 14 3c 6e 3d
       -0.025070108 0.0075550824 -0.03319791 0.058162764
0000b0 e0 23 d9 bc f0 2a 6f 3c ac 37 8a bc ec 49 21 bd
       -0.026506364 0.014597639 -0.01687225 -0.039377138
0000c0 56 23 2c 3d 44 74 b4 3c 1a fc 70 3d f6 71 12 3d
       0.042025886 0.022028096 0.058834173 0.035753213
0000d0 18 b0 e6 3c ac 5b ff bc 28 93 4c bc 80 ff dc bc
       0.02816014 -0.031171642 -0.012486257 -0.0269773
0000e0 3c 64 32 bd 50 1b ed 3c 40 c8 d5 bc e0 13 d3 bb
       -0.043552622 0.028943688 -0.026096463 -0.0064415783
0000f0 24 85 a9 3c 2c 3c 1b 3d 46 8b 45 bd 6c 23 8e 3c
       0.02069337 0.03789918 -0.048228525 0.017350875
000100 40 e1 de ba 00 6f 80 bb f4 21 31 bd 68 5c bf 3c
       -0.0017004386 -0.003919482 -0.04324527 0.023359492
000110 c6 6c 34 3d 60 a8 81 bc dc 6f c2 3c b2 4c 0d 3d
       0.044049047 -0.015827358 0.02373498 0.03449697
000120 3c a0 82 bc 10 ae 63 3c 00 43 2a ba d8 75 2b bc
       -0.015945546 0.01389648 -0.0006494969 -0.010465108
000130 7c 03 74 bd f4 09 02 3d 44 bc f7 3c 40 c4 c2 3b
       -0.059573635 0.031747773 0.03024114 0.005943805
000140 04 42 e4 3c 72 7a 16 bd 0a a5 49 3d 8e e2 1c bd
       0.02786351 -0.036737867 0.04922966 -0.038301997
000150 f8 5b 51 bd 16 8a 4e bd d4 e2 a7 3c 62 e4 7e bd
       -0.0511131 -0.050424658 0.020493902 -0.06222952
000160 44 f9 8e 3c cc 70 94 3c 20 22 1a 3b d0 f1 4f 3d
       0.017452843 0.018120192 0.0023518875 0.05076772
000170 5c f1 6c bd dc f5 b3 bc f0 2c bb bb 78 f4 55 3d
       -0.057847366 -0.02196782 -0.005712144 0.052235097
000180 70 47 e3 bb e2 f7 6e bd 98 7b 0b bc de da 37 bd
       -0.0069360062 -0.05834187 -0.008513354 -0.044886462
000190 40 d3 f0 bc 10 f7 4e 3d 66 e4 51 bd d4 42 53 bd
       -0.029397607 0.050528586 -0.05124321 -0.051577404
0001a0 44 8d b2 bc 4e 0a 63 bd c2 b1 33 bd c0 8b 73 bc
       -0.021795876 -0.05542975 -0.043870695 -0.014864862
0001b0 28 a9 e5 3c 60 55 20 bc 8c 12 b2 bc d8 87 99 bc
       0.028034762 -0.00978598 -0.02173736 -0.018741533
0001c0 82 ed 73 3d ac 55 7f bd 9c e9 2b 3d b4 9d 76 3d
       0.059552677 -0.062337562 0.041970834 0.06020899
0001d0 68 96 3c 3c 8c f3 07 3d fc a7 4e bd 48 2a fb 3c
       0.011510469 0.03319125 -0.05045317 0.03065981
0001e0 dc 8b 78 3d 5a b5 07 bd d6 ce 23 bd b8 37 27 3d
       0.060680255 -0.033131935 -0.039992176 0.040824622
0001f0 58 f0 56 bc c0 7b 71 3c 1c f3 bd bc a4 fb b0 3c
       -0.013118826 0.014738977 -0.023187213 0.021604367
000200 a0 f4 a1 bc c0 62 4a bd 7c 1c d3 bc f8 6d bc bc
       -0.019769967 -0.04941058 -0.025770418 -0.023001656
000210 50 62 44 bc b2 e5 72 3d 98 db c2 bc 64 5d d5 3c
       -0.01198633 0.059301086 -0.023786351 0.026045509
000220 f4 47 5b 3d 70 e0 49 3c 3c 8a 59 3d 94 7b 50 bd
       0.053535417 0.0123215765 0.053110346 -0.050899103
000230 58 a5 74 bd ac 41 e0 bc 5c 21 0f 3d ee 4a 7e 3d
       -0.059727997 -0.027375065 0.034943923 0.062083177
000240 c0 96 d3 ba 00 5f 7f bc 10 70 c6 bb a6 91 35 bd
       -0.001614295 -0.015586615 -0.0060558394 -0.044328354
000250 28 48 be 3c a2 a0 17 bd aa a3 2b bd 80 51 80 3a
       0.023227766 -0.037018426 -0.04190413 0.0009789914
000260 ec 65 5b 3d 40 e3 4e bb bc 12 5e 3d 80 a5 89 bc
       0.053563997 -0.0031568557 0.054217085 -0.01680255
000270 84 46 f6 bc 74 79 e4 bc d6 76 0c bd e0 ea 0d 3b
       -0.030062921 -0.027889945 -0.03429302 0.002165489
000280 d4 fd 22 bd 80 6d b5 3c 3a 4f 5f 3d 80 55 a7 3b
       -0.03979285 0.02214694 0.054518916 0.005106628
000290 88 ab 1b 3c 80 ab 4f bd 4c 8d 32 bd b2 5a 0c 3d
       0.009501345 -0.050700665 -0.043591782 0.03426618
0002a0 9a 8f 7a 3d 90 da e0 3b 30 85 60 3d 14 72 f1 3c
       0.061172105 0.006861992 0.054814517 0.029473342
0002b0 0a e9 38 bd 80 83 ad 3c e8 88 ea bc ca ea 34 3d
       -0.04514412 0.021180868 -0.028629735 0.044169225
0002c0 56 d7 65 bd a8 5a 09 3c 30 be 5c bc 94 e1 f6 bc
       -0.056113563 0.008383431 -0.013473079 -0.03013686
0002d0 a0 e6 87 bc c0 ca e3 3c 78 d9 2f bd aa c7 2e bd
       -0.016589463 0.02780664 -0.042932004 -0.042670883
0002e0 e0 37 af 3c a6 f6 04 bd bc c6 18 bd a0 fd 89 3c
       0.021388948 -0.032461785 -0.037298903 0.01684457
0002f0 24 17 1c 3d 8c e8 1f bd a8 a6 ef bc 80 c9 2e bc
       0.038108006 -0.039040133 -0.029254273 -0.0106681585
000300 b8 8a 5a bd 7c c8 55 3d 9a 84 1a 3d c0 a6 d8 3c
       -0.05335495 0.05219315 0.037724115 0.0264467
000310 70 e8 d4 3b 10 eb fc 3b c2 c4 6f bd 22 87 35 3d
       0.0064974353 0.0077184513 -0.058537252 0.044318326
000320 18 a1 56 bd a4 0c 61 3d 40 e9 fd 3b d6 ce 1c bd
       -0.052399725 0.054943696 0.007748753 -0.03828319
000330 90 fb 14 bd c4 0e c4 bc 1c 17 a2 3c bc 10 87 bc
       -0.03637272 -0.023932822 0.01978641 -0.016487472
000340 9c 0b 8b 3c 32 6f 5d 3d 62 0d 56 bd b8 b3 ac bc
       0.01697331 0.054061122 -0.052258857 -0.02108179
000350 3c 05 55 bd d0 0c de 3b 5c f5 8c bc 34 ba 3f bd
       -0.052006945 0.0067764297 -0.01720684 -0.046808437
000360 52 9d 2f 3d 00 e6 1b 3b b6 11 33 bd 98 fa 01 3c
       0.04287464 0.0023788214 -0.043718062 0.007933281
000370 00 16 11 3a 24 f7 ea 3c f8 97 3b 3c 28 4d 01 3c
       0.0005534589 0.028682299 0.011449806 0.007891931
000380 ea 34 54 bd d8 ef 98 3c 94 2a 25 3d b0 14 f1 bb
       -0.051808275 0.018669054 0.04032381 -0.0073572025
000390 9c 73 fd bc 60 40 57 3b 78 6c 9c bc 2c 8a 58 bd
       -0.030938916 0.0032844767 -0.01909469 -0.052866146
0003a0 00 a2 52 3d 00 9d dd 3c a8 37 3a bc 80 35 04 bc
       0.051424026 0.027052402 -0.011365809 -0.008069396
0003b0 40 f2 68 3d fe 68 57 3d 3c 42 f2 3c 08 49 10 bc
       0.056871653 0.052590363 0.029572599 -0.0088064745
0003c0 70 ca 69 bc 2c 74 7a 3d 80 96 e2 3a 30 1e ad 3b
       -0.014269456 0.061145946 0.0017287284 0.0052831396
0003d0 e8 43 7e bc 78 5f 64 bc d0 69 9e bb 14 4c 85 bc
       -0.01551912 -0.013938777 -0.004834391 -0.016271628
0003e0 e4 b5 99 3c 28 95 f8 bc 12 cf 57 bd f8 6b 76 bd
       0.01876349 -0.03034456 -0.052687712 -0.06016156
0003f0 7a 1c 19 3d 30 f5 1b 3d b6 bd 1a bd b8 25 38 3d
       0.037380673 0.038075626 -0.03777858 0.044957846

fc_var.bias f4 [2]
000000 50 08 ed 3b 40 10 5b bd
       0.007233657 -0.053482294

decoder.layer0.weight f4 [2, 2]
000000 04 8b 34 bf e2 24 c1 3e 1f ac 13 bf 1a 06 d8 3e
       -0.7052462 0.37723452 -0.5768451 0.42192155

decoder.layer0.bias f4 [2]
000000 4e bb 55 3d 25 3e 66 be
       0.05218058 -0.22484644

decoder.layer2.weight f4 [100, 2]
000000 dc 5e 90 be e3 de 18 bf a7 c8 12 3f 20 87 78 be
       -0.28197372 -0.597151 0.5733742 -0.24270296
000010 41 53 15 bd 7d 70 fa bd 6b 2e b2 be b6 b9 e0 be
       -0.03645635 -0.12228487 -0.3480104 -0.43891686
000020 9a bc 9f 3d 91 6d 09 bd fb 14 db be 60 8e 82 3e
       0.07799645 -0.033551756 -0.42789444 0.25499249
000030 f1 65 af bd 33 69 14 3f d8 4e 23 bf 3a 1a a9 bd
       -0.08564366 0.5797302 -0.6379218 -0.082569554
000040 7b 70 0d bf ce 52 92 bd 08 92 26 3f 16 49 f6 be
       -0.55249757 -0.071447 0.65066576 -0.48102635
000050 5a 8a 30 3e 57 8f 26 bf e4 63 10 bf 0a ab 92 be
       0.17240277 -0.6506247 -0.5640242 -0.28646117
000060 29 ef 1a 3f 9e 90 93 be 6b 7d 71 be 65 92 91 3e
       0.6052118 -0.28821272 -0.23583 0.28432003
000070 33 f2 fc be 77 a0 c0 be 10 85 da be 8f 15 69 bc
       -0.49403533 -0.37622425 -0.42679644 -0.014226331
000080 c2 c4 11 3f ae d2 32 3f 86 38 57 3e 00 10 27 3f
       0.56940854 0.6985272 0.21017656 0.6525879
000090 8d 4d f4 3e d2 63 18 bf 46 b6 0c 3f 91 98 00 3f
       0.47715417 -0.59527314 0.5496563 0.502328
0000a0 f1 ee 7b bd d1 53 f8 3e 10 33 75 3e ba 27 18 be
       -0.06150717 0.48501447 0.2394526 -0.14858904
0000b0 6a 7d c3 be ed 44 b0 be 57 87 fd be a7 fe a7 be
       -0.3818162 -0.34427586 -0.4951732 -0.32811472
0000c0 5a 8e d6 be 1d 14 e2 be 3c b4 44 3e 69 04 d0 be
       -0.4190548 -0.4415597 0.19209379 -0.40628365
0000d0 27 4f f4 3d db d5 12 3f ae 0f d2 be 63 06 2c be
       0.119291596 0.5735757 -0.41027588 -0.16799311
0000e0 ac 15 79 be ea 40 b4 3e c9 14 43 be a3 f3 10 3d
       -0.24324673 0.35205775 -0.19050898 0.0353886
0000f0 91 0c 8c be ae 22 d9 be 03 35 0c 3f e1 fe 6e be
       -0.27353337 -0.4240927 0.5476839 -0.23339416
000100 8b c3 27 bc 89 ac e7 bd 49 c7 19 be 91 29 27 3f
       -0.010239492 -0.11312205 -0.15017428 0.652978
000110 f0 60 8b be 25 0d 81 be a3 c2 08 3f b5 c8 31 3e
       -0.27222395 -0.2520534 0.5342199 0.1736172
000120 86 84 92 bd a0 35 8e 3e 7d 47 17 be e0 a1 86 3e
       -0.07154183 0.27775288 -0.14773364 0.26295376
000130 8f 1f 1f be cf c7 6a be bd d6 19 bf 22 12 65 3d
       -0.15539382 -0.22927783 -0.6009329 0.055925496
000140 7c c2 1a 3e 3c 10 84 3e 4f f9 b3 3e 62 9e 1b 3f
       0.15113252 0.25793636 0.35151145 0.6078855
000150 fd c8 9f be b4 78 c0 bd d1 81 c0 3e 09 9c a5 be
       -0.3120803 -0.09398022 0.37599042 -0.32345608
000160 62 f0 0c 3f c5 80 72 3e 43 93 ea be 1f 70 a6 be
       0.55054295 0.23681934 -0.45815477 -0.32507417
000170 69 04 37 3e 27 5f fc be c8 cf 06 3e e8 92 34 3e
       0.17872776 -0.49291345 0.131652 0.17634165
000180 2c 63 24 3f c0 5e 8b 3e 5e a5 08 3d 58 2d ca bd
       0.64213824 0.27220726 0.03336083 -0.0987193
000190 1f da ca 3e 5b 16 f3 be 63 27 30 bf 20 5d be 3e
       0.39619538 -0.47477993 -0.688101 0.37180424
0001a0 1d b7 b8 be ac 29 90 3d 92 8b ed 3e d1 bb 17 3f
       -0.36077204 0.07039198 0.46395546 0.5927096
0001b0 98 29 27 be cb c6 e8 be 40 12 14 3e 8e de f1 3d
       -0.1632446 -0.45464167 0.14460087 0.11810027
0001c0 fc d0 f6 bd cb b5 74 3e ec 09 8d be 92 29 38 be
       -0.12051579 0.23897474 -0.27546632 -0.17984608
0001d0 e1 b5 ff 3e e7 ed 8e bd 4e 6c 15 3f 77 9a 96 3e
       0.4994345 -0.0697897 0.58368385 0.29414722
0001e0 86 b2 05 bf 4e 8d 36 bd d8 6d 0e bf d0 e4 fd bd
       -0.5222553 -0.044568352 -0.5563636 -0.12397158
0001f0 8a cb 45 be 82 91 d5 3e e1 b2 86 3e 20 bb 11 3f
       -0.19315925 0.41712576 0.2630835 0.56926155
000200 10 b8 e4 3d ec c7 0c bf 7a aa 94 3e ae 80 e8 3e
       0.1116792 -0.54992557 0.29036313 0.45410675
000210 80 2e cd bd 03 1a 3d be b9 e1 e3 3b 80 d1 1d 3f
       -0.10018635 -0.18466954 0.0069543985 0.61647797
000220 08 ae 3e 3e c2 e1 16 bf 0d b4 1f 3e 8c f1 d8 be
       0.18621075 -0.5893823 0.15596028 -0.42371786
000230 07 32 12 bf cc 7d f0 3d d5 ce 45 bd e4 a1 3c be
       -0.57107586 0.11742744 -0.048292954 -0.18421131
000240 a2 51 a9 be 26 29 c9 be 6c 0a 88 bd 04 0b ca 3e
       -0.33070093 -0.39289206 -0.06642613 0.3946153
000250 ff 28 ba 3e a2 02 c3 be 77 2c 45 3c 67 66 4d 3e
       0.36359403 -0.38087946 0.012034527 0.20058595
000260 fa 94 e8 be 00 26 36 3e f6 45 93 bd 54 61 58 3e
       -0.4542616 0.17787933 -0.07191078 0.21130878
000270 ec 6a f9 be f1 83 31 3f 91 49 dc be 5e 7a c7 bc
       -0.48714387 0.6934195 -0.43024877 -0.024350341
000280 dd c9 15 3f e6 38 5b 3e bf 61 26 3f aa e6 2f 3f
       0.58511144 0.21408424 0.649929 0.6871134
000290 a0 1f f1 3e 34 d4 92 3d c0 59 2b 3f 0e a0 0f bf
       0.4709444 0.07169381 0.6693382 -0.561036
0002a0 df 39 70 3d 19 03 86 be f0 aa 14 bf a0 ac d0 be
       0.05864894 -0.26174238 -0.5807333 -0.40756702
0002b0 ee 97 04 3e c7 fb eb 3e 10 ac 6d bd 16 b7 37 ba
       0.12948582 0.46090528 -0.05802542 -0.0007008178
0002c0 bb 3d bf 3e 71 b4 d7 3e 89 99 4d 3e 18 8a b3 3e
       0.37351784 0.42129853 0.200781 0.35066295
0002d0 9d 81 c5 be 32 a2 2a bf 0a ef 32 3f 96 8a 1f 3f
       -0.3857545 -0.6665374 0.69895995 0.6232084
0002e0 c4 a1 0f 3f ec 54 0b bf dc b4 8c be 88 d0 12 bf
       0.5610621 -0.54426455 -0.27481735 -0.57349443
0002f0 8b ae 2e 3f 7a 54 87 3e ad 67 25 bf a7 e2 c1 3c
       0.6823508 0.26431638 -0.6461132 0.023667647
000300 f3 c0 7d 3e f2 48 31 bf 94 eb 63 3e 6d ac 30 3e
       0.24780636 -0.6925193 0.22257835 0.17253275
000310 f9 d8 39 3c 8f f7 24 bf 1c b0 29 3e 71 0f 16 bf
       0.011343234 -0.64440244 0.16571087 -0.5861731

decoder.layer2.bias f4 [100]
000000 a3 96 10 bf 43 59 0f bf d1 21 c4 3e 19 2c d2 be
       -0.56479853 -0.5599558 0.3830705 -0.4104927
000010 31 a1 54 be b6 5a 15 3f 8b 79 05 3f ad 52 1a bf
       -0.20764615 0.5834154 0.52138585 -0.60282403
000020 f6 de c3 be ba 40 4d 3e 90 34 99 3c 5e 3b 20 bf
       -0.38256043 0.20044222 0.018701822 -0.6259059
000030 65 3e e9 3e c8 68 a5 be 98 57 0e bf 2f de 1c 3d
       0.45555416 -0.32306504 -0.5560241 0.03829783
000040 4c 33 a2 3e 23 8c 83 3e b8 83 00 3f e4 e2 ad bd
       0.3167976 0.25692853 0.50200987 -0.084905416
000050 47 59 8e 3d 75 34 ea be ec 20 05 bf 52 ce 29 3f
       0.06950622 -0.45743147 -0.5200336 0.66330445
000060 50 f6 2a 3f 17 2f 15 3f 74 22 23 3e 06 b0 df 3e
       0.66782093 0.5827498 0.15931112 0.43688983
000070 9e 1d 2b 3e 83 39 5c be ba 6a 98 be 66 37 c1 3e
       0.16710517 -0.21506314 -0.29768926 0.37737578
000080 23 48 fa be 7f 16 14 bf b4 5a 1e 3f a8 b7 30 3f
       -0.4888316 -0.57846826 0.6185715 0.6903024
000090 31 4f 18 3f a1 c8 a2 3b 51 3f 0a 3f 6e 19 75 3e
       0.59495836 0.0049677645 0.54002863 0.23935482
0000a0 3b 4d 8d 3e 2c 11 0a 3f b0 dc fc be 03 ad 32 bf
       0.27597985 0.5393245 -0.4938712 -0.69795245
0000b0 66 81 18 3f fe e7 32 3f 0e 0b 22 3f b5 89 a0 be
       0.59572446 0.6988524 0.6329812 -0.31355062
0000c0 ff 48 05 bf b4 9d f5 bd a8 4d cd bd c0 b2 e2 be
       -0.5206451 -0.1199297 -0.100245774 -0.44277
0000d0 cf 0f 9a 3e 55 e4 88 be dd 84 0c bf 70 45 01 be
       0.30090186 -0.26736704 -0.54890233 -0.12624145
0000e0 2a 2c 19 3d 12 6e 10 3f 2f aa 84 3e c3 e8 95 3e
       0.037395634 0.56417954 0.2591109 0.29279146
0000f0 f1 af 0e 3e 71 fb 10 3f 49 ba a1 be e1 6f fe 3e
       0.13934304 0.5663367 -0.31587437 0.49694732
000100 22 68 5d 3e 4e f5 c5 3e 0a df aa be 1f cb 34 bf
       0.21621755 0.38663715 -0.3337329 -0.7062244
000110 86 fe 16 3e 56 95 0a 3f 3a 10 d1 be 82 bf 07 bf
       0.1474553 0.5413412 -0.40832692 -0.5302659
000120 5d b1 50 be f6 ef 0b 3f cf be 39 be 28 a2 4d be
       -0.20380159 0.54663026 -0.18139194 -0.20081389
000130 ec a1 b2 3d e3 7f ee bd e7 cb 04 3e d1 ca 09 bd
       0.087222904 -0.11645486 0.12968408 -0.033640686
000140 26 c9 7d 3e e9 fb e7 3e 9f 2e fb be 93 f2 31 bf
       0.24783763 0.4530938 -0.49059007 -0.69510764
000150 c6 4d 7e 3e 80 2f 17 bf bd 53 2a 3d 8a 6d 6f be
       0.24834356 -0.59056854 0.041583765 -0.2338163
000160 f0 17 8e be 9a e4 f3 be 18 1d 33 bf 78 5a 33 bf
       -0.27752638 -0.47635347 -0.6996627 -0.7005992
000170 cf 61 cd 3c 72 d5 ca be 55 ef 53 3d 76 bf 2c 3f
       0.025071053 -0.3961597 0.051741917 0.67479646
000180 4b d7 e7 be 51 d6 a7 be 87 22 01 3f a3 49 01 3e
       -0.45281443 -0.32780698 0.5044331 0.12625746
