nero/collections/planning/models/outputs/2020-11-10/17-31-44/checkpoints/epoch=0.ckpt (torch, 155812 bytes, 12 tensors)

encoder.layer0.weight f4 [100, 100]
00000000: c09b 8ebd cfec 8dbd 6751 09bb 6744 67bd
00000010: cdba cc3a e333 103d 40b3 a3bd 005e a3bb
00000020: b3c9 e1bc 403a 153c 502d 5ebd ea91 3bbd
00000030: 53cd 8f3d 2bff afbd 67bc af3b 60f4 bdbd
00000040: 0d2d 8c3d e013 323d 2dba f03c 67be 8b3a
00000050: f728 8d3d 808c efbc 1fe2 bebd c391 203d
00000060: e3a5 4c3d 1dfd b4bd 6766 ceb6 8749 b63c
00000070: 137f 0f3d 67f6 f7bb ede2 cdbc 9b59 a3bd
00000080: cd9a a53b ea38 993d 9a48 1dbb a874 bf3d
00000090: 5df3 983d 0065 213b 0714 6abd 1a90 913d
000000a0: cda4 7b3b 2726 7a3c 677c 98bc f35e 143c
000000b0: c75e a03c 7a78 cabd 67c9 56bd 4331 05bd
000000c0: 07f8 57bd d727 3b3d 1af1 833d c3fc 0c3d
000000d0: ed47 9d3c b7cc 91bd 7d68 123d 77c2 42bd
000000e0: 6f38 bf3d af9c 8a3d 6de7 7fbd e783 183d
000000f0: 9a08 f0bb 1d99 073d ed38 84bd 6af5 213d
00000100: 5d49 113d d06b 32bd fd07 1f3d 0dbf 0b3c
00000110: c0ad 1d3c cd5c 293b 9a54 7fbc 8fef 943d
00000120: 001b 02bd 6226 a9bd e771 ffbc 4337 53bd
00000130: 5505 8dbd 4dbb 60bd 8d87 5bbc f353 75bd
00000140: 9a60 2e3b e0b6 573d ed9d 1bbd e7c2 403c
00000150: d37c 44bd 7a69 643d 83b6 0dbd 17a9 c9bd
00000160: 2d97 473d bae2 bd3d 7d79 b63d c320 753d
00000170: 5db7 1c3d a0ce 21bd 681f ae3d 78b6 ca3d
00000180: 8dad 553d 577f a4bd 0aaf 283d 9fd4 883d
00000190: f8c5 c63d ddf6 b0bd 6081 683d 1a49 513c
000001a0: 1fc1 b33d 207d fe3c fbbc 94bd 9a9e fd3b
000001b0: 3044 133d 8d11 f4bc b30d b93d d3e1 25bd
000001c0: 077a 82bd 5371 93bd d358 83bc 478a 75bd
000001d0: 339c b93b 3f23 c8bd 13d5 23bd 600b e93c
000001e0: 1d76 0fbd ba2f acbc 45ba 98bd 4047 26bc
000001f0: d0f5 063d ba38 b1bd 2322 513d b38c bb3c
00000200: e777 d4bb 739a ad3c d711 76bd b0e1 5bbd
00000210: 33cd 71bc 4b52 8dbd 50ff a7bd 00c7 5e3c
00000220: a0d4 073d 1d88 5c3d c06e 3ebd e0f6 833d
00000230: 7d1f 9fbd e860 993d fa36 f93c b331 2bbc
00000240: 2dfc ca3c 8d05 21bc d39d 0cbd faac 88bc
00000250: 1a18 2b3c 5720 0abd aa07 97bd c327 52bd
00000260: cd4f c13d 8a24 18bd 87ea 68bd 5a0a 2bbc
00000270: 907a 81bd 8d19 ed3c 8017 103d cdc7 b2bb
00000280: bf5c 88bd 2a8e 123d c8ff 94bd 101f 8bbd
00000290: 33d7 923c f551 bcbd f0d9 a3bd 5da5 86bd
000002a0: 132a e33c fa71 adbd c733 b1bc 8f38 b13d
000002b0: 9a89 2339 cd53 e0bb 40d7 673c 4ac2 853d
000002c0: 63b3 41bd 276a 3e3c 3007 2d3d 6833 a6bd
000002d0: 3d44 1bbd 3a61 7b3d 831d c0bd 00ce 05bd
000002e0: 4371 4cbd 434c 8ebd 6ab1 c7bd 33e6 c43c
000002f0: c830 c03d d364 c23c cd99 62bc d82b 9bbd
00000300: 9d17 353d 289a be3d fa75 3b3d 574d 443d
00000310: 7034 5ebd d7f4 b9bd ba3b e0bc 074c 653d
00000320: 4d9c f53b d0f1 8f3d c8c4 c53d 2d81 edbc
00000330: cdb3 863c 1739 723d f311 bc3c 6711 083b
00000340: a000 84bd 4754 5abd 0a4d 1e3d fdcf 043d
00000350: 4069 c53d 0d41 353c 9aa3 493b 004c 91ba
00000360: 7aba db3c 4281 bdbd eacc afbd c3d1 7bbd
00000370: 3311 653d 9a63 323b d3b4 59bd 9a91 b23a
00000380: f3fb de3c 90e0 0dbd 47f8 743d a054 113d
00000390: 339c 8bbd fad2 873c 585d cb3d 5373 5f3d
000003a0: ed2a c23c 9f21 81bd 6008 b83c 00f8 72ba
000003b0: e0f5 05bd a509 a1bd 6566 ccbd 5364 4ebd
000003c0: c089 f93c c02b 19bd 9f3f 91bd af19 953d
000003d0: 33e7 043b 335d 6dbd 5a9c 1dbd 28d5 c93d
000003e0: 2afd 733d 279e 9dbc b068 683d 333c 943b
000003f0: f560 b63d 6042 a13c f732 57bd a0ac fbbc
-0.06963301 -0.06929933 -0.002095306 -0.056461718 0.0015619636 0.035205733 -0.079931736 -0.004985571
-0.027561998 0.009108126 -0.054242432 -0.04579345 0.07021584 -0.08593591 0.0053630355 -0.092751265
0.0684453 0.043475986 0.02938565 0.0010661603 0.06892579 -0.0292418 -0.09320473 0.03920151
0.04996289 -0.0883734 -6.1511996e-06 0.022251857 0.035033297 -0.0075672152 -0.02513262 -0.07976075
0.005053854 0.074815586 -0.0023999573 0.09348422 0.07468293 0.002462685 -0.057148006 0.07107563
0.003839779 0.015267885 -0.018614007 0.009055841 0.019576443 -0.0988626 -0.052438166 -0.032517683
-0.05272677 0.04569229 0.06442471 0.03442074 0.019199336 -0.071191244 0.03574418 -0.047548737
0.09336936 0.06768166 -0.062476564 0.037235167 -0.007325244 0.033105005 -0.0645617 0.039540686
0.035470355 -0.04355985 0.038825978 0.008529437 0.009623945 0.0025842667 -0.015584135 0.07272255
-0.03176403 -0.08259274 -0.031182243 -0.051566374 -0.06885783 -0.054866124 -0.013399017 -0.059894513
0.0026607872 0.052664638 -0.037992407 0.011765218 -0.047970604 0.055764653 -0.034597885 -0.098467045
0.048728157 0.0927176 0.08909891 0.059845697 0.038260806 -0.039503694 0.08502084 0.098980844
0.052167464 -0.08032101 0.041182555 0.06681179 0.09705728 -0.086408354 0.056764007 0.012773776
0.08777069 0.031065524 -0.07262608 0.007739854 0.0359537 -0.029793525 0.09035816 -0.040498566
-0.06370931 -0.07199349 -0.016033566 -0.059946325 0.0056643724 -0.09772348 -0.039998125 0.028447807
-0.03502475 -0.021018852 -0.07457403 -0.010148823 0.03294927 -0.08653398 0.051057946 0.022894239
-0.00648402 0.021191811 -0.060075607 -0.05368203 -0.014758396 -0.06900462 -0.08202994 0.01359725
0.03316176 0.053840745 -0.04649234 0.06443572 -0.07769678 0.074891865 0.030421723 -0.010448861
0.02477845 -0.009827984 -0.0343302 -0.016684044 0.010442758 -0.033722248 -0.07374509 -0.05130745
0.09439049 -0.03714422 -0.056864288 -0.01043948 -0.06322205 0.028942848 0.03517866 -0.005455947
-0.06658315 0.03578011 -0.07275349 -0.06793034 0.01792488 -0.091953196 -0.08000553 -0.06574509
0.027730023 -0.08469005 -0.021631135 0.08653366 0.00015596152 -0.0068459273 0.014150441 0.06531198
-0.047290217 0.011621988 0.042243183 -0.08115274 -0.037906874 0.06137202 -0.09380629 -0.03266716
-0.049912702 -0.069481395 -0.09750636 0.024035549 0.09384304 0.023729717 -0.013830614 -0.07576722
0.044211973 0.09306747 0.045766808 0.04792532 -0.054249227 -0.090799026 -0.02737223 0.05598071
0.007495439 0.07028544 0.09656674 -0.02899226 0.016443158 0.059136476 0.022957778 0.0020762326
-0.06445432 -0.05330303 0.03864769 0.032424916 0.096392155 0.011062873 0.003076768 -0.0011085272
0.026822317 -0.092531696 -0.08584006 -0.06147934 0.055924606 0.0027220012 -0.053150963 0.0013623715
0.027219748 -0.034637988 0.05980709 0.035481095 -0.06816902 0.016580094 0.09929913 0.05455334
0.02370211 -0.06305241 0.022464931 -0.0009268522 -0.032705188 -0.07863168 -0.09980468 -0.050388645
0.030461192 -0.03739524 -0.07092213 0.072802894 0.0020279407 -0.05795021 -0.038479187 0.098551095
0.059567608 -0.019240452 0.056740463 0.004523778 0.08905212 0.01968497 -0.05253884 -0.030721962

encoder.layer0.bias f4 [100]
00000000: cb9f 8d3d 00a8 9cbc 1a25 533d b310 b6bc
00000010: 9a1a f9bc 4d18 f23c 2f6d a73d 9bea 903d
00000020: a377 403d e7e5 3e3c da8a b8bd 8067 9bbd
00000030: 0acb ac3d 839b b03d c027 903c 1ae1 17bd
00000040: 4ad5 b8bd 5aac 3f3d a2c9 a13d 6714 87bc
00000050: 27da 2fbc 3a52 70bd 9d2a 59bd 2a9e 73bd
00000060: 482f 8dbd b368 d33c 6806 a83d 8053 c13b
00000070: 6726 3c3a f250 9abd 8778 a1bc 276f 743c
00000080: a3ef 8dbd c01b 4b3c 9a4c 0e3c a711 f23c
00000090: 3a4c fd3c cd0d 723c fa9f 9a3d 8369 033d
000000a0: 8757 813d 3f44 b1bd 47ef 913c 7337 59bc
000000b0: e7d2 d33b b3d8 a9bd 5aa9 8ebc 8abb 283d
000000c0: 70d0 763d ba69 973d 8054 7f3d 130b 8abc
000000d0: e056 b4bd 40ca 363c daef 8e3d 3aa4 893c
000000e0: 676a a83b 47b0 97bc ed9c 2d3d baad 8cbc
000000f0: 4d98 9dbb 4015 c2bd 1767 973d 4b03 bfbd
00000100: fac8 90bd 73ed 563c b3f5 493d 0070 fc3c
00000110: ad1e 533d 1ab5 4cbd f2bd c23d 0f6b a43d
00000120: 6393 42bd 7a5f a8bd 5ac5 133d 25a1 9a3d
00000130: e760 3b3c 8066 653d e0ce e8bc 7d23 4ebd
00000140: 6730 a1bd c3c4 65bd a34a 0ebd b3e3 ccbc
00000150: 602f 803d 00c0 763d 7ae1 853c 427b 9cbd
00000160: f261 a2bd faf2 923d 03cd 6fbd f3f1 3abd
00000170: da3b 08bd 53cb 6e3d 1af6 a5bd a0e4 853d
00000180: c38d 943d 00ca f3bc 8703 b93c 439c b9bd
0.06915244 -0.019123077 0.051549055 -0.02222476 -0.030408192 0.029552603 0.08175122 0.070759974
0.046989094 0.011651493 -0.09010859 -0.075881004 0.08437164 0.086234115 0.01759708 -0.037079908
-0.09025057 0.046795227 0.078997865 -0.01648922 -0.010733164 -0.058672167 -0.053019155 -0.05947701
-0.06893784 0.02580676 0.08204347 0.0058998466 0.0007177353 -0.0753497 -0.019710792 0.014919079
-0.06930473 0.012396753 0.008685255 0.029549433 0.030920137 0.014773798 0.07550044 0.032083046
0.06315523 -0.08655595 0.017814292 -0.013257849 0.0064643505 -0.08293285 -0.017414737 0.041194476
0.060257375 0.073932126 0.062336445 -0.016850984 -0.088056326 0.011156619 0.06979342 0.016801942
0.0051396373 -0.018516673 0.042385984 -0.017172683 -0.0048094154 -0.09476709 0.0739271 -0.093268
-0.07069583 0.013118136 0.049306583 0.030815125 0.051542927 -0.0499774 0.095088854 0.08028232
-0.04750384 -0.08221336 0.03607688 0.07550267 0.011436678 0.056005955 -0.028418958 -0.050326813
-0.0787056 -0.05609585 -0.034739148 -0.02501092 0.06259036 0.0602417 0.016342867 -0.07640697
-0.07928838 0.0717525 -0.058545124 -0.045640897 -0.033260204 0.058299374 -0.08103581 0.065377474
0.072536014 -0.029759407 0.02258469 -0.09063008

encoder.layer2.weight f4 [256, 100]
00000000: 6737 a63d 0076 3ebc 8b56 c43d 00cb 7fbd
00000010: e741 42bc eb23 abbd 201d f93c 4721 3ebd
00000020: da22 d0bc fa34 aabd eb6b c4bd 00f9 8a3b
00000030: 4f0c ad3d 4514 8b3d 1af8 223c 37e3 91bd
00000040: e742 dc3b aaca 2f3d 27a1 383d f3ac 32bc
00000050: 4d79 4f3c 307c 223d 8bf0 a73d 3019 9ebd
00000060: cda5 653d 27e1 6ebc 675b af3d 80d3 683d
00000070: b3fc fdbc d0ae 71bd da63 673d 03b8 afbd
00000080: 0db9 e03c f3b8 78bc cda7 3dbc da77 7bbc
00000090: cdef 3a3b 95f5 b7bd e58b 99bd e740 373c
000000a0: 2772 553c 4599 843d afcd 9cbd ed39 3b3d
000000b0: ff2c 953d 9714 773d 7d36 0a3d 3d20 50bd
000000c0: 7df3 0e3d 8011 833c 733a 043d d5f8 8d3d
000000d0: cd52 e83b 2fdf 81bd 2784 973d ef89 82bd
000000e0: b3e6 6fbc cb4f 973d 9881 93bd ed36 c83d
000000f0: fa98 a0bd e701 7fbd 63e6 44bd cd6a d5bc
00000100: 2dc7 9e3d 9ab6 e3bc ad44 1a3d 6819 8b3d
00000110: 8a53 ccbd 7039 153d b3e3 353d 50f7 2fbd
00000120: 7390 26bc ba06 203d e773 1d3c 9352 c6bc
00000130: e09c b9bc daf7 95bc 9787 103d b33b dabc
00000140: 13e9 cd3c b2fb b4bd 0094 abbb 3597 aebd
00000150: da06 573d d25d cb3d 9a55 b23b 3302 9abb
00000160: 1f5b 9ebd cdf0 dcbc 0046 43bc 1acb 423c
00000170: 1dc8 5dbd da8a 32bd 4a97 6f3d 6d17 0f3d
00000180: 80e9 babb 7aba 533d 905d afbd e380 0c3d
00000190: 77a4 68bd 7899 87bd cd1c 1aba a788 10bc
000001a0: 8720 2abd da7a 2e3c 4046 3bbd bab1 ad3c
000001b0: c70b 983c 302c af3d 5a8f 36bc d3fc 053d
000001c0: 330c 3fbd cdbe 17bb 576e 303d 006e 00bb
000001d0: b3f4 2c3c 832d 20bd cdea bebd b51c b8bd
000001e0: 23c5 75bd 27f1 343c c77d 7b3d 87b6 3d3d
000001f0: dac3 7d3c aa1c aa3d 502f 873d 6738 003b
00000200: 8066 9cbd 6af4 473d 43eb babd 006c fcba
00000210: 7da9 5e3d eaee 633d 9a2d 38bc b0df 323d
00000220: 00b0 78bd 3af9 673d 65e7 a93d 005a 0ebc
00000230: b84d 8cbd b735 6f3d 9786 563d 5d41 6cbd
00000240: 6712 a03a 9753 553d e378 313d c0fe dbbc
00000250: d5a0 a43d 33dc a53d 5a98 39bd 4aa6 83bd
00000260: 85a2 a5bd da83 a23d 8d9a 9b3c d8b6 b0bd
00000270: ba0b 123d 9ab7 173b 1a1a 29bd b707 9b3d
00000280: 3d28 6ebd 400d bcbd aff6 9dbd bd30 353d
00000290: eb7a 87bd d053 ca3d 5f1d a0bd cd9c 78ba
000002a0: 7254 b93d 4d8d 8abd 0ffc 98bd 4d9c eebb
000002b0: 5354 89bc 0dd3 be3d 27de 0fbc b0c8 3ebd
000002c0: 4094 383d 9bd7 a13d b004 8d3d 5a52 05bc
000002d0: adce ed3c 4d63 e93c 8568 95bd b046 513d
000002e0: e26b bbbd f313 493c 1a1c 7f3c 3043 bebd
000002f0: 333d 433d 3a60 18bd 679a 90bd 703a 0f3d
00000300: 9da7 30bd 778d b93d f3ec 903c 876f 23bd
00000310: 9ac7 13bd 8af0 acbd 0de5 20bc edf3 1f3d
00000320: 4a78 96bd 0045 afbb a73f 233d 3dc4 4a3d
00000330: 5ac6 013c 13de 26bd 0f2b be3d 4f2d b83d
00000340: f3df dcbc 3701 68bd b397 173c cd7a e8ba
00000350: f386 68bc 132d c7bd 52ee adbd 338a 68bc
00000360: 638e 7b3d 73a4 fdbc bd7b 97bd 0b85 9f3d
00000370: e066 cdbc 7a9c 86bd 9aff f03c da27 b43c
00000380: 3348 623d 1dce 3b3d 9ac6 98bb a751 543c
00000390: cdd5 adbd b363 92bd d07a ac3d ca02 153d
000003a0: 6704 5fbb 270f aabc ea22 3a3d 83f8 8f3d
000003b0: 3308 73bd 73b8 3f3c 00e3 37bb a04f 653d
000003c0: 00c9 68bd 008d febc 7db2 b33d ad76 35bd
000003d0: 7d2b 97bd 4035 b93d 7347 18bc a7b2 08bc
000003e0: 13d9 d6bc 2711 a6bd 7759 7d3d 1f3e 9dbd
000003f0: 00fe 4fbc f3c8 af3c 58f5 8cbd f54a ac3d
0.08116036 -0.011624813 0.09586819 -0.062449455 -0.011856533 -0.0835646 0.030409396 -0.046418454
-0.025407244 -0.08310886 -0.09590896 0.004241109 0.08449613 0.067909755 0.009946847 -0.07123416
0.0067218426 0.042917885 0.04507556 -0.010905492 0.012663198 0.039669216 0.08200177 -0.07719648
0.056066323 -0.014580048 0.085623555 0.056842327 -0.031004285 -0.059004605 0.05649171 -0.08580019
0.02743199 -0.015180814 -0.011575651 -0.015348399 0.002852428 -0.08982388 -0.07497386 0.0111849075
0.013027704 0.06474546 -0.076564185 0.04570954 0.07283973 0.06032237 0.03374337 -0.050811995
0.034900177 0.015999556 0.032282304 0.069322266 0.0070899487 -0.06341397 0.07398253 -0.06373965
-0.014642405 0.07388266 -0.072024524 0.09776101 -0.07841678 -0.062257674 -0.048071276 -0.026051903
0.077528335 -0.027797032 0.03766315 0.06791955 -0.09976871 0.03643173 0.044406604 -0.042960465
-0.010166275 0.039068915 0.009610153 -0.024209296 -0.022657812 -0.018306661 0.03528556 -0.026639795
0.025135553 -0.088370696 -0.005236149 -0.08524934 0.05249677 0.09930004 0.0054423334 -0.004699969
-0.07732224 -0.026970292 -0.011918545 0.0118892435 -0.05414592 -0.04358945 0.05849389 0.03493445
-0.005704105 0.05169151 -0.085627675 0.034302603 -0.05679747 -0.06621069 -0.00058789254 -0.008821643
-0.041534927 0.010649407 -0.045721292 0.02120291 0.018560303 0.0855335 -0.011142576 0.032711815
-0.046642493 -0.0023154498 0.04307398 -0.0019596815 0.010556388 -0.039105903 -0.093221284 -0.089898504
-0.060002457 0.011043823 0.061399247 0.04631665 0.015488589 0.083062485 0.06600821 0.0019564868
-0.07636738 0.048817076 -0.09126904 -0.0019258261 0.054360855 0.055647768 -0.011241341 0.043670356
-0.06071472 0.056634165 0.08296088 -0.00868845 -0.06850761 0.058400836 0.05237445 -0.057679523
0.0012212516 0.05208167 0.043328177 -0.026854873 0.08038489 0.0809864 -0.04531131 -0.064282015
-0.08087639 0.07935305 0.018994594 -0.08628625 0.035655715 0.0023150207 -0.041284658 0.07569831
-0.058143843 -0.09182215 -0.07713067 0.044235934 -0.066152416 0.09879267 -0.07818102 -0.00094838144
0.0904931 -0.06765232 -0.07469951 -0.007281816 -0.016763842 0.093175985 -0.008780993 -0.04657811
0.045063257 0.079024516 0.0688566 -0.00813731 0.029029215 0.028489733 -0.07295326 0.051092803
-0.091514364 0.012272823 0.015570665 -0.09290159 0.047665786 -0.037201144 -0.070607 0.03496784
-0.0431286 0.090601854 0.017691111 -0.039901283 -0.036079027 -0.08444317 -0.009820235 0.039050985
-0.07347162 -0.0053488016 0.039855625 0.049503554 0.007920826 -0.04073913 0.092855565 0.08993017
-0.026962256 -0.056641784 0.0092524765 -0.0017736793 -0.014192331 -0.09725394 -0.084927216 -0.0141931055
0.061415087 -0.030962205 -0.07396648 0.07789048 -0.025073469 -0.06572814 0.029418755 0.021991659
0.055244636 0.04585086 -0.004662347 0.012958921 -0.08488045 -0.07147922 0.08421862 0.036379613
-0.0034029724 -0.020759178 0.045443453 0.07029822 -0.05933399 0.011701691 -0.0028058887 0.05598414
-0.056832314 -0.031073093 0.08774278 -0.04430263 -0.073813416 0.0904336 -0.009294379 -0.008343375
-0.026226556 -0.0810874 0.0618529 -0.07677864 -0.012694836 0.021458125 -0.06882733 0.084127344

encoder.layer2.bias f4 [256]
00000000: 0236 833d e7ce b3bd ba40 60bd e3fc 683d
00000010: 138d 00bd 2034 b93c 8372 9bbd fa0e 83bc
00000020: dd5c 883d 4319 39bd f08f 303d 00ca 8b3a
00000030: 8287 9fbd b0b9 7a3d db32 8e3d 6a0b 763d
00000040: 23bd 173d 509b af3d b73a a1bd 73c7 ad3d
00000050: ed88 8c3c da5e 2abc 0052 0abc 3a40 a9bd
00000060: f3b3 28bd 1089 a4bd 4dbf 51bd ba60 463d
00000070: efd8 9f3d cb06 aabd 472a bd3d 03a0 30bd
00000080: c76c 96bc ba5c 353d 256c c53d cb0c a23d
00000090: 83df 2f3d 10b9 423d 6f6c b3bd 5be7 ba3d
000000a0: 17e5 593d 73ce 293c e217 86bd 13ed c6bc
000000b0: 604c febc 1a67 813b e73f 6b3d f3d0 4e3d
000000c0: 33c3 e0b9 4820 98bd 63ad 97bd af67 aebd
000000d0: 0de2 183c d3ea 8fbd 6782 31ba 75aa a3bd
000000e0: 1d0b 17bd 8059 b03d b387 9fbc 7a01 253d
000000f0: 9a24 09bb e3f8 1bbd f3ef ca3d 67a1 473b
00000100: 5d95 ca3d 605e c9bc fb8b 96bd e07e bc3d
00000110: 4b31 a23d 60d6 a13c 20fe bf3c 72cd aabd
00000120: 8a19 1dbd f3d0 bbbc 0072 0a3c 4096 38bd
00000130: 554d b33d 0ad8 0abd ca25 5bbd 9ab2 843d
00000140: 4de5 54bc 872e 6c3d e8da 813d 7a85 a93d
00000150: c3e8 07bd 5885 bbbd a20f 8b3d 3bd3 8c3d
00000160: 105b ca3d e740 233c f3f1 6ebc 0af6 8fbd
00000170: 7a8a 02bd 8a66 1d3d 88d6 c8bd 454e 983d
00000180: 0043 223c 0350 b03d 5a1a 393d b09e 62bd
00000190: 8726 893d 7a3e 3e3d 6812 b6bd 534a cb3c
000001a0: 4afa 2dbd a7b1 5ebc 6df8 b4bd 5a82 c63d
000001b0: 6719 adbd 3300 f8bc 3021 9f3d 7ac9 0d3d
000001c0: 10ea 35bd 4d22 babb 930c a5bd cae3 393d
000001d0: 1576 903d 5764 b43d f728 443d 3ada 6c3d
000001e0: afd9 aa3d 6f1c aa3d 53d8 24bd 1362 93bd
000001f0: 3a4d 70bd f747 103d 9de8 17bd d2f0 acbd
00000200: 5372 c9bd 0d8d 97bc eb2b a73d 0d52 5f3d
00000210: f3d7 843c cae8 573d 4d4e 56bc f0a2 03bd
00000220: 7b58 ab3d 4dc5 f63c 85c5 a53d 3d85 bebd
00000230: 67c4 dabc 98a4 b8bd 6308 053d 4fed bfbd
00000240: 6503 9dbd 5adb 163d 806f fcbc 9d3b 1d3d
00000250: 6dde b4bd 3ab4 abbd f399 04bc 1aee 90bd
00000260: 573f 483d e781 1abd a0dd 9c3d 8880 91bd
00000270: 42b2 913d ade6 a23c 8391 94bd 5383 39bd
00000280: bd19 1dbd 73d6 593c 101f 023d 039d 99bd
00000290: c310 72bd b3cb 7b3d 7dd5 383d 3d68 ca3d
000002a0: f778 55bd 00b1 543d 4391 943d 60b1 c33d
000002b0: dade 0abd a0aa a13d 93b1 193d 47e6 bb3c
000002c0: 0d2f 9f3d 1d80 97bd c781 803c cd9e eeba
000002d0: f7cc a8bd bd9a 4f3d b738 9fbd c359 0d3d
000002e0: 1a70 92bd a786 1f3d 5a4e 5cbc cae8 18bd
000002f0: 1a8b c53c 5dbd 983d eb09 b0bd 407e cbbd
00000300: a5b0 89bd 9ac6 0b3b 27da ff3c 67f6 89b9
00000310: 6aa3 b3bd e020 b4bd 1290 aa3d fd23 2c3d
00000320: 0d66 883d ed44 b2bc 8de6 fb3c 6a32 3fbd
00000330: e734 c43c da0e 3a3c b75f 73bd 5a05 073c
00000340: 8d5e 92bc 4033 143c 3a5e 4bbd aadd 993d
00000350: e001 343d 9703 a23d 67ff 2a3b ed45 63bd
00000360: f312 11bc e790 a2bb 5317 c4bc 58ad abbd
00000370: 5af9 69bc c322 253d a5a0 8b3d a8ea 9bbd
00000380: 1232 93bd e327 023d a76f 873c dd92 34bd
00000390: 23e4 5b3d 671f 473c 0f69 aa3d a0a7 db3c
000003a0: fbb8 8f3d 05d0 93bd b311 d03c 3352 4ebc
000003b0: 1f29 c9bd fdf4 553d d06a c33d 9a92 303d
000003c0: 080d 833d 671a 7eba e83b a2bd 40cf 003c
000003d0: 2734 87bd 6d2b bebd b036 bbbd 8b5d bbbd
000003e0: 15a8 913d 0546 a0bd c811 a1bd 0d71 14bc
000003f0: 7b80 9c3d 1a42 ef3c a75f 69bc 1a43 cdbb
0.064067855 -0.08779698 -0.054749228 0.056881797 -0.03138454 0.022607863 -0.07590201 -0.015998352
0.06658337 -0.045190107 0.04310602 0.0010665059 -0.07789518 0.06121224 0.06943294 0.06006948
0.03704561 0.085745454 -0.07872527 0.084853075 0.017155135 -0.010398591 -0.008442402 -0.08264203
-0.041187238 -0.08033955 -0.05120783 0.04843209 0.07805049 -0.08302077 0.092365794 -0.04312135
-0.018362416 0.044277884 0.096397676 0.07912596 0.042937767 0.04753977 -0.087609164 0.09126159
0.053196993 0.010364163 -0.06547524 -0.024282968 -0.031042278 0.0039490582 0.05743399 0.05049224
-0.00042870044 -0.07428032 -0.07406118 -0.0851587 0.009331238 -0.07027211 -0.00067714456 -0.079914965
-0.036875833 0.08610821 -0.019473886 0.04028461 -0.0020926357 -0.038079154 0.09909048 0.0030461194
0.0989177 -0.024581134 -0.07350918 0.09203887 0.07919558 0.019755542 0.023436606 -0.08339967
-0.038354434 -0.022926783 0.008450031 -0.045065165 0.08754984 -0.033897437 -0.053502835 0.06479378
-0.012994123 0.05766156 0.06340581 0.08277412 -0.033180963 -0.09156293 0.06790091 0.068762265
0.0988065 0.009964204 -0.014584052 -0.0702935 -0.031870343 0.038427867 -0.098065436 0.07436804
0.009903669 0.08609011 0.045191146 -0.055327117 0.06696802 0.0464463 -0.088902295 0.024815714
-0.042475022 -0.01359216 -0.08836446 0.09692831 -0.08452111 -0.030273532 0.07770002 0.03461597
-0.044412673 -0.0056803585 -0.08059039 0.045383252 0.07053772 0.08808201 0.04789063 0.057825305
0.08342301 0.083062045 -0.040245365 -0.071964405 -0.0586674 0.03522488 -0.03708707 -0.0844437
-0.09836259 -0.018499875 0.081626736 0.05452161 0.016216254 0.05271224 -0.013080192 -0.03213781
0.08366486 0.030123377 0.080943145 -0.09302757 -0.02670498 -0.09015769 0.0324787 -0.09371435
-0.07666663 0.036830284 -0.030814886 0.03838693 -0.08831487 -0.08383985 -0.008093345 -0.07076664
0.04888853 -0.03772154 0.07659459 -0.071045935 0.07114078 0.019885385 -0.07254317 -0.045291256
-0.038354624 0.013295758 0.031767905 -0.07500651 -0.059098016 0.06147356 0.045125473 0.09883163
-0.052117314 0.051926613 0.07254269 0.09555316 -0.033903934 0.07893872 0.037522864 0.022936953
0.07772646 -0.073974825 0.015686883 -0.0018205285 -0.08242219 0.05068468 -0.077744894 0.03450943
-0.07150288 0.038946774 -0.013446415 -0.03733138 0.02411418 0.07457993 -0.08595642 -0.0993619
-0.067231454 0.0021328093 0.031231953 -0.0002631426 -0.08771403 -0.08795333 0.083282605 0.04202651
0.0666009 -0.021761382 0.030749584 -0.046678938 0.023951007 0.01135608 -0.059417453 0.008241022
-0.017867351 0.009045422 -0.04965041 0.07512982 0.0439471 0.07910841 0.0026092173 -0.05548661
-0.0088546155 -0.0049611214 -0.023936903 -0.08382672 -0.014280641 0.040316354 0.0681775 -0.076131165
-0.071872845 0.03177632 0.016532732 -0.044085372 0.053684365 0.012153483 0.083208196 0.026813328
0.07017704 -0.07217411 0.025399065 -0.01259284 -0.09822296 0.052235592 0.09541857 0.04310856
0.0639897 -0.00096932653 -0.079215825 0.007861912 -0.06601744 -0.092856266 -0.0914129 -0.09148701
0.07112137 -0.07825855 -0.0786472 -0.0090601565 0.07641693 0.029206324 -0.014243997 -0.0062641026

fc_mu.weight f4 [2, 256]
00000000: feca 783d 001d 103b 5cb0 3b3d 5cb3 a93c
00000010: 3450 533d 403b 3a3b 90c8 123c 0268 2fbd
00000020: 80f8 c23a 704f c43b 70e9 debb 809a 453d
00000030: 20a0 503c 70cd 7abc 78d6 be3c e0d7 ebbb
00000040: c203 683d 84df 4b3d a029 71bd 3608 3f3d
00000050: c292 45bd 1c89 09bd 6002 9ebb 38c9 e83c
00000060: 7ece 04bd 80c8 063b acb2 ddbc bc33 14bd
00000070: 2a88 163d 5683 28bd 5a9f 603d 9ebb 16bd
00000080: 8001 993c 00ae cc3a a477 b7bc d03d b1bb
00000090: 7cf3 853c c0fc 1fbc c8ba a83c 9856 79bd
000000a0: 803b 753d 18db ce3c 8851 a33c 1e9e 17bd
000000b0: ec1e b0bc 7cd8 8fbc bce3 03bd d4b9 c43c
000000c0: eee8 1fbd 6e60 52bd 783a 383c eef1 73bd
000000d0: 4cd9 a9bc 3c17 2b3d 6428 70bd c08c 26bc
000000e0: d84b 85bc 30a2 973c 4c0d 3f3d c0b1 42bd
000000f0: 5e3a 383d 9601 41bd f8f2 c83c ac50 c0bc
00000100: 4a8f 43bd 6e2a 153d 7ac7 1a3d f03b 9bbc
00000110: e4ee b03c 4423 893c 5abe 1fbd 140b bebc
00000120: 3803 27bd 325f 25bd 08a2 863c b8d3 8c3c
00000130: 3cf9 053d 6609 2bbd f087 073d 6088 923b
00000140: 4e66 103d e859 42bc 8e29 56bd a0cf d7bb
00000150: 00da 013c 5067 84bb 4852 7b3c e0f8 9fbb
00000160: 0cbe d2bc e035 35bb 00bc a339 f84f 823c
00000170: bc90 fbbc 709f 703d a639 213d 4089 f0ba
00000180: 58b4 dabc c64d 3abd 3063 a23c e0c8 11bc
00000190: e4e2 f5bc 76da 203d dc6a 773d b0b8 a1bc
000001a0: 4610 723d 884f 09bd 4c2e adbc 22bc 253d
000001b0: 4694 7dbd 02ad 0dbd 28cc 293d 6422 e4bc
000001c0: b6af 6c3d 38ba 463d 10c0 ecbc c8b1 a23c
000001d0: 0e0c 583d 046f f23c b842 94bc 6a50 503d
000001e0: e448 e7bc 40d1 903b 98ec c0bc 2816 97bc
000001f0: 00c3 13ba cee6 0fbd 0abc 4abd f451 f73c
00000200: 06d1 09bd 4ae0 393d 9cad 15bd 5265 31bd
00000210: 5831 2ebc 585e 09bd fe39 783d 4a46 5ebd
00000220: fef8 453d ae7b 753d c420 90bc 0ca3 383d
00000230: a446 c63c 9ee6 6c3d ec29 84bc ce51 333d
00000240: 10ef dc3c b09b 47bd f465 25bd 80e2 2f3c
00000250: e8f6 0c3d d42f 3e3d 0c4a b4bc 6068 59bc
00000260: c01f 51bd 2049 ba3c 2e34 6fbd c67b 53bd
00000270: 34bd 2ebd 4410 76bd bc96 583d 5a5b 043d
00000280: d0e6 c23c dc62 073d 84b8 67bd 0a90 5f3d
00000290: 580c 603d 3000 e2bb 6a3c 5c3d 688b e93c
000002a0: 58a2 013d d0f1 06bd e4f3 293d ee36 053d
000002b0: 5c79 bdbc 32cf 3a3d 42fe 7b3d 9cb9 263d
000002c0: e06a 453c 7444 c43c cc7f 883c bc29 a6bc
000002d0: e68f 5d3d 60d4 dcbc 2aa6 763d 4268 6b3d
000002e0: 1253 39bd 545b 483d 7a48 4cbd e8de acbc
000002f0: 782f 43bd 1817 f2bc 604c acbc 101e 003d
00000300: acf6 0fbd 8009 eabb dabd 6d3d d02d f0bb
00000310: 6853 3abc e0c0 2dbd 84c9 063d c804 eb3c
00000320: 80bb 01bd b0b1 5ebd f88d 1c3d 80d2 d33b
00000330: 5c0f e9bc 4851 69bd 6a24 17bd 3015 2abd
00000340: 1079 0d3d 48ca 1abd d205 703d 2efd 74bd
00000350: a01c 2abb cc63 72bd d076 19bd 5080 75bc
00000360: 7490 e13c 96a2 5b3d 8c7f 83bc 2ef5 283d
00000370: 3617 42bd 5819 45bc 7003 8a3b 1cfc 69bd
00000380: d057 9abc 8e35 35bd 700f d2bb a0e4 3c3d
00000390: 2aa1 513d b04d 4abc 0269 293d 2061 8ebb
000003a0: eafd 55bd f2d4 213d 2835 1e3d f0ac 52bd
000003b0: c233 4d3d 8420 ab3c f8c6 46bc 2082 6dbb
000003c0: ec22 96bc 10ee 533c 688b 9cbc 183e 05bd
000003d0: 2a2c 12bd 7a3e 14bd 38df ad3c 7cbd a93c
000003e0: d07f 573c 2890 b0bc e6aa 4fbd 00c5 423a
000003f0: 00da b3b9 805c 933a 342d 2d3d d006 7fbc
0.060740463 0.0021989942 0.045822486 0.020715408 0.05159016 0.0028416663 0.008958951 -0.0428238
0.0014875084 0.005990915 -0.0068027303 0.048243046 0.012733489 -0.015307769 0.023295626 -0.007197365
0.05664421 0.049773708 -0.058877587 0.04663869 -0.048235662 -0.033578023 -0.0048220605 0.028416261
-0.03242349 0.0020566285 -0.027062736 -0.03618215 0.03675095 -0.041140877 0.05483947 -0.03680002
0.018677473 0.0015615821 -0.022395916 -0.00540898 0.016351454 -0.00976485 0.020596877 -0.060873598
0.059871197 0.025250956 0.019936338 -0.037016027 -0.02149912 -0.017559282 -0.032199606 0.024014391
-0.0390405 -0.051361494 0.011244409 -0.059556894 -0.020733498 0.041770205 -0.05863227 -0.010165393
-0.016271517 0.018509954 0.04664354 -0.047532797 0.04497754 -0.047120653 0.024529919 -0.023475967
-0.047744073 0.036417417 0.037787892 -0.018949479 0.021598287 0.016740449 -0.038999893 -0.023198642
-0.040774554 -0.04037399 0.016434684 0.0171908 0.03270839 -0.04175701 0.033088624 0.0044718236
0.035253815 -0.011862256 -0.052285723 -0.00658603 0.00792551 -0.004040636 0.015339442 -0.004881963
-0.025725387 -0.002765052 0.00031229854 0.015907273 -0.030708663 0.0587458 0.03936162 -0.001835145
-0.026697323 -0.045484327 0.019822687 -0.00889799 -0.030015416 0.03927084 0.060404643 -0.019741386
0.05909755 -0.033523113 -0.02114024 0.04046262 -0.061908983 -0.03458882 0.041454464 -0.02784843
0.05778476 0.048517436 -0.028900176 0.019860163 0.05274587 0.029593952 -0.01809822 0.05085794
-0.028233 0.004419476 -0.023550317 -0.018443182 -0.0005636662 -0.035132222 -0.049495734 0.030190445
-0.033646606 0.045379914 -0.03654252 -0.043309517 -0.010631882 -0.03353724 0.06060218 -0.05426625
0.04833316 0.059932403 -0.017593749 0.04507737 0.024203606 0.05783712 -0.016133271 0.043779187
0.026969463 -0.04873246 -0.040380433 0.010735154 0.034415156 0.04643233 -0.022007965 -0.013269514
-0.05105567 0.022739947 -0.05839937 -0.05163171 -0.042660907 -0.060074106 0.052878127 0.032313682
0.0237917 0.033053264 -0.056572452 0.054580726 0.054699272 -0.006896995 0.053768553 0.028508857
0.031648964 -0.032945454 0.041492358 0.03252309 -0.023129158 0.045607753 0.061521776 0.040704355
0.012049407 0.023958422 0.0166625 -0.020283572 0.05409231 -0.026956737 0.06021706 0.057472475
-0.045245238 0.048915222 -0.049873807 -0.021102384 -0.04765269 -0.029552028 -0.021032512 0.03127867
-0.035147354 -0.007142246 0.058042385 -0.00732968 -0.011372425 -0.042420268 0.032907024 0.028688803
-0.031672955 -0.054368675 0.03822133 0.0064643025 -0.028449707 -0.05696228 -0.03689996 -0.041524112
0.034539282 -0.037790567 0.0585993 -0.059811763 -0.0025957003 -0.059177205 -0.037466824 -0.014984205
0.0275347 0.05362185 -0.01605203 0.041249447 -0.047385417 -0.012029968 0.0042118356 -0.057125196
-0.0188407 -0.044240527 -0.0064105317 0.04611647 0.05117909 -0.012347624 0.04135991 -0.0043450743
-0.052244104 0.03950972 0.038624913 -0.051434457 0.05009819 0.020889528 -0.012132399 -0.003624089
-0.018327199 0.0129351765 -0.019109443 -0.03252992 -0.03568665 -0.036192395 0.021224603 0.020720236
0.0131530315 -0.021553114 -0.05070009 0.0007429868 -0.00034303963 0.0011242777 0.042279437 -0.015565589

fc_mu.bias f4 [2]
00000000: b8ba 1f3c dc67 86bc
0.009749107 -0.016406946

fc_var.weight f4 [2, 256]
00000000: c0e9 c93b 54a2 77bd d851 3d3c 70f6 1e3c
00000010: c426 c1bc 58fd 3c3c 78c5 aabc c0ee e2ba
00000020: 50ea 4a3d c0f3 77bb 4802 5dbc aa0e 3f3d
00000030: 02c3 7d3d 30ac a53c 1cd5 b5bc 1acf 6cbd
00000040: f0d7 6c3d 54e6 a43c ec80 acbc 002c b2b8
00000050: 24ca 553d e0b8 dfbb f4a1 cbbc 6000 193d
00000060: 00b6 b5b9 5816 643d 18f8 c6bc 10df 593c
00000070: 60ba 6cbb 926b 1f3d 142e dbbc 5c02 ddbc
00000080: 8024 fdbb 304b dcbc a0af 17bd 7226 4bbd
00000090: 2a9c 693d 5073 4d3d 526e 45bd 6827 b43c
000000a0: f252 2abd 9817 b7bc 9828 163d 189c 1a3d
000000b0: 868d 1a3d f456 6dbd 6088 b53c 60fd 523c
000000c0: a87c 7b3d 8400 57bd e428 d83c b0f6 60bc
000000d0: 5010 80bc 0225 023d 344f 223d 40c7 65bd
000000e0: 42e3 6a3d a8b6 25bc f0a1 9e3c 80fd 5c3a
000000f0: 1ac4 6dbd f0f1 05bd 90d0 5a3c a6a5 693d
00000100: a85c 843c aaa1 08bd c487 773d 4e7a 12bd
00000110: bc01 07bd e0f5 64bd 74d6 483d 403b fb3b
00000120: 5413 1c3d f494 2b3d a06d 6d3d 108c 04bc
00000130: 54c0 0a3d cc1e 1e3d 5070 683d 00ac 68bb
00000140: 90d5 c33b 90c9 43bd f4aa 82bc 34b2 13bd
00000150: f81b 263c c8ba 9a3c 0015 183a f4df e23c
00000160: 50f0 9c3c e0c3 4d3b 9838 43bc 005c b1b8
00000170: c8da e8bc b8dd 513c dc63 ae3c 0040 5abd
00000180: 987b 53bc 5ecd 24bd 50e3 103c 487a d2bc
00000190: c065 3a3c 5062 243c e2b4 573d 0c26 b0bc
000001a0: 94fa debc 8076 c33a 2605 083d 5cb3 3f3d
000001b0: 4623 32bd 4eb7 5d3d 28f0 5ebc 84cb 2abd
000001c0: 38f8 5e3d 90b6 2a3d 8843 26bd 14a6 fbbc
000001d0: 10df fabb 6e30 15bd 184b 57bc 40bb 56bd
000001e0: 5890 2a3c 406d c5bc 00b1 173a 4655 5cbd
000001f0: ce77 63bd 384e 61bd 808e 7b3a c8a1 e63c
00000200: cc08 b3bc 2cdf 3bbd 06fc 22bd 30a4 9abb
00000210: c6bb 5a3d 2e3d 7abd 281c 7cbc a67e 35bd
00000220: e0a1 d3bb 60d8 d23b 404d f03b b8d1 49bc
00000230: 5c8b 273d 4827 f03c b0ba 853b 3894 623d
00000240: 5042 693d bc43 fc3c 862e 42bd 5ae6 1ebd
00000250: 92e4 0b3d 6a0a 303d b61c 4d3d a477 aebc
00000260: 74a3 d73c 0c35 203d e6fc 4e3d 8c45 493d
00000270: 68a9 42bd 3ad6 123d f805 d73c f023 983b
00000280: a8a2 ad3c 64f0 69bd 4835 7c3d 4cc3 1f3d
00000290: bedf 753d b4d2 e8bc c899 173d c860 503c
000002a0: e0bf 1bbb 1005 dbbc 184d 99bc 3013 21bd
000002b0: 4cee 32bd d8b0 ccbc ccac 303d 8012 e1bb
000002c0: 5e17 4abd d01f 73bc 58f9 453c f040 fdbb
000002d0: 0069 273d b6f3 25bd 748b dcbc e043 4c3c
000002e0: aad5 6d3d ec12 983c 1e0f 31bd 6c77 85bc
000002f0: d456 88bc c434 213d 8866 ddbc 9e6c 643d
00000300: 2036 08bb 4a52 7bbd 4859 083d aa34 27bd
00000310: 9435 f03c fe9d 043d acc1 2fbd fa3e 4a3d
00000320: 52e5 1d3d 9eb2 233d b800 42bd 3295 50bd
00000330: a08a 3b3c 6285 4f3d e665 12bd daa2 5cbd
00000340: 9c63 5b3d 1ce3 3e3d 2c8d 533d 9094 9b3b
00000350: c218 50bd 6cdd 493d ac3a 393d cc4d b53c
00000360: 981e fd3c c8e4 053d 6691 64bd 1833 0ebc
00000370: 5a6d 163d d0fe 24bc 7c82 c53c cc9e 21bd
00000380: 9882 c53c 584b 6bbc bca9 e5bc 4ad8 4abd
00000390: a03b ed3b d859 4dbc 52c6 4bbd 5077 4f3d
000003a0: c03b af3b f65e 723d c810 ab3c 60aa f3bb
000003b0: 0680 353d 4864 c93c 30b0 97bc 8020 133a
000003c0: 789d 643d aad0 76bd 189a 4f3d 3687 34bd
000003d0: 42e9 0c3d 9cfc 6d3d c0ff 8d3b 2025 66bc
000003e0: 4093 fe3c 6c73 9b3c dc90 273d 6cb8 ef3c
000003f0: 48da aa3c c805 f73c 0059 533d c05c 2e3d
0.0061618984 -0.060457543 0.011555158 0.00970231 -0.023578055 0.011535011 -0.020846114 -0.0017313585
0.049539864 -0.0037834495 -0.013489313 0.046644844 0.061953552 0.020223707 -0.022196345 -0.057814695
0.05782312 0.02012936 -0.021057568 -8.495897e-05 0.05219473 -0.0068274587 -0.024857499 0.037353873
-0.0003465861 0.05568537 -0.024288222 0.013297811 -0.003612183 0.038920946 -0.02675537 -0.026978664
-0.0077252984 -0.026891321 -0.037032723 -0.04959721 0.057033695 0.0501588 -0.048200913 0.021991447
-0.04158301 -0.022350118 0.036659807 0.03774652 0.037732624 -0.057944253 0.022159755 0.012877792
0.06139818 -0.052490726 0.026386686 -0.01373069 -0.015632778 0.031773575 0.039626315 -0.056098223
0.057345636 -0.010114349 0.019364327 0.00084301084 -0.058048345 -0.032701433 0.013355389 0.05704274
0.016157463 -0.0333573 0.06043221 -0.03576117 -0.03296064 -0.055898547 0.049032643 0.0076669753
0.03810437 0.0418901 0.057965875 -0.008090034 0.033874825 0.03860359 0.056747735 -0.003550291
0.0059763864 -0.047799647 -0.015950657 -0.03605862 0.010138504 0.018887892 0.0005801469 0.02769468
0.019157559 0.0031397268 -0.0119153485 -8.457154e-05 -0.028424636 0.0128092095 0.021287851 -0.05328369
-0.012907885 -0.040234916 0.008843258 -0.025693074 0.011376798 0.010033205 0.052662738 -0.021502517
-0.027219094 0.0014912635 0.033208035 0.04680191 -0.04349067 0.05412989 -0.013607062 -0.041697994
0.05443594 0.04167801 -0.040591747 -0.03071884 -0.0076559857 -0.03642314 -0.013140462 -0.05242467
0.010410391 -0.024099946 0.0005786568 -0.05379226 -0.055534177 -0.055006236 0.00095961243 0.028153315
-0.02185478 -0.04586713 -0.03979113 -0.0047192797 0.05340173 -0.0610935 -0.015387572 -0.044310234
-0.006458506 0.0064344853 0.0073334277 -0.012318067 0.040904388 0.029315606 0.004081093 0.055317134
0.056948006 0.030794017 -0.04740765 -0.0387939 0.03415353 0.04297868 0.05007621 -0.021297283
0.026323058 0.03911309 0.05053415 0.04913859 -0.04752484 0.035848834 0.026247963 0.004642956
0.021195725 -0.05711402 0.06157425 0.03900461 0.06002783 -0.028420784 0.03701189 0.012718387
-0.002376549 -0.026735812 -0.018713519 -0.03932494 -0.04368429 -0.02498667 0.043133542 -0.0068686604
-0.04933869 -0.014839128 0.012083374 -0.0077286884 0.04087162 -0.040515624 -0.026921965 0.012467355
0.058065094 0.01856371 -0.043227307 -0.016292296 -0.016642965 0.03935696 -0.02702643 0.055767648
-0.0020784214 -0.061357774 0.03328827 -0.04082171 0.029322423 0.032377236 -0.04290931 0.049376465
0.038548775 0.039965264 -0.047363967 -0.050923534 0.011446625 0.050664313 -0.03574171 -0.053866245
0.05356179 0.046603307 0.051648304 0.0047479346 -0.05080486 0.04928343 0.04522197 0.022131823
0.030898377 0.032688886 -0.055802725 -0.008679174 0.03672538 -0.010070518 0.024110071 -0.03945808
0.024110124 -0.014361225 -0.028035037 -0.049522676 0.007239774 -0.012533627 -0.04974968 0.050650895
0.005347699 0.059172593 0.020882025 -0.0074360818 0.044311546 0.02458395 -0.01851663 0.0005612448
0.055814236 -0.06025759 0.050684065 -0.04407426 0.03440214 0.058102235 0.0043334663 -0.014046937
0.031076074 0.018975936 0.040909633 0.029262744 0.020856038 0.030154124 0.05159855 0.042568922

fc_var.bias f4 [2]
00000000: 70b2 7abd 0cfa 21bd
-0.061205328 -0.039545104

decoder.layer0.weight f4 [2, 2]
00000000: f44d be3e d6aa 15bf 66b5 efbe 70e3 b2be
0.3716885 -0.584638 -0.46818084 -0.34939146

decoder.layer0.bias f4 [2]
00000000: 49ef b8be 1ca2 62bc
-0.3612006 -0.013832595

decoder.layer2.weight f4 [100, 2]
00000000: ad81 87be 9324 6fbe 2ad8 08bf a986 df3d
00000010: 20fc 833d 0601 b8bd a65c 813e 88a2 2dbf
00000020: 0944 5f3e 1def e7be ef85 c1be 2ac7 01bf
00000030: 6487 06be 6123 eb3e 0463 d7be fc77 923e
00000040: db03 0d3f f747 8ebe 0eac 81bd d863 963d
00000050: 88e1 2f3f d56d 32bf 5803 12bf 1d56 f8be
00000060: 0919 ad3e 23d7 b7be 9fbd debd b2b7 883e
00000070: c5ba ae3e b78c fa3e 2d4f 1cbf 0256 34bf
00000080: c06a eabe b121 583d f337 2fbf 0bce 763e
00000090: c625 b7bc 3c60 a6be 75d4 cbbd 5bd4 aa3e
000000a0: 594c dabe afeb ea3e 9739 123f 9f03 18be
000000b0: 6a66 cd3e 55ae c63e e690 26bf bbf7 22bf
000000c0: db71 8dbe 6b7d 64be f743 25bc e6e0 f13d
000000d0: 1f45 a2be 0643 31bf 5efe ee3d 76ff 533e
000000e0: 45f4 963d 2206 0c3f 9a1f 633e adc4 2a3e
000000f0: 3832 6dbe 8b41 88be fa97 2e3e d6aa 413e
00000100: 91e3 6e3e 6752 823e 38fe bfbe d5dd 5fbe
00000110: 5e82 bcbe 1c8d b33e ce83 ba3e f509 14bf
00000120: 63c6 20bd 82c0 afbe d82e 893e c285 0a3c
00000130: 6364 0c3f dfc3 263f 1f46 0fbf a0e4 553e
00000140: 178f 003f ec4f e6be d962 853e ec9d cf3e
00000150: 52f1 0c3f 6ce0 97be 9b6a 663e fb39 323f
00000160: b9a7 a3be f5ad 98be a54b 12be 1798 4fbe
00000170: f860 23be 6e71 343f 04e6 053f 4d7d 91bd
00000180: 2da3 09be 15a7 0e3f 6185 293f 51ba 2e3e
00000190: 8dda 333f e5fa c33e 5128 723e fc10 1dbf
000001a0: 50cb 983e 163b b3be 92ad 53bd 056d ac3e
000001b0: 20d9 4ebe 0d40 7abd 7ba5 68bd f298 4c3e
000001c0: fae6 21bd 018f 2a3f ce77 313f 2338 55be
000001d0: 7c89 e43d 38f5 26bf 9758 4ebd 8d41 27bf
000001e0: 0aef fe3d 9d5a 58bc 0367 713d 1c25 273e
000001f0: 3327 c83e a08b dabe fe5b b9bd 37cc 713e
00000200: b213 9a3d d695 e43e ce08 9e3d a2b0 073f
00000210: 5656 bbbe a96c ab3e 9b05 e9be 77e2 e73e
00000220: 6292 3bbe 9173 4a3d 0f3e 213f 4113 44be
00000230: 984c 4dbe 2cb6 b03d 4169 233e fd56 993d
00000240: e7d2 1b3f 0f29 1b3e c09c 323e 8124 9abe
00000250: ebec 19be c1e8 00bf d0ec 32bf c9f8 f9be
00000260: bb0c 163f 2bc8 4c3e e0df 303f a13b b53e
00000270: 80fc f93e c716 de3e 9a96 8fbe 1b29 edbe
00000280: f68a a1be a8d6 863e 0ff9 9dbe b055 d3be
00000290: b997 c53e baca 773d f205 f4be bdd6 70be
000002a0: de96 db3e 108d 9f3e da39 06bd 7171 10be
000002b0: 9cc9 683e 7d1e 4fbd bcb2 063f a989 bcbe
000002c0: e021 3d3e 6749 10be 8bfe 7f3e df04 c6be
000002d0: 282d a23d a758 183e 899e 31bf 10c2 963e
000002e0: f8b3 c8bc d2b8 a8be 7696 8f3e 635b 04be
000002f0: 7c21 283f 3e0a f0be edbf cabe 8b75 bc3d
00000300: 3fa3 f13d 848d 293f a741 f83d 9f0c 99be
00000310: 5d6c 0dbf 3f2d 863e 28ff e33d e7bb d93d
-0.26466122 -0.23353796 -0.5345484 0.10914356 0.064445734 -0.0898457 0.25265998 -0.6782613
0.21803297 -0.45299616 -0.37797496 -0.50694525 -0.13137585 0.4592543 -0.4206773 0.28607166
0.5508401 -0.2778928 -0.06331645 0.073432624 0.6870351 -0.6969884 -0.5703635 -0.485032
0.33808163 -0.35906324 -0.10876011 0.26702648 0.3412687 0.48935482 -0.6105831 -0.7044374
-0.4578457 0.052766506 -0.68444747 0.24102037 -0.022356879 -0.32495296 -0.09952632 0.3336514
-0.42636374 0.45882937 0.57119125 -0.14845131 0.40117198 0.3880488 -0.6506485 -0.63659257
-0.27625927 -0.22313468 -0.010087005 0.11810474 -0.3169336 -0.69242895 0.116696104 0.2070292
0.073708095 0.5469686 0.22180024 0.16676588 -0.23163688 -0.26612505 0.17050162 0.18912825
0.23328997 0.25453493 -0.3749864 -0.21861966 -0.36818212 0.35068595 0.36428684 -0.57827693
-0.039251696 -0.3432656 0.2679355 0.008454742 0.5484068 0.65142626 -0.5596637 0.20887995
0.5021834 -0.4498285 0.26051977 0.40550172 0.55055726 -0.29663408 0.22501604 0.6961972
-0.319639 -0.2982022 -0.14286669 -0.20272861 -0.1595496 0.7048558 0.523041 -0.07103977
-0.13441153 0.55723697 0.66219145 0.17063262 0.7025536 0.38277355 0.23648192 -0.6135404
0.29842615 -0.35006016 -0.0516792 0.33676925 -0.20200014 -0.06109624 -0.05679844 0.19980219
-0.039526917 0.66624457 0.6932343 -0.20822196 0.111590356 -0.65217924 -0.050377455 -0.653344
0.12447937 -0.013205198 0.05893613 0.1632275 0.39092407 -0.4268465 -0.09050749 0.23613058
0.07523288 0.44645566 0.07716523 0.53003895 -0.36589307 0.3348134 -0.4551209 0.45289966
-0.1831756 0.04942662 0.6298532 -0.1914797 -0.2004875 0.086284965 0.1595812 0.07487295
0.60868686 0.15152381 0.17442608 -0.30105975 -0.15031783 -0.50355154 -0.698926 -0.4882262
0.58613175 0.19998233 0.69091606 0.35397056 0.48825455 0.43376753 -0.28044587 -0.46320423
-0.3155133 0.26335645 -0.3085408 -0.41276312 0.38592318 0.06049607 -0.47660786 -0.23519416
0.4288854 0.3116231 -0.032770015 -0.14105774 0.22733158 -0.050566185 0.52616477 -0.36823776
0.18469954 -0.14090501 0.24999444 -0.3867559 0.07918769 0.14877568 -0.6938253 0.29444933
-0.024499878 -0.32953507 0.2804448 -0.12925486 0.65676093 -0.46882814 -0.39599553 0.09202107
0.11798715 0.6623156 0.12121897 -0.29892442 -0.55243474 0.26206395 0.111326516 0.10631543

decoder.layer2.bias f4 [100]
00000000: 54d5 b2be 03f1 fdbd 88b1 fcbd 6a82 4fbe
00000010: 8a72 a23e 6c6b 2d3f 3ea3 08bf fd09 bdbd
00000020: 7af7 823e 01cc 82be 7e74 4b3e 8b67 1b3f
00000030: 5b43 95be 0849 ddbe f588 d73d 175f 49be
00000040: 3c94 29bf 2bc0 a63d ddfd 2c3f 0d6d fc3e
00000050: d60d debe 7059 b73e 661b 5f3e 84cf 523e
00000060: aa93 333e edcb 2ebf 7bd0 a3be ba15 debe
00000070: 46c5 cebe c9f2 0e3f be00 37bd e96c 8c3d
00000080: 88cc 22bf c44e bb3e c1c2 a23e 0ac8 073f
00000090: 261b 193e 6eef 6abe d6bf 34bf 9b78 32bf
000000a0: b4a6 d4be 3b50 b8be e46d 11bf 24a2 8cbe
000000b0: 54af 0d3e d99f 33bf 2bbd cb3e b155 ec3d
000000c0: cdef 3dbe 1c93 e6bd 32a6 02be bf74 153f
000000d0: fa14 15bf e1b7 7fbe fdae 2c3f 51e6 7dbd
000000e0: c4af dabb 6b60 853c ddf9 153e cb19 a5be
000000f0: a001 8d3e 61e3 743c c754 c53e 877c 23bf
00000100: 0f17 ee3e ccd2 00be 77c4 d93e bc9d 9bbd
00000110: b5a6 2b3e 8bea fe3e d892 5dbe 41ec bbbe
00000120: 07fb 18bf be06 413e 02e7 273f af15 663e
00000130: f21f febc 8946 10bf e5ac 8e3c 9ab7 7d3e
00000140: 4906 1d3f a7a3 86be 7fe5 23bf b5b5 aabe
00000150: d961 953e 8909 d2be 6dcc b8be 7446 7f3e
00000160: daa5 26be 4aa0 903d 7e2e 91be bc34 32bf
00000170: 75a5 0ebf fbe8 f63b d709 7fbe 2970 683e
00000180: 3702 cdbd 7039 cfbe e0fa 733e a87d 113f
-0.3492838 -0.12399485 -0.12338549 -0.20264593 0.3172801 0.6774204 -0.5337409 -0.09230421
0.25579435 -0.25546268 0.19868657 0.6070487 -0.2915295 -0.4321978 0.10524169 -0.1966518
-0.6624181 0.08142122 0.67574865 0.4930195 -0.4336993 0.35810423 0.21787795 0.20586973
0.17536798 -0.68279916 -0.31994995 -0.4337595 -0.40384883 0.5583921 -0.044678442 0.068567105
-0.6359334 0.3658353 0.3178921 0.5303961 0.14951763 -0.22942898 -0.7060522 -0.6971528
-0.41533434 -0.3599871 -0.56808305 -0.27467453 0.13836414 -0.70165783 0.3979276 0.11539782
-0.18548508 -0.11258528 -0.12758711 0.58381265 -0.5823513 -0.24972488 0.6745451 -0.061987225
-0.006673785 0.016281327 0.14646097 -0.3224624 0.27540302 0.0149467895 0.38541242 -0.6386189
0.46501967 -0.12580413 0.42532703 -0.07598445 0.16762812 0.49788317 -0.21638048 -0.36703685
-0.5975804 0.18850228 0.65586865 0.22469209 -0.031021092 -0.5635763 0.017416427 0.2477707
0.61337715 -0.26296732 -0.6402206 -0.33341756 0.29176214 -0.410229 -0.36093464 0.2492922
-0.16274205 0.07061823 -0.28355783 -0.69611716 -0.5572122 0.0075350977 -0.24906097 0.22699036
-0.10010188 -0.4047351 0.2382617 0.5683236
