nero/collections/planning/models/outputs/2020-11-10/17-31-37/checkpoints/epoch=0.ckpt (torch, 155812 bytes, 12 tensors)

encoder.layer0.weight f4 [100, 100]
000000 ba 10 5f 3d 93 2b f3 3c 23 6f ac 3d 67 4b eb bb
       0.05445931 0.029683864 0.08419635 -0.0071806195
000010 87 95 ef 3c 27 cc 43 3c 93 71 ad bc 12 3c 9c bd
       0.029246105 0.011950529 -0.02117232 -0.07628645
000020 67 65 1d bb f5 b2 c7 bd c0 b7 fb bc 7a a6 b1 bc
       -0.002401674 -0.0975093 -0.030727267 -0.021685828
000030 00 50 b3 3b 9d c5 4f 3d 9d c2 2b bd 5d ef 70 3d
       0.005472183 0.050725568 -0.041933645 0.058822025
000040 cd e4 9f 3b 3f e3 84 bd 1f 2b b7 3d 10 6c 03 3d
       0.00487957 -0.06488656 0.089437716 0.03208548
000050 07 30 b4 3d 72 38 b3 bd fa 10 06 3d d7 b4 56 bd
       0.08798223 -0.087510005 0.032731034 -0.052418556
000060 40 64 d1 3c c0 d1 29 3c 3d a8 a5 bd 7a 65 a4 bc
       0.025560498 0.01036495 -0.080887295 -0.020067919
000070 73 af 31 bd 6d bc 36 3d 83 2c 06 3d b7 1f b8 3d
       -0.043380212 0.04461329 0.032757293 0.08990424
000080 4d b8 a1 bb 9a 59 f0 3a 00 86 3e bc 62 04 b1 bd
       -0.0049353004 0.001833725 -0.011628628 -0.08643414
000090 67 34 20 bd 67 e0 1e 3d fa 94 b5 3c ff c4 8d bd
       -0.039112475 0.038788226 0.022165764 -0.0692234
0000a0 d2 b7 ac 3d 07 bf ab bd 23 1b 56 bd 28 fb a3 3d
       0.084334984 -0.08386045 -0.052271973 0.08006889
0000b0 67 58 c5 3a 1a e8 44 3c 3d 5a 1e bd 77 c2 cc 3d
       0.0015056253 0.012018228 -0.038660277 0.09998029
0000c0 15 64 8c bd a0 9e c4 3c 6a 15 3d 3d c7 ca 95 bd
       -0.06855027 0.02400142 0.046163 -0.07314067
0000d0 4d a1 3b 3d 13 30 05 bd fa 53 8e bc 93 57 b6 3d
       0.045808125 -0.03251655 -0.017374028 0.08903422
0000e0 83 57 52 bd 63 05 12 3d e7 2e 8a bb 83 a6 c3 bd
       -0.05135299 0.03564967 -0.004217017 -0.09553244
0000f0 fd cc 0f bd 67 cd 9e bb ba fd 1d bd 20 01 f5 3c
       -0.0351076 -0.004846263 -0.03857205 0.029907763
000100 e7 d6 04 bc c7 8e ad bd 03 81 c4 bd 00 a8 85 3a
       -0.008107877 -0.08474498 -0.095949195 0.0010197163
000110 33 b4 7b bd ed b8 93 bd 7f 03 c4 3d 6a 48 8e 3d
       -0.06145115 -0.07213006 0.09570979 0.06947406
000120 cd b7 aa 3d 6a 33 37 3d 8a 3b 4a bd 5d 66 00 bd
       0.083358385 0.044726767 -0.049373187 -0.03134762
000130 b3 f1 8c 3c 4d 92 b5 3d 4b 24 88 bd cb e1 9e bd
       0.017205095 0.08865795 -0.06647547 -0.0775791
000140 62 b3 a1 bd 27 a1 91 3d 40 70 7a 3c da ef 08 bc
       -0.07895543 0.071108155 0.015285552 -0.008357966
000150 30 90 13 bd b3 ee bc bb e7 62 cb bd ba 08 aa 3d
       -0.03602618 -0.00576576 -0.099309735 0.08302446
000160 dd f9 30 bd 63 62 28 3d 3d a7 78 3d 77 30 01 3d
       -0.04320704 0.041109454 0.060706366 0.03154036
000170 a7 68 87 bc c3 bd 60 3d c7 1f a7 bd 6a 87 ad bd
       -0.016529394 0.05486847 -0.08160358 -0.08473094
000180 77 32 62 bd 73 cf 6b bc 73 51 70 bd a7 95 14 3c
       -0.05522391 -0.0143927215 -0.058671426 0.009068883
000190 2d 73 69 bd 63 b9 53 bd ba 28 8b bd cd d3 09 3c
       -0.056994606 -0.05169047 -0.06794877 0.008412314
0001a0 7d 90 30 bd c0 77 4b bd 00 b0 8e bb 87 66 7c bd
       -0.043106545 -0.04967475 -0.004354477 -0.061621215
0001b0 bf 84 80 3d 50 f8 6f bd d3 68 3c bd 97 0c 22 bd
       0.06275319 -0.05858642 -0.045998406 -0.039562788
0001c0 97 bd 03 bd 33 c5 f9 bb 7f 36 97 3d d3 07 f4 bc
       -0.03216323 -0.007622385 0.07383441 -0.029788887
0001d0 27 80 e2 3c 68 6a 88 3d fa 78 00 3d 2b 49 84 3d
       0.027648998 0.066609204 0.031365372 0.06459268
0001e0 8d a7 b6 bc da 40 9c 3c 20 1c a7 bd 67 84 b2 bb
       -0.022296691 0.019073892 -0.08159661 -0.0054479125
0001f0 73 87 09 3c 40 39 4e bd 17 a0 c6 3d 67 10 6d bd
       0.00839411 -0.050347567 0.096985035 -0.05787697
000200 40 f6 e2 3c 0d e6 4f 3c aa 5e 2e 3d 5d 51 6f 3d
       0.027705312 0.012689126 0.042570747 0.058427203
000210 8d c1 5e bc 8f db bf bd 03 3a 5f 3d d7 e1 08 bd
       -0.013595951 -0.09368049 0.054498684 -0.033418503
000220 cd 9c 9d 39 fa bc be 3d fb db 9b 3d 0d 60 5b 3d
       0.000300622 0.09313388 0.07610317 0.053558398
000230 55 0c be bd 5a e6 81 bd 6d f9 67 bd 47 65 b8 bd
       -0.09279696 -0.06342764 -0.056634355 -0.09003692
000240 3f 4a cc 3d 50 05 7c 3d 67 ef 5b 3d 85 a7 cc bd
       0.09975099 0.061528504 0.05369511 -0.09992889
000250 67 68 25 3c 67 2d 9d 3c 12 43 89 bd 9a ec c8 3b
       0.010095692 0.019186689 -0.06702246 0.0061317207
000260 00 57 63 3d df f6 99 3d c3 fb 06 bd 5a c6 2a bc
       0.05550289 0.0751779 -0.032954942 -0.010423267
000270 fa d3 d3 3c fd 1b 96 3d d0 c9 56 3d 83 9e 8c 3d
       0.025857914 0.07329557 0.052438557 0.06866171
000280 f3 d7 2b bd f3 36 7c bd 6d 4d 6c bd 2b b1 80 3d
       -0.041953992 -0.06157584 -0.057691026 0.06283792
000290 1d b8 60 3d 1a de c1 bd e7 85 04 3c ba 51 3e bd
       0.054863084 -0.09466191 0.008088565 -0.04646466
0002a0 37 c0 64 bd d3 4a 28 3d 20 4f c3 bc 8d fd 75 bd
       -0.055847373 0.041086983 -0.02384144 -0.060056258
0002b0 27 d3 97 3c 23 fc 31 bd 40 e5 38 3d d3 3a 6c bd
       0.018533302 -0.043453347 0.045140505 -0.057673287
0002c0 9a ad 0d 3b 6d cd 14 bd cd 7c f8 39 1a 9b 6f bd
       0.0021618367 -0.03632872 0.0004739523 -0.058497526
0002d0 c2 36 a2 3d fb 11 c4 3d 60 f2 39 3d d5 11 ca bd
       0.079206005 0.09573742 0.045397162 -0.098666824
0002e0 5d 45 7e bd 30 04 33 bd 40 19 32 3c da d7 08 bc
       -0.06207787 -0.043705165 0.010870278 -0.008352244
0002f0 2a 37 52 bd 10 d6 40 3d b3 36 2f bd 6d bc 42 bd
       -0.05132214 0.047079146 -0.042776775 -0.047542978
000300 92 95 ca 3d 57 48 b2 bd da c9 57 3c f0 5e 95 3d
       0.098918095 -0.08705204 0.013170684 0.072934985
000310 4a d7 13 3d 57 4c 18 bd d0 92 81 3d 62 2e aa 3d
       0.036093988 -0.03718218 0.063268304 0.08309628
000320 93 9a d1 bc af eb be bd 67 71 e4 3c 08 0a b5 bd
       -0.025586402 -0.09322297 0.027886106 -0.08839804
000330 c5 60 a0 3d 00 76 54 bc 00 84 8e 3b e7 4d 01 bd
       0.07830957 -0.0129675865 0.0043492317 -0.031568434
000340 2d dd 99 bc 0d c2 b9 bd 9d 09 8f 3d 5a 4d 1d bd
       -0.018782223 -0.090702154 0.069842555 -0.038403846
000350 9a b8 bd bb 2d 19 0a bd b3 f5 ce bc 7a 06 a1 bc
       -0.0057898285 -0.033715416 -0.025263643 -0.019656409
000360 30 58 c1 3d 00 1c 05 bd 43 2a 84 3d 47 47 bd 3d
       0.094406486 -0.032497406 0.06453373 0.09242111
000370 33 51 63 3d 75 be ac bd 80 d0 85 bb bb c7 be 3d
       0.05549736 -0.08434764 -0.004083693 0.09315439
000380 bd a4 c5 bd d8 18 c9 3d fd 50 a1 3d 27 42 10 bc
       -0.09650562 0.09819192 0.078767754 -0.008804834
000390 6a 21 51 3d f3 a6 c9 3d 40 2c 09 bc b7 1f 0a bd
       0.051057257 0.09846296 -0.008372366 -0.033721652
0003a0 e3 22 5a bd c7 48 87 bd 8f a1 b0 3d 1f 01 b3 bd
       -0.053255927 -0.06605678 0.08624565 -0.08740448
0003b0 63 45 19 bd 95 b6 9c bd ad c1 81 bd c0 29 31 3d
       -0.037419688 -0.07652012 -0.06335769 0.043252707
0003c0 5a d2 ee bc fa bc 5d bd 4d 44 9b bb e0 ed ce 3c
       -0.029153038 -0.0541353 -0.0047383667 0.025259912
0003d0 87 30 49 bd 0d e2 12 3c 2a 0d 27 3d 7b 3a 97 bd
       -0.049118545 0.0089650275 0.04078404 -0.07384201
0003e0 00 4f 81 3c e2 b7 95 3d 8b 24 8b 3d 0d 82 f3 bc
       0.01578474 0.073104635 0.067940794 -0.029725099
0003f0 77 36 42 bd b3 bb dc 3b b3 e0 d7 bb ca a1 a5 bd
       -0.047415223 0.0067362427 -0.0065880655 -0.080874994

encoder.layer0.bias f4 [100]
000000 b7 31 9d bd 63 c1 3c bd 3a 29 cd bc 00 bf ba bc
       -0.07675498 -0.046082865 -0.025044072 -0.022796154
000010 70 e7 c6 3d 37 c7 19 bd ad 77 b5 bd 18 f0 87 bd
       0.09712112 -0.0375435 -0.08860717 -0.06637591
000020 c7 47 f5 3c 27 66 ff bc c0 15 5c bd cd d9 97 3c
       0.029941453 -0.03117664 -0.05373168 0.018536473
000030 e0 4c b0 3c 6d 91 1c 3d 50 d2 aa 3d a8 dd 8f bd
       0.021521032 0.038224626 0.08340895 -0.070246994
000040 73 7a f1 3c e0 9f 53 3d ad de fe bc b3 82 fb bb
       0.029477334 0.05166614 -0.03111204 -0.0076754927
000050 af 90 c0 3d cd 10 c6 3c 90 44 a6 3d 3a 6a 10 3d
       0.09402596 0.024177933 0.08118546 0.035257556
000060 1a 1c 3b 3c 0d 52 92 bd 9b 8e aa 3d 7d 15 66 3d
       0.011420274 -0.07144556 0.08327981 0.056172837
000070 6b 88 be 3d ad 62 17 3d 92 59 a4 bd 80 da 47 3c
       0.093033634 0.03695934 -0.08024897 0.012198091
000080 80 51 a9 bd 2d 0b 57 bd 67 bb 74 3c fb 78 87 bd
       -0.08267498 -0.052500892 0.014937258 -0.06614872
000090 bd 41 4a 3d d3 c1 cb bd 0d 5a 37 3c 1a 30 0b bc
       0.0493791 -0.099490784 0.011190903 -0.008495355
0000a0 aa 33 01 bd 33 21 ac 3c 77 f2 42 3d 8b 3d 95 3d
       -0.03154341 0.021011924 0.047594514 0.07287129
0000b0 fa 93 a7 bc aa c3 8f 3d da 13 52 bc 80 c3 9c bd
       -0.020456303 0.07019742 -0.012822116 -0.07654476
0000c0 b7 59 7f bd 90 f9 6f 3d ed 5f 16 3d e0 b9 63 3d
       -0.062341418 0.05858761 0.036712576 0.055597186
0000d0 20 59 1e bd f8 37 96 bd 87 76 b1 3c 77 02 aa 3d
       -0.038659215 -0.07334894 0.021662964 0.083012514
0000e0 27 10 98 bd f7 38 21 3d 4d bf e8 bc 0a 32 a3 bd
       -0.07424956 0.039360967 -0.028411532 -0.079685286
0000f0 87 53 6b 3d fd c5 66 bd bd 0e 66 bd e3 00 9e 3d
       0.057452705 -0.05634116 -0.0561664 0.07715013
000100 30 e0 b6 bd 67 24 4a bc 53 1c b2 bc 65 61 cc bd
       -0.08929479 -0.012337781 -0.021742022 -0.09979514
000110 da e8 6e 3c 63 a8 ab 3d c0 aa 89 bd 05 bb a1 3d
       0.014581883 0.083817266 -0.06722021 0.07896999
000120 0a 4c 07 bd c7 21 f3 3c 90 24 46 bd b7 b8 9c 3d
       -0.0330315 0.029679192 -0.048374712 0.07652419
000130 00 fc f8 3c 4d fa 11 bc f0 8b 2f bd 37 1d 40 3d
       0.0303936 -0.008909774 -0.042858064 0.04690286
000140 fa 30 a9 bc 7b d1 c8 bd 33 17 45 3b 0d cc 64 bd
       -0.020653237 -0.0980558 0.0030073642 -0.05585866
000150 47 01 2b bd ed b2 e4 3c aa 3d 3e bd 07 f1 61 bd
       -0.041749265 0.02791735 -0.046445526 -0.055161502
000160 6d 08 8c bc fb 3f b3 bd fb fd 8b bd 1d d2 a8 bd
       -0.017093861 -0.08752438 -0.06835552 -0.08243201
000170 5a b1 d7 3c fd 20 67 bd 67 94 ef 3a d3 b8 5f 3d
       0.026329685 -0.056427944 0.001827848 0.05461962
000180 ea dd 86 3d fa 5e bd bd 9d 48 7f bd c2 a2 8c 3d
       0.065852955 -0.09246631 -0.06232511 0.06866981

encoder.layer2.weight f4 [256, 100]
000000 ed 9e fb bc 3a aa 96 3d 35 62 99 bd cf fd 83 bd
       -0.03071543 0.07356687 -0.07489435 -0.064448945
000010 dd 4e ca 3d 93 ce 5b bd ed 1b 38 3d 48 1b c0 3d
       0.09878323 -0.0536638 0.044948507 0.093802035
000020 88 17 ba bd e2 73 83 bd f3 25 8d bc 90 2a 1b bd
       -0.090865195 -0.06418587 -0.01723001 -0.037882388
000030 ea a0 04 3d ca 39 97 3d ff 8f c2 bd 9d 94 0f 3d
       0.032380022 0.07384069 -0.09500121 0.035053838
000040 1a 60 aa 3d 2f 66 c5 bd 80 c0 fc 3c 8a e2 66 3d
       0.08319111 -0.096386306 0.03085351 0.05636839
000050 cd 78 cc 3a 17 dd 31 3d 67 26 21 38 9a 6e 06 3d
       0.0015599966 0.04342374 3.8421156e-05 0.03282032
000060 7f 48 89 3d 80 92 0f bc 47 5a 45 3d 90 d7 63 bd
       0.06703281 -0.008762956 0.0481818 -0.0556255
000070 9a a0 06 bb c0 78 b9 3c 98 de bd 3d e2 7e c1 bd
       -0.0020542503 0.022640586 0.09270972 -0.09448029
000080 73 5b 8f 3d cd 04 4a 3a 4d 24 32 bd ba 7a 6c bd
       0.069998644 0.0007706404 -0.04349165 -0.05773423
000090 57 c8 70 bd 6d bc 11 3d a3 9c 6c bd 1d 20 4a bd
       -0.05878481 0.035580087 -0.057766568 -0.04934703
0000a0 5a 13 48 bd 00 dd d7 bc b3 0b 86 3d 67 9e 9d 3b
       -0.04884658 -0.026350498 0.065452 0.004810143
0000b0 ba f0 e5 bc ad 1b be 3c 8a 3d b8 bd 10 91 32 bd
       -0.028068889 0.023206556 -0.08996113 -0.043595374
0000c0 fb fe 96 3d e8 27 a3 3d c0 d2 ae 3d 4d 71 b8 3c
       0.073728524 0.07966596 0.08536291 0.022514964
0000d0 f8 23 a4 3d 1b 89 bb 3d 37 93 01 bd e7 3f d0 3b
       0.08014673 0.0915701 -0.031634536 0.006355274
0000e0 60 b2 b4 bc 60 6a 49 3d da 6b 09 bc 6a 5b 98 3d
       -0.022057712 0.049173713 -0.00838753 0.07439311
0000f0 3a 02 a7 3c 8d 83 28 3d 33 43 89 3d ba 36 4a bd
       0.020386804 0.04114108 0.0670227 -0.049368598
000100 b3 dd b7 3d bd 4a 57 bd a8 4d ad bd c3 f6 67 3d
       0.08977833 -0.05256151 -0.084620774 0.056631815
000110 3a ac 56 bd a0 f5 4a bd 4d 8f 7d 3d c7 00 e5 3c
       -0.05241034 -0.049550653 0.06190424 0.027954472
000120 53 ed a9 3d 3d 9b 62 bd 52 23 a4 3d 27 43 91 3c
       0.08297219 -0.055323828 0.08014549 0.017732216
000130 67 a3 a0 3b 33 1d ae 3c 32 ec 80 bd 33 a7 69 3b
       0.0049022916 0.021254158 -0.06295051 0.0035652637
000140 8f 3a bf bd fd 74 a3 3d cd dd 1c bc 33 7f 93 bc
       -0.09337341 0.07981298 -0.009574366 -0.01800499
000150 df 30 84 3d 67 d5 4c 3d d7 78 a9 3d 9a 4f e0 3c
       0.06454634 0.050008204 0.082750015 0.027381707
000160 6f d4 ca bd 5a 04 81 bc fa 1f cb bc f3 59 30 3d
       -0.099038 -0.015749145 -0.024795521 0.043054532
000170 e7 fe 5e bc a3 d5 47 3d a8 88 c6 bd 25 d4 96 bd
       -0.013610578 0.048787724 -0.09694034 -0.07364682
000180 e7 0c 7e 3c cd d2 a4 3d ed 75 1f bd 4f 17 b9 3d
       0.015506006 0.080480196 -0.038930822 0.09037649
000190 93 f8 78 3d 37 1f 94 bd e3 b0 ba 3d 2d b3 9e bd
       0.060783934 -0.07232516 0.0911577 -0.07749019
0001a0 fa bd 4a 3d 07 8d da 3c 0d e5 b1 3d 27 7a 3a 3d
       0.049497582 0.026678575 0.08686266 0.04552665
0001b0 c0 7d 7c bc 13 5b c5 3c 57 65 02 3d 77 ae c7 3d
       -0.0154108405 0.02409128 0.031834926 0.097500734
0001c0 17 5c 17 bd a2 03 b0 3d 9d ae 95 bd 6d 65 e7 bc
       -0.036953058 0.08594443 -0.073086955 -0.028246606
0001d0 da 8d 7b 3c 50 89 7f bd 7b eb 9d 3d 8d 4a 0e 3d
       0.015353644 -0.06238681 0.0771093 0.034739066
0001e0 33 77 b6 3b 75 71 a1 bd dd 4e 5f bd f0 8a 35 3d
       0.005568409 -0.07882968 -0.05451857 0.044321954
0001f0 80 8e 90 bb 6d 6c 84 3d 67 f5 71 bd 33 f8 5c 3b
       -0.0044115186 0.06465993 -0.059071925 0.0033717274
000200 ad b2 70 bd c3 f3 0f 3d 95 46 bd bd e7 21 66 bd
       -0.05876415 0.03514458 -0.09241978 -0.056184676
000210 b3 ac 75 bd d3 6a e6 3c 40 e5 aa 3d e8 35 c3 3d
       -0.059979152 0.02812711 0.08344507 0.09531766
000220 7d db ac 3d 87 d2 7a bd 9a 9e 1f 3b 37 2d 46 3d
       0.084403016 -0.06123593 0.0024356009 0.048382964
000230 80 b7 88 3c 0d 65 df 3c 85 56 c7 bd 60 69 a5 3c
       0.016689062 0.027269864 -0.09733299 0.020191848
000240 00 1d d7 bc 87 68 00 3d 9a 7a f7 3b d5 45 c7 3d
       -0.026258945 0.031349685 0.007552457 0.09730116
000250 cd bd db bb d3 b1 ad 3c b3 71 89 3c b3 a6 f5 bb
       -0.0067059756 0.021202957 0.016777849 -0.0074966787
000260 1a 7e 5b 3d 80 67 ad 3d c3 f4 5c 3d 90 dd ca 3d
       0.053587057 0.08467007 0.05394436 0.09905541
000270 0d 00 59 3d 40 bc 46 3c dd 54 0f 3d c5 4e ac 3d
       0.052978564 0.012129843 0.03499304 0.084134616
000280 33 06 4e 3b 5a 22 72 3c 37 b8 8b bd e0 7a d9 bc
       0.00314368 0.014778698 -0.068222456 -0.02654785
000290 7a 5c 44 bd 1a 75 cc 3b 40 41 e2 3c 7a 37 d3 bc
       -0.047939755 0.0062395455 0.027619004 -0.02578329
0002a0 02 eb b9 3d c0 c9 d2 3c 93 03 f2 bc c3 c7 51 bd
       0.09078027 0.025730968 -0.02954272 -0.0512159
0002b0 ca 12 19 3d bd e9 29 3d 25 05 c6 3d 1a 6a 80 bd
       0.037371434 0.041482676 0.0966895 -0.06270237
0002c0 33 0a 77 bb b0 1a b1 3d 1a 25 8d bd 60 ee 94 3c
       -0.0037695288 0.08647668 -0.06891842 0.018180072
0002d0 52 76 9f bd 55 88 ca bd df 60 bf bd 45 34 ca bd
       -0.0778624 -0.098892845 -0.093446486 -0.09873251
0002e0 98 ab 88 3d fa 03 32 bd 27 7b 5c 3c a3 ca 01 3d
       0.06673354 -0.043460824 0.013457096 0.03168739
0002f0 23 c2 8c bd c3 5b 9a bd d3 3b b9 3d 20 51 69 3d
       -0.06872966 -0.075370334 0.09044614 0.056962132
000300 6d d5 3d 3d df 71 c0 3d 50 22 20 3d 5a 62 c0 bd
       0.046346117 0.09396719 0.039095223 -0.09393759
000310 a7 a6 14 3d ad 6f b8 3c e0 c6 40 bd 33 d4 22 3c
       0.036291745 0.022514189 -0.047064662 0.009938288
000320 8d fc a4 bc 8d 22 40 bd 47 93 87 3d 6d db ac 3c
       -0.020139957 -0.04690795 0.06619888 0.021100724
000330 33 79 b7 bc d7 96 17 3d 25 82 a6 3d ba 2a 64 3d
       -0.02239666 0.037009086 0.08130292 0.05570481
000340 20 7b ad 3d b7 75 3b bd 9f 61 a6 3d 2a a2 0b bd
       0.0847075 -0.04576656 0.081240885 -0.0340902
000350 32 8c aa 3d 8d 09 b7 3c cd d9 41 bc 4d 56 e5 3b
       0.083275214 0.022343421 -0.011831713 0.0069988132
000360 27 93 cf 3c e7 a5 2f 3c 1a 7b 1c 3c eb 46 ad 3d
       0.025338722 0.010720707 0.009550834 0.08460792
000370 27 1b a4 bc 47 f0 c1 bc e7 7f eb bc 53 60 3a 3d
       -0.020032478 -0.023674143 -0.028747512 0.04550202
000380 ba 1b b5 3d 33 38 e6 bb 0f 79 cc bd 47 e7 ff 3c
       0.08843179 -0.0070257424 -0.099840276 0.031238211
000390 33 a0 e5 bc 5d 87 03 3d 83 b6 a2 3d 43 7f c5 bd
       -0.02803049 0.032111514 0.079449676 -0.09643414
0003a0 42 ea b8 3d d5 ce a2 3d c8 4c a0 3d 5f 89 a2 bd
       0.09029056 0.07949606 0.07827145 -0.07936358
0003b0 ff 66 9a bd 2d b4 49 bd 7a eb a9 3d 6f 69 b8 3d
       -0.07539176 -0.049244095 0.08296867 0.09004485
0003c0 53 82 af bc b7 9b 30 bd d8 30 c6 3d 1a c1 60 bc
       -0.021424448 -0.04311725 0.09677285 -0.013717914
0003d0 da 35 2b bd e7 b8 d9 bc 00 6d 1d bd 27 8a db bc
       -0.041799404 -0.026577426 -0.03843403 -0.026799275
0003e0 87 aa 55 3d 70 e1 1e 3d 87 a5 69 bd 00 92 d9 bb
       0.05216458 0.038789213 -0.057042625 -0.006639719
0003f0 1a 57 76 3d 0d 79 84 bd 4d be ed 3b 4d 13 38 3c
       0.06014166 -0.06468401 0.0072553516 0.01123507

encoder.layer2.bias f4 [256]
000000 77 79 40 3d 9f 3d ae 3d 80 b6 a1 3d 47 a9 c1 bd
       0.046990838 0.08507847 0.07896137 -0.09456115
000010 33 59 32 3b 2f b4 9d bd ed b3 59 bd 23 b1 49 3d
       0.0027213811 -0.07700383 -0.053150106 0.049241196
000020 53 72 2a bd 00 c6 fd ba fa 80 c5 bd 33 f1 a4 bb
       -0.041612934 -0.0019361377 -0.09643741 -0.005033636
000030 17 dc 79 bd 28 c1 9e bd 4b 05 92 bd 9b fb b9 bd
       -0.06100091 -0.077516854 -0.07129916 -0.09081193
000040 5f d5 8a bd 93 75 9e 3c 4a 4a 72 bd a0 06 39 3d
       -0.067789786 0.019343173 -0.05915288 0.045172334
000050 9d 1e 27 3d 58 7c a2 3d 90 8d 8d bd a7 47 90 3d
       0.04080068 0.07933873 -0.069117665 0.070449166
000060 30 52 b9 bd 1f c2 af 3d f3 79 00 bc 43 4a 39 bd
       -0.09048879 0.085819475 -0.007841575 -0.045236837
000070 67 25 f4 bb 67 a3 85 bc c7 60 fc bc 42 d7 93 bd
       -0.007450748 -0.016313268 -0.030807866 -0.072187915
000080 9a cd 01 bb 22 8b 92 bd 07 dd 07 bd 33 f2 4e 3d
       -0.0019806386 -0.07155444 -0.033169772 0.050523948
000090 c3 8f ae bd 00 a3 8c 3b b7 74 34 bd c7 f3 96 bd
       -0.08523514 0.004291892 -0.04405662 -0.073707156
0000a0 c0 18 0a 3d 70 50 58 bd 4d e4 67 3d 33 35 9f 3b
       0.03371501 -0.052811086 0.05661421 0.0048586368
0000b0 3a 6a 82 bc 03 ad b3 3d 5a a6 fb 3c 33 e2 46 3d
       -0.015919793 0.08773234 0.030718971 0.048555564
0000c0 97 38 c6 3d 5a e2 fb bc f0 bd 41 bd a7 e5 c5 bc
       0.096787624 -0.030747581 -0.04730028 -0.024157358
0000d0 20 e0 c0 bd 57 3c 46 3d e7 ec 29 3d 20 25 86 bc
       -0.094177485 0.04839739 0.041485693 -0.016375124
0000e0 a5 6c c2 3d 00 58 05 3d 93 5d ef bc e7 e9 27 bd
       0.094933785 0.032554626 -0.029219424 -0.04099455
0000f0 0d ef 26 3d 4d 2a 0c 3d cd f0 19 3c 2d 87 fc 3c
       0.04075532 0.03422003 0.00939579 0.030826176
000100 80 bf f7 bb 67 ae 6c 3b fb f2 85 bd 27 4d 8e bc
       -0.0075606704 0.0036114694 -0.065404855 -0.017370773
000110 4d e2 11 3d 0d 86 7c bd 1a 8b 1b bd 33 4b 1b 3a
       0.035616208 -0.06165128 -0.037974454 0.00059239863
000120 c0 50 4a bd fd cb 31 bd 00 bb 77 3b 00 46 6b bc
       -0.049393415 -0.04340743 0.003780067 -0.014359951
000130 0a 34 99 bd f3 f0 67 3d 00 b5 65 bc 67 a3 b9 bc
       -0.07480629 0.05662627 -0.014020205 -0.022660924
000140 33 58 47 3c 05 6d 9a bd 03 14 c8 bd 73 6e b6 bc
       0.012167024 -0.07540325 -0.09769442 -0.022269463
000150 5b de a7 3d c7 ce d3 bc 6d f6 5c bd 8a 69 59 bd
       0.08196708 -0.025855435 -0.053945947 -0.053079166
000160 67 e9 3a 3c e7 10 a8 bb 93 d8 82 bc 23 e6 5b bd
       0.0114081865 -0.005128968 -0.015972411 -0.053686272
000170 10 0a 4b 3d e7 38 13 3c 8d 8d bb 3c e0 b2 bb bc
       0.049570143 0.008985735 0.022894645 -0.022912443
000180 80 0a a9 bd a5 79 91 bd bd fe 6c bd 1a 79 a9 bc
       -0.08253956 -0.0710328 -0.057860125 -0.020687629
000190 95 c8 af 3d 33 c3 0c ba 27 dc 48 bd 90 a9 36 3d
       0.0858318 -0.0005369663 -0.04903808 0.0445953
0001a0 07 90 1e bd 00 08 a3 bc d3 4e 5a 3d 00 50 f8 b9
       -0.038711574 -0.019901276 0.05329783 -0.0004736185
0001b0 fd 9b 6e bd 4f 7e 81 3d e2 71 9b bd a8 cf 85 3d
       -0.05825423 0.063229196 -0.07590081 0.06533748
0001c0 f8 00 8d 3d da 08 7b bd 20 b6 df 3c 9a 12 0a 3b
       0.068849504 -0.06128774 0.027308524 0.0021068216
0001d0 cd f9 18 3b c0 ed 1d bc 77 87 86 bd 6a 39 bf bd
       0.0023342252 -0.009639204 -0.065688066 -0.09337123
0001e0 d7 55 35 bd 07 46 49 bd e7 19 d4 bc ba ec a3 3d
       -0.044271316 -0.04913905 -0.025891257 0.080041364
0001f0 f3 bd 8b bd 00 24 fe 3b 47 21 4f bd 6a e5 54 3d
       -0.06823339 0.0077557564 -0.050568845 0.0519766
000200 25 9f a9 3d cd 3d 6e 3c 3a f8 89 bd 9a 9e 4f 3d
       0.082823075 0.014541102 -0.067367986 0.050688364
000210 27 a5 62 bd 1b e6 97 bd dd fd a5 bd 6d e1 b3 3d
       -0.055333283 -0.07416936 -0.08105061 0.08783231
000220 5d 06 c8 3d c5 23 96 3d 9a e2 d9 bb 33 bc 71 bd
       0.09766839 0.07331041 -0.0066493275 -0.05901737
000230 2d fe a2 bc ed 9b 49 3d 13 8d 3e 3d 7f 83 b4 bd
       -0.019896591 0.049220968 0.046521258 -0.088141434
000240 2d 4e 43 bd 27 e0 e8 bc f3 d8 5b bc 0d 52 db 3c
       -0.047681976 -0.028427197 -0.013418424 0.026772523
000250 cd 30 69 ba e0 69 db bc cd 7e fd 3a 0d 9b 42 bc
       -0.00088955165 -0.026783884 0.0019340158 -0.011877787
000260 2f 92 b0 3d 67 7e 98 3b 8d b5 16 bc 18 cb b6 3d
       0.08621632 0.00465374 -0.0091985585 0.08925456
000270 1a e8 b0 bc 4b 33 85 3d 65 d4 85 bd 13 71 53 3d
       -0.02159505 0.06503924 -0.06534652 0.051621508
000280 b7 ee 0a 3d 0f f3 c8 bd e7 28 52 bc 07 04 4c bd
       0.033919062 -0.09811985 -0.012827135 -0.04980853
000290 88 81 b4 bd cb 6b 9c bd 2d 9d 9e bd 55 2a ae 3d
       -0.088137686 -0.076377474 -0.07744823 0.08504168
0002a0 73 36 d2 bc d0 3c 5b 3d 8d 2f 7e bd e3 71 75 bd
       -0.025660729 0.053524792 -0.062057067 -0.059923064
0002b0 88 90 c5 bd a5 5d ca 3d f3 70 29 3c cd bc b4 39
       -0.09646708 0.098811425 0.010341871 0.00034472943
0002c0 83 79 c3 3d 00 83 3d bb 2d 60 31 3d 00 f5 ed 3c
       0.09544661 -0.0028917193 0.04330461 0.02904749
0002d0 b3 7c fc bc 40 ad a8 bd a7 a8 09 bd 6d 4e 0a 3d
       -0.03082118 -0.0823617 -0.033608105 0.0337662
0002e0 0d 8a 61 3c fd bc 08 bd ed 1a fe 3c 5a 3d 8a bd
       0.013765824 -0.03338336 0.031018699 -0.06749983
0002f0 57 b1 c5 3d d0 48 05 bd 78 5a a0 bd 5d 7c 5e bd
       0.096529655 -0.032540143 -0.078297555 -0.05431782
000300 3a ce 08 bd c3 bf 4e bd 9a 8b 47 3d ab 0a b6 3d
       -0.033399798 -0.050475847 0.04871712 0.088887535
000310 cd 04 b3 39 9a f0 c8 3c 33 dc 5c bb ed 7b b0 bc
       0.00034145117 0.02452879 -0.0033700585 -0.021543467
000320 80 04 17 3d 3a f4 b6 3c 1a d3 98 3c cd 18 47 3c
       0.036869526 0.022333253 0.018655349 0.012151909
000330 f8 50 a8 3d 4d 6c 4e bc a7 0e 29 3d 33 24 27 3c
       0.082185686 -0.012599063 0.04127374 0.010201502
000340 8a 32 6d bd cd 3d 47 bd d5 83 a3 3d 82 17 83 bd
       -0.057909526 -0.048642922 0.07984129 -0.06400968
000350 00 33 27 3d 80 ce a7 3d 1d 98 73 3d 13 47 00 bd
       0.04082012 0.081936836 0.05947124 -0.03131778
000360 03 78 5c bd fb c3 ae 3d 8d 3f 4a 3d 93 4e 23 bd
       -0.05382539 0.08533474 0.049377013 -0.039869856
000370 2d 79 c1 3d 30 89 c5 bd 62 20 b9 bd 0d 95 e7 bc
       0.094469406 -0.09645307 -0.0903938 -0.028269315
000380 20 93 0a 3d 8d 9f 1a bc d3 56 43 3d 10 1e 74 bd
       0.033831716 -0.009437454 0.047690224 -0.059598982
000390 72 23 b1 3d 35 b6 b4 bd 63 13 98 3d 50 d3 58 bd
       0.08649339 -0.08823816 0.07425573 -0.0529359
0003a0 cd ab f5 bc da 03 ec 3c b3 31 60 bd 00 08 da 3b
       -0.029989148 0.02881043 -0.054734897 0.0066537857
0003b0 33 24 ab bb 80 29 c5 3d 2d 4a 02 3d 4d fe 19 3c
       -0.005222821 0.09627056 0.03180902 0.009399009
0003c0 e8 e5 8b 3d cd a1 03 bd f3 14 5d bc b0 18 73 3d
       0.068309605 -0.032136727 -0.013493764 0.059349716
0003d0 27 1f 95 bc 60 84 98 bd 58 9c c8 bd c0 24 67 3d
       -0.018203331 -0.074471235 -0.09795445 0.056431532
0003e0 da 8a 74 3c aa e9 66 bd 13 48 57 3d f3 03 3a 3d
       0.014925683 -0.056375183 0.05255897 0.045413923
0003f0 93 b8 45 3d 27 6f 19 bc cf 2f 9d 3d 67 74 d9 bb
       0.048271727 -0.00936488 0.076751344 -0.0066361907

fc_mu.weight f4 [2, 256]
000000 58 27 93 3c e2 40 5b bd 80 d1 66 bb 40 b7 ea 3a
       0.017963096 -0.053528674 -0.0035220087 0.0017907396
000010 56 fa 0c 3d 7c 00 b4 bc 06 9a 67 3d 2c 10 dc bc
       0.034418426 -0.021972887 0.056543373 -0.02686318
000020 80 86 52 ba 7e b6 11 3d 40 68 ff bc 24 b6 2d 3d
       -0.00080309063 0.03557443 -0.03117764 0.04241003
000030 40 f7 72 3d 6c 3c 83 3c a8 e6 c6 bc 10 ec e5 bc
       0.059317827 0.016020022 -0.024279907 -0.028066665
000040 dc b1 c2 bc b0 c2 b7 3b a0 30 65 bb 10 56 b1 bb
       -0.02376645 0.0056079254 -0.003497161 -0.005411871
000050 c0 6a 35 bc ea fd 6f 3d 80 9e be 3b 9e 4b 57 3d
       -0.011072814 0.05859176 0.0058172345 0.05256235
000060 7a 1b 19 3d 76 49 2e 3d dc d5 f6 3c 28 ae 03 3d
       0.03737972 0.042550527 0.030131273 0.03214851
000070 10 9c 67 3d 00 72 34 b9 60 f2 1a bd 04 25 8d bc
       0.056545317 -0.00017208606 -0.037828803 -0.017229564
000080 ea 38 03 bd 38 95 ca 3c 9c 38 ec 3c 04 8c 40 3d
       -0.0320367 0.024729356 0.028835587 0.04700853
000090 c8 8c 73 bd 48 5d 75 bd 96 12 0c 3d 18 fe 1f 3d
       -0.05946043 -0.059903413 0.034197412 0.039060682
0000a0 90 d4 b6 3b 00 44 f2 b8 0e 63 4a 3d b8 22 43 3c
       0.0055795386 -0.00011552125 0.049410872 0.011910133
0000b0 0a 5c 50 bd 18 66 38 3c 1a d4 23 3d 68 64 43 bd
       -0.050869025 0.01125481 0.039997198 -0.047703177
0000c0 a8 5e 32 3d a0 8a 25 bc d4 da c0 bc 70 65 9e bb
       0.043547302 -0.010103852 -0.023541845 -0.0048338696
0000d0 00 49 40 3a ac f1 5d bd d4 63 47 3d 84 45 10 bd
       0.00073350966 -0.054185554 0.048679188 -0.035222545
0000e0 c4 fd 77 3d bc 92 65 3d 40 e6 c3 bc 3a 78 41 bd
       0.060544744 0.05604814 -0.023913503 -0.047233798
0000f0 3a 06 09 3d 72 19 2f bd 38 78 f0 bc 70 f2 2a 3d
       0.033453204 -0.042748876 -0.0293542 0.041735113
000100 64 41 ef bc 0a 76 5f 3d 90 ec 7c bc 58 ac 09 bd
       -0.029205985 0.05455593 -0.01543726 -0.033611625
000110 00 60 9c 3a 28 d4 df bc 00 81 34 3a 00 15 16 bb
       0.0011930466 -0.027322844 0.00068856776 -0.00229007
000120 c2 07 40 3d 5c a1 1c bd 0a 84 64 bd bc 1a 34 3d
       0.0468824 -0.03823982 -0.055789985 0.04397081
000130 b8 d8 c9 3c bc f8 47 bd 00 5c 64 b9 8a cd 56 bd
       0.024639472 -0.048821196 -0.00021778047 -0.05244211
000140 bc ac 58 3d bc 0b e9 bc c0 2f 65 bc f8 a8 ee bc
       0.052899107 -0.028447978 -0.013988435 -0.029133305
000150 0c 77 d7 3c 66 05 4f 3d 00 f4 9b 3b 7e ea 1e 3d
       0.026301883 0.050542258 0.0047593117 0.038797848
000160 60 97 4b 3b 46 47 0d bd a8 c9 cd 3c b2 21 36 bd
       0.0031065568 -0.0344918 0.025120571 -0.044465728
000170 e4 9a 78 bd c8 0d b2 bc 2a d7 10 bd 28 4b 4c bc
       -0.06069459 -0.021735087 -0.035361446 -0.0124690905
000180 32 9e 01 bd f2 23 22 3d 20 b4 d5 bc 84 25 72 bd
       -0.031645007 0.03958506 -0.026086867 -0.05911781
000190 ba 7e 4f 3d 18 72 33 bc 28 f6 61 3c 98 4d 9a 3c
       0.050657965 -0.010952495 0.013791598 0.018835828
0001a0 10 e9 23 3d 92 fa 01 bd a4 e8 9d 3c 1e 4d 3d 3d
       0.040017188 -0.031733103 0.01927597 0.046216123
0001b0 dc 9d 46 bd c6 be 7b 3d 04 88 06 bd 60 19 f3 bb
       -0.04849039 0.061461233 -0.03284456 -0.0074187964
0001c0 a8 0b 43 3d 10 b6 8b bb d4 4c 05 bd 94 7c dd bc
       0.04761854 -0.004263647 -0.032543972 -0.027036943
0001d0 34 fa 1e bd 68 fd 7c bc d8 89 7c 3c ac 0a 31 bd
       -0.03881283 -0.015441276 0.015413724 -0.043223068
0001e0 30 26 32 3d fa 5d 20 3d 46 f1 35 3d 3e cc 0f 3d
       0.04349345 0.039152123 0.04441955 0.03510689
0001f0 00 5a d8 3b c8 2a 65 3c f0 50 b2 3b e4 e2 6b bd
       0.0066025257 0.013987251 0.0054417774 -0.057589427
000200 6c bb 8e 3c f8 a5 ea 3c 54 8f 79 3d 8a 8b 52 3d
       0.017423354 0.028643593 0.060927704 0.051402606
000210 ba d5 5c 3d f4 42 29 3d e6 de 6c bd 4a 43 61 3d
       0.053914763 0.041323617 -0.05782976 0.054995812
000220 f0 4e 18 3c 80 b7 31 3b 58 2a 22 bc 6c ad 1e bd
       0.009296164 0.002711743 -0.009897791 -0.038739607
000230 d0 46 26 bc 68 7e 9d 3c a0 35 ab bb 98 91 0b 3d
       -0.010148719 0.019225314 -0.0052248985 0.034074396
000240 8a 7d 74 bd 60 ff 3c bd 40 d3 a1 bb 3c 79 06 bd
       -0.059690036 -0.046141982 -0.004938513 -0.03283046
000250 06 70 22 3d ae 76 28 3d 0c 7a cc 3c 22 bd 37 3d
       0.039657615 0.041128807 0.02496054 0.044858105
000260 3c c3 ed 3c 50 20 c0 3c 40 55 aa 3a 40 86 9e bb
       0.029023759 0.023452908 0.0012995377 -0.004837781
000270 5a ce 3b 3d 9e eb 1d 3d c4 f9 f4 bc 82 30 7e 3d
       0.04585109 0.03855478 -0.029904254 0.06205798
000280 02 12 69 bd 30 8b a6 3b f8 b9 49 3c aa 5d 04 3d
       -0.05690194 0.0050825104 0.012312405 0.032315888
000290 b8 38 f4 3c c4 5e 3c 3d 84 11 68 3d 30 f4 91 bb
       0.029812202 0.045988813 0.05665733 -0.0044541582
0002a0 02 c0 3a 3d ac a5 b3 3c 98 58 78 bd 48 d0 78 3c
       0.04559327 0.021929584 -0.060631365 0.015186377
0002b0 c8 96 98 3c cc 9c 4d bd 90 5b 7f 3c 00 66 2d 39
       0.018626586 -0.05019836 0.015585795 0.00016536564
0002c0 5e ab 7b bd 3c 2f ec bc e0 a6 4a bd 4a e1 57 3d
       -0.061442725 -0.028831117 -0.04947555 0.052705087
0002d0 00 59 10 bc b0 22 73 bd 58 d9 6f 3d b2 9b 6c 3d
       -0.008810282 -0.059359252 0.058556885 0.05776567
0002e0 d0 a3 9c bb 08 9d 1b bc 52 96 29 bd b8 b8 b3 3c
       -0.00478027 -0.009497888 -0.041403122 0.021938667
0002f0 cc 64 1f 3d c0 3a ea bc 9c 14 65 3d 70 35 bf 3b
       0.038914487 -0.028592467 0.055927858 0.0058352277
000300 34 8f c8 3c 2c 03 69 3d b2 4b 50 bd 2e 67 10 3d
       0.024482347 0.05688779 -0.05085344 0.03525465
000310 ec b1 83 bc 5e 94 20 bd ea 08 74 3d ae 13 35 bd
       -0.01607605 -0.039203994 0.059578814 -0.04420822
000320 a0 9b 20 bc 82 49 4c 3d 4e 24 50 3d 26 7c 79 3d
       -0.009802729 0.04987479 0.050815873 0.060909413
000330 96 8f 69 3d 34 ee ae 3c 60 14 18 bc 30 ef 81 3c
       0.0570217 0.021353818 -0.0092822015 0.015861124
000340 a2 97 09 3d e0 b8 e1 3c 08 9d 2e bc 38 b5 0c bd
       0.033591874 0.027553976 -0.010657556 -0.03435251
000350 50 15 4b 3d 48 1d 08 3c c0 49 7c bc cc fb b1 3c
       0.049580872 0.008307762 -0.015398443 0.021726511
000360 e0 eb 14 bd ac f7 73 bd d8 f1 ab 3c d4 06 41 3d
       -0.03635776 -0.05956237 0.020989344 0.047125652
000370 28 0b 53 bd 70 8d 3f bd 84 22 f6 bc 3c 34 b4 bc
       -0.05152431 -0.046765745 -0.030045755 -0.021997564
000380 94 1a 0e 3d 10 e7 08 bc 00 e0 4c 3a 00 93 82 3a
       0.034693316 -0.008355871 0.0007815361 0.0009962022
000390 60 83 dd 3b 10 4b 36 bd be 57 1f 3d ee 0a 1a bd
       0.006760046 -0.04450518 0.038902037 -0.03760808
0003a0 b6 f7 3d 3d 42 9c 0d bd 70 46 12 bd 8c 8f ff 3c
       0.046378814 -0.034572847 -0.035711706 0.031196378
0003b0 58 76 54 3c 0c 76 fa 3c 56 10 00 3d 3e bf 00 bd
       0.0129676685 0.030573867 0.03126558 -0.031432383
0003c0 78 41 7c 3c 98 de de 3c d0 90 01 3c 58 82 29 3d
       0.015396468 0.02720575 0.007908061 0.04138407
0003d0 c8 5c 94 3c 30 0d 89 3b d0 94 ad bb 6c be 5e bd
       0.018110648 0.0041824803 -0.005297281 -0.05438082
0003e0 e0 74 a3 3c fc 87 c8 bc a4 15 4b bd 30 aa 61 3d
       0.019953191 -0.024478905 -0.049581185 0.055093944
0003f0 08 a5 37 bd 1c 83 6e bd c0 e2 de bb 24 4d 87 3c
       -0.04483512 -0.058230504 -0.006801933 0.016516276

fc_mu.bias f4 [2]
000000 a8 da 16 bc 7e e6 58 bd
       -0.009207405 -0.05295419

fc_var.weight f4 [2, 256]
000000 ac 94 85 3c e6 8d 61 bd 72 03 0d bd 78 ac 7a 3d
       0.016306244 -0.055066966 -0.034427114 0.061199635
000010 18 3b cf bc 28 1b 37 3d 54 0b 5a bd de 7d 05 3d
       -0.025296733 0.044703633 -0.05323346 0.03259074
000020 00 6e 00 bc 50 a6 ba 3b c2 3c 34 bd 4a b2 0c bd
       -0.007838726 0.0056960955 -0.044003256 -0.034349717
000030 da 5f 79 3d 8c 4b 97 bc 58 59 d8 bc 98 a5 5e 3d
       0.060882427 -0.01846864 -0.02640979 0.05435714
000040 08 21 e5 bc 48 72 6b 3d 58 99 15 bd 70 31 82 3b
       -0.027969852 0.057482034 -0.036523193 0.0039731786
000050 d6 84 76 3d 74 36 39 bd 8e 65 23 3d f0 98 ef 3c
       0.060185276 -0.045217946 0.039891772 0.029247731
000060 70 20 c3 bc 6c 83 1d bd 22 5c 19 bd 00 d0 50 bb
       -0.023819178 -0.03845541 -0.03744138 -0.003186226
000070 62 23 04 3d 94 78 f4 3c 36 93 3a 3d 6c aa b1 3c
       0.032260306 0.029842652 0.045550548 0.021687709
000080 dc 86 b3 3c 00 3b 05 bc f0 22 52 3d 70 f7 e9 bb
       0.021914892 -0.0081317425 0.05130285 -0.0071400926
000090 b6 b3 48 bd 00 94 c6 ba d6 e3 29 3d fa bc 4c bd
       -0.04899951 -0.0015150309 0.041477047 -0.04998491
0000a0 aa 6c 35 bd 14 37 0a 3d 8c ad 79 bd 66 b9 08 3d
       -0.044293083 0.033743933 -0.060956523 0.033379935
0000b0 32 49 7b bd 58 34 75 bc 68 73 9a 3c 36 9f 6d bd
       -0.0613491 -0.014966093 0.018853858 -0.058013164
0000c0 12 22 30 3d d4 ed 76 3d 7e de 69 3d f0 0c 6a 3c
       0.043001242 0.060285404 0.05709695 0.014285311
0000d0 2a 3a 45 3d 40 63 0f bb 8e af 07 bd 80 e9 ef ba
       0.048151173 -0.0021879226 -0.033126406 -0.0018303841
0000e0 cc 98 ad bc 94 8f 31 3d 1a 2a 68 3d 00 6b 85 bb
       -0.021191023 0.043349817 0.056680776 -0.0040715933
0000f0 9c 48 71 3d 00 22 d4 b9 4c ae a9 bc b0 3e fb bc
       0.058907136 -0.00040461123 -0.020712994 -0.03066954
000100 6c 69 25 bd 1a a8 03 3d b0 70 d1 3b 8a 94 11 bd
       -0.04038374 0.032142736 0.006391607 -0.03554205
000110 b0 1e f8 3c e0 d6 c3 3b 18 c4 fa bc 06 75 5e 3d
       0.03028807 0.005976543 -0.030611083 0.05431082
000120 38 56 74 bc 50 b4 57 3d e2 56 75 3d 34 c2 2d bd
       -0.014913134 0.052662194 0.05989731 -0.042421535
000130 fc 97 05 bd 30 c9 8c bb 4c 70 b4 3c 8e d8 3f bd
       -0.032615647 -0.0042964444 0.022026204 -0.046837382
000140 42 4a 1f bd 28 de 11 bd 98 5c ea 3c 0c 4e 78 bd
       -0.038889177 -0.035612255 0.028608605 -0.060621306
000150 ea 2d 26 bd 50 0b 6b 3d 24 33 d0 bc 26 af 3f bd
       -0.04057113 0.057383835 -0.02541501 -0.046797894
000160 50 ed 09 bc 00 e8 f0 39 a8 6a 5a 3c b8 1f 60 3d
       -0.008418396 0.0004594922 0.013331093 0.05471775
000170 40 39 a9 bc 52 60 56 3d e0 be ac 3c 00 3c b6 39
       -0.020657182 0.052337952 0.02108711 0.0003475845
000180 60 59 19 bc 5e dc 5d bd 64 9b a2 bc 84 b9 c1 3c
       -0.009359688 -0.054165237 -0.019849487 0.023648031
000190 80 06 c9 bb 72 c4 0a 3d bc 0e 0e bd 40 e5 58 bb
       -0.006134808 0.03387875 -0.03468202 -0.0033095628
0001a0 4c 0f 6b bd b0 c4 af bc a0 21 cd bc 70 bd 27 bc
       -0.057387635 -0.021456093 -0.025040448 -0.0102380365
0001b0 34 60 d5 3c 6e 00 03 3d 00 b8 c1 3b ac b1 ff 3c
       0.02604685 0.03198283 0.005911827 0.03121265
0001c0 1a b4 08 bd ca ea 28 3d 1a 75 7e 3d 9c 8d a4 bc
       -0.033374883 0.041239537 0.062123396 -0.020087056
0001d0 dc 27 77 bd e0 17 05 3d 74 00 f3 3c 96 64 14 3d
       -0.060340747 0.032493472 0.029663302 0.03622874
0001e0 e4 44 0a 3d 60 88 db bb c4 6e 30 3d 42 6d 28 bd
       0.033757105 -0.006699607 0.043074384 -0.04111982
0001f0 5a 56 16 3d b4 21 7f bd 58 ff 70 3d 98 8f 1c bd
       0.036703445 -0.062288 0.058837265 -0.03822288
000200 28 85 4f 3d 2c 9d 93 3c ea a7 0f bd 58 39 30 3d
       0.050664097 0.018019281 -0.035072245 0.043023437
000210 be b2 10 3d c0 13 7b 3b e0 7c 26 bc 50 69 94 3c
       0.03532671 0.0038311332 -0.010161608 0.018116623
000220 ba db 47 3d 44 26 3b 3d 78 e8 b9 3c d4 d0 e2 bc
       0.048793532 0.04569079 0.022693858 -0.027687468
000230 b4 34 77 bd e8 76 4c bc 54 cb 8d bc 08 a6 4b bd
       -0.060352996 -0.012479521 -0.017308868 -0.049718887
000240 60 98 82 bb 7c 42 50 3d 98 48 4e 3d 7a a1 43 bd
       -0.0039854497 0.050844654 0.0503622 -0.047761418
000250 c4 7c fa bc 3a 6e 39 bd 84 ad 0b bd 90 f4 e5 3c
       -0.030577071 -0.045271136 -0.034101024 0.028070718
000260 62 1e 51 bd 58 ff 04 bd f0 dc 08 3d ee 4e 10 bd
       -0.051054366 -0.032470077 0.033413827 -0.035231523
000270 b8 55 52 bd 3a 56 48 bd 3c fa b8 3c 7c 23 00 3d
       -0.05135128 -0.048910357 0.022580259 0.03128384
000280 64 0f 92 3c 1e 6e 5a 3d 50 9c 6f bc cc cf 54 bd
       0.017829604 0.053327672 -0.01462467 -0.051955983
000290 28 1a 9b 3c e8 8e 81 bc 22 41 03 bd e0 74 0e 3c
       0.01893337 -0.015815213 -0.032044537 0.008694857
0002a0 00 dc 8d 3c 14 d3 ec bc d4 56 fa 3c 6c dd bc 3c
       0.017316818 -0.028909244 0.030558981 0.0230548
0002b0 34 06 bc 3c e6 4a 04 bd e2 96 39 3d 88 77 02 3d
       0.022952177 -0.03229799 0.04530991 0.031852275
0002c0 64 db b5 bc e8 8c 49 3d 00 04 bf bc 04 da 42 bd
       -0.02219934 0.049206644 -0.023317337 -0.047571197
0002d0 8e f0 79 3d 50 61 10 3c 70 81 73 bc b4 7a 92 bc
       0.061020426 0.008812264 -0.014862403 -0.017880775
0002e0 18 7e 63 3d 7c ce a4 3c 98 97 07 3d 28 1e 3e 3c
       0.055540174 0.02011799 0.033103555 0.0116038695
0002f0 a0 d2 98 bb a4 1a 03 3d 70 11 61 bd 9c f4 78 bd
       -0.0046637803 0.03200783 -0.05494827 -0.060780153
000300 1c 19 dd 3c cc b1 50 bd 30 b9 2f 3c 60 70 76 3d
       0.026989512 -0.05095081 0.0107253045 0.060165763
000310 f0 8a 42 3c b2 4a 1e bd 2a ad 0f bd ec 3e 94 bc
       0.011873946 -0.038645454 -0.03507725 -0.01809641
000320 98 55 78 bc 5c 96 94 3c d8 96 97 3c 20 53 22 3b
       -0.015157126 0.018138103 0.018504545 0.0024768785
000330 70 cd 56 bd 00 ff d9 bc 9c ba 3d 3d 00 f3 7b 3b
       -0.052442014 -0.026610851 0.046320543 0.00384444
000340 0c db fc bc 14 4d dd 3c a0 c7 1d bc 24 a4 ae 3c
       -0.030866168 0.027014293 -0.009630114 0.021318503
000350 ba ce 09 bd ba 4b 0d bd a8 5b 29 bc 58 03 0c 3c
       -0.033644415 -0.034496047 -0.010336794 0.008545719
000360 80 9a e4 3a d4 96 c6 bc e2 b7 6f bd 40 7b 9a 3b
       0.0017441064 -0.024241842 -0.058524974 0.0047143996
000370 ea 11 68 bd 00 0b 64 ba 98 30 80 3c ea fe 30 3d
       -0.05665771 -0.0008699149 0.015648171 0.043211855
000380 f0 e3 22 bc 00 2c ff 39 00 d5 71 ba a6 ea 73 3d
       -0.00994204 0.00048670173 -0.000922516 0.05954995
000390 60 d3 85 bc c0 bd c8 3a b4 1b 3a bd 88 bd 8f 3c
       -0.016336143 0.0015315339 -0.045436576 0.01754643
0003a0 a0 ca 53 bb 68 ab 98 3c 70 39 0c 3d 08 2e 34 3c
       -0.0032316819 0.01863642 0.034234464 0.010997303
0003b0 e4 3e 04 bd 3e 8d 40 bd 7c 04 ab bc 9a 2d 20 bd
       -0.03228654 -0.0470097 -0.020876162 -0.03910599
0003c0 84 21 7c 3d 7c 16 2f 3d cc 9c b0 bc 90 12 c4 3c
       0.0615554 0.042746052 -0.021559142 0.023934633
0003d0 e4 cd c6 3c 60 f8 a9 3b d0 50 50 3d 60 98 3d 3b
       0.024268098 0.0051870793 0.05085832 0.0028929934
0003e0 6a f8 40 3d ac 09 ec bc 08 c0 99 3c 30 cc 30 3c
       0.047111906 -0.028813206 0.018768325 0.01079087
0003f0 ca 3c 6d 3d 1a af 54 3d 9a 5c 30 3d 40 e8 17 bb
       0.0579193 0.051924802 0.04305706 -0.0023179203

fc_var.bias f4 [2]
000000 18 36 a5 3c 00 3f 20 bb
       0.020167395 -0.0024451613

decoder.layer0.weight f4 [2, 2]
000000 ef 18 a9 be f1 13 1b bf 1c b1 04 3f f6 0f de 3e
       -0.33026835 -0.60577303 0.5183275 0.43371552

decoder.layer0.bias f4 [2]
000000 bb 2b 32 3f b7 b4 e4 3e
       0.6959798 0.44669124

decoder.layer2.weight f4 [100, 2]
000000 a9 e1 e2 be 8a e0 b7 3e 3e 54 2b 3d 0e 2e a5 be
       -0.4431279 0.35913497 0.041828386 -0.322617
000010 0f 49 01 3e b5 b4 57 bd d8 b5 1a be c7 51 15 bf
       0.12625526 -0.05266257 -0.1510843 -0.5832791
000020 74 ed 1c bf a3 9f 98 be fd 87 26 bf e1 e2 c0 3e
       -0.61299825 -0.29809293 -0.6505125 0.37673095
000030 f3 33 ca 3e 9a a4 27 3f 8b e5 c6 3e ac 1e 99 be
       0.3949276 0.6548554 0.38847002 -0.29906213
000040 18 de 2b bf 72 9f d4 bd e2 d9 8a be 51 a8 b4 bd
       -0.67135763 -0.10381974 -0.27119356 -0.08821166
000050 32 e4 c4 be b1 c7 a6 be ba ce d1 3e 09 41 bf be
       -0.3845535 -0.32574227 0.40978032 -0.37354305
000060 63 ee 34 3f 44 2b ca 3b 93 dc 20 3e ca 53 9c be
       0.7067625 0.0061697084 0.15709142 -0.30532676
000070 74 8e 1a 3f 0c 42 87 be 1e aa ed 3c 28 87 b5 be
       0.60373616 -0.26417577 0.029011782 -0.3545468
000080 0f fc 03 3f 2e 89 e5 be 70 19 49 3d b6 df 21 bf
       0.51556486 -0.44831222 0.049096525 -0.6323198
000090 74 d5 27 bf 1c bd fc 3e 96 30 0a 3f c0 5f 0c bf
       -0.6556008 0.4936303 0.53980386 -0.548336
0000a0 d6 66 e0 be 6e 2a 7c be 2c 13 50 3e dc 8b e2 be
       -0.43828458 -0.2462556 0.20319813 -0.4424733
0000b0 76 d2 1d 3f f9 bb a1 3d 39 2a 27 bf df ec e9 bc
       0.6164926 0.07897181 -0.652988 -0.028555332
0000c0 98 73 b4 be 2a 22 25 bf 09 9f 99 be ae 0c f9 be
       -0.3524444 -0.64505255 -0.30004147 -0.48642486
0000d0 54 ca a5 3e 8d 00 07 3d 85 7c 2c be 4d 9b ef bd
       0.32380927 0.03295951 -0.16844375 -0.11699543
0000e0 4d 34 2f 3f 03 e7 db 3e d8 66 b0 3e 2d 63 18 3f
       0.6843918 0.42949685 0.34453464 0.5952633
0000f0 48 fc 42 be 0f e9 14 3f 27 8a d0 3e b8 62 10 bf
       -0.1904155 0.5816812 0.40730402 -0.5640063
000100 c4 4c 22 3f da c5 90 be ec 57 02 3f 30 a4 16 be
       0.63398385 -0.2827595 0.5091541 -0.1471107
000110 9f ea b0 3e 9b 7e 8d 3e 6e 3f 50 bd a1 fd f4 3d
       0.34554002 0.27635655 -0.05084174 0.119624384
000120 f2 f6 af 3c e0 29 35 3e 01 2f eb bd 35 3d 1e 3f
       0.021480057 0.17691755 -0.11483575 0.61812145
000130 34 56 95 be ed e0 f0 3e 69 7e e0 bd e3 34 5d be
       -0.2916733 0.47046605 -0.10961611 -0.21602206
000140 d2 19 87 be ea 84 b3 3e 15 bc aa 3d 13 b5 f2 3d
       -0.26386887 0.35062343 0.08336655 0.118509434
000150 6f a7 8e 3e 9b 54 03 3e 25 ce f6 3e 74 be fd 3e
       0.27862117 0.12825243 0.4820415 0.49559367
000160 f3 de f4 3e da 82 c3 be 6d 19 ef 3e 2a 08 33 3f
       0.47826347 -0.3818577 0.46699086 0.6993433
000170 d5 5d 16 bf a5 fe 42 3e a0 fe db 3e 4c 63 71 bd
       -0.58736926 0.19042452 0.429677 -0.058932588
000180 10 9d 27 3f 2e ad de 3c a6 1a ff be 28 45 fe bd
       0.65474033 0.027182188 -0.4982502 -0.12415534
000190 3c 19 6c 3e c7 27 18 bf 42 4a 3b 3d 8c 41 23 3d
       0.23056501 -0.59435695 0.045725115 0.039857432
0001a0 5a 36 2a 3e c4 09 98 3e f9 87 6a 3e da c7 c5 3c
       0.16622296 0.2969495 0.22903432 0.024143148
0001b0 16 dc 1c 3f f7 63 81 be 12 c5 96 bd 9a 04 9b 3e
       0.61273324 -0.2527158 -0.07361807 0.30276948
0001c0 06 9d 86 be 9b af 5f be 57 89 e4 3e 17 e1 ff 3e
       -0.26291674 -0.21844332 0.44636032 0.49976417
0001d0 cb f7 fd be e4 be ed 3e 3e d7 ed 3d df a6 c7 be
       -0.49603114 0.464347 0.1161332 -0.389945
0001e0 5c d1 5d be 21 da 7f 3e bb 17 a0 3c 11 a2 ab be
       -0.21661896 0.24985553 0.019542566 -0.33522084
0001f0 26 a0 59 3e 68 c4 83 3e 8c a2 2a 3f 7f ad ce be
       0.21252498 0.25735784 0.66654277 -0.40366742
000200 d7 e5 83 be 20 39 30 3e e3 f1 50 3e 09 a4 16 be
       -0.2576129 0.17209291 0.20404772 -0.14711012
000210 73 99 13 bf 22 c9 30 bd d9 ed 31 3f 35 2a f4 be
       -0.5765602 -0.043160565 0.6950355 -0.4768845
000220 46 7c 93 be 33 4d 04 3f 4d b7 38 be 4e af bc 3e
       -0.2880575 0.51680297 -0.18038674 0.36852497
000230 14 8c 9b 3e e2 fa 97 3e 3e c2 ad be c7 fe 34 bf
       0.3038031 0.29683596 -0.33937258 -0.7070126
000240 61 22 be be 79 c3 15 3f eb 99 24 bf 8a 95 a9 3e
       -0.37135604 0.5850139 -0.6429736 0.33121902
000250 6d 24 55 be 80 23 19 bd 2c c8 f5 bd 7a 70 15 3f
       -0.20814677 -0.03738737 -0.120010704 0.5837475
000260 e4 b4 30 3d ae 0f c1 be be 51 e4 3e 8e d1 b1 3e
       0.04314126 -0.37707275 0.44593614 0.3473019
000270 ff 74 43 be 36 98 9f 3e ed 69 36 3e 3c e1 07 bd
       -0.19087599 0.31170815 0.17813845 -0.033173785
000280 0c 4b 0b bf f6 e5 fd be a5 d5 91 bd 1e b3 57 bd
       -0.5441139 -0.4958951 -0.071208276 -0.052661054
000290 68 22 16 bf 05 76 24 3d 51 a1 d9 be fe 29 27 bf
       -0.5864625 0.040151615 -0.42505887 -0.6529845
0002a0 61 c8 11 3f a1 52 d9 3e 61 3e a4 bd dc 2c 9b 3e
       0.5694638 0.42445853 -0.0801971 0.30307662
0002b0 88 81 02 3f 81 5b c8 be 8a 9d 01 3e 72 78 20 bf
       0.509789 -0.39132312 0.12657753 -0.62683785
0002c0 82 de d2 be 17 25 f2 3d ca 7c f5 3e 36 00 23 3f
       -0.41185385 0.118234806 0.4794677 0.63672197
0002d0 eb 8a 19 3f ec ac 0d 3b 0c 6b 2b 3e e9 20 e2 3e
       0.59977597 0.0021617962 0.16740054 0.44165733
0002e0 18 8f c1 be 81 0a 1d bf 65 0f d4 be 92 ff a1 3e
       -0.37804484 -0.6134415 -0.41417995 0.31640297
0002f0 3b 51 39 3e 46 b9 9e 3d 35 97 01 3f 3e 96 a3 be
       0.18097393 0.07750182 0.5062135 -0.31950563
000300 5a 99 00 bf 05 2b b8 be 40 07 45 3d 6c 7c b4 3e
       -0.50233996 -0.3597032 0.048102617 0.35251176
000310 73 59 25 3f ea 6c d3 be fd 96 20 bf b7 5d 4e be
       0.64589614 -0.41294032 -0.6273039 -0.20152937

decoder.layer2.bias f4 [100]
000000 c2 f0 0d 3f da 8c 1f bf c0 19 d3 be 92 31 3c be
       0.5544549 -0.623243 -0.41230583 -0.18378285
000010 23 44 15 bf 03 9b f4 3e 1b b5 94 3e 1c f1 05 3f
       -0.58307093 0.47774515 0.29044423 0.5232103
000020 6f f9 78 3e 6d 3f 06 bf 3a b1 d7 be f4 ee e4 bd
       0.24313901 -0.5244053 -0.421274 -0.11178389
000030 45 25 33 bf be f3 76 be 4f 92 c1 bd cd ff 90 3e
       -0.69978744 -0.24116418 -0.09451734 0.2832016
000040 df 3a 38 3e ea b4 de bd 66 22 84 3c 3a aa f6 3e
       0.17991208 -0.1087435 0.016129684 0.48176748
000050 9c 04 30 bf bd 40 10 be 7d 67 90 be 90 b6 cd 3e
       -0.68757033 -0.14087196 -0.28203955 0.40178347
000060 6e 69 09 bf 69 db 00 bf 72 93 e3 3e b6 ed 04 3e
       -0.536765 -0.50334793 0.4444843 0.12981305
000070 c3 05 08 3e 8c 70 13 bf 7d 46 d7 bd ce c5 08 bc
       0.13283448 -0.5759361 -0.105114914 -0.008347942
000080 5b de ed 3e f4 1d e7 3e c9 4c 05 bf 54 15 c7 3e
       0.46458706 0.4514004 -0.5207029 0.3888346
000090 34 09 76 be 3c fe d3 3e 8b 1c 21 3e 0e 97 26 bf
       -0.24026948 0.41404903 0.15733545 -0.6507424
0000a0 04 39 e0 be 49 8f 01 bf 17 95 0f 3d 5e a8 85 bc
       -0.437935 -0.5060926 0.035054293 -0.016315635
0000b0 0b 8f 87 3e af 60 3c bc af 12 df be fe 90 7e be
       0.2647632 -0.011497661 -0.43568942 -0.24859998
0000c0 f5 48 dc be b1 1d 88 3c 9d 3d 16 bf 7d c0 1e bf
       -0.43024412 0.01661572 -0.58687764 -0.62012464
0000d0 0a 86 74 bd 09 e7 11 bf 85 25 fd 3e 0c 40 48 3e
       -0.059698142 -0.56993157 0.49442688 0.19555682
0000e0 04 a6 78 3d ab 95 03 3f 1d 20 90 3e 9f de 8c be
       0.0607052 0.5140025 0.281495 -0.27513596
0000f0 0f 59 8e 3e 53 1e 06 3f 61 89 fc be a0 26 a6 be
       0.2780232 0.5239002 -0.49323562 -0.32451344
000100 5f 07 0f bf ad 41 bf be c7 18 7b bd 34 ec 26 bf
       -0.5587062 -0.37354794 -0.061302926 -0.6520417
000110 40 9e 22 3f 85 bd 23 bf f2 f3 fe bd f9 4b 1f 3e
       0.6352272 -0.6396106 -0.124488726 0.15556325
000120 de bb a0 bd b2 da f0 3d 57 03 ac 3e 0d ca 0e 3f
       -0.07848333 0.11760463 0.33596298 0.55777055
000130 a7 9e 14 be 6a 5d b1 be ca 23 1e 3f 97 d8 b4 be
       -0.14513646 -0.34641582 0.6177336 -0.35321495
000140 47 f0 19 3f 5f e4 2d be 18 87 2a be e2 46 a9 3e
       0.6013226 -0.16981648 -0.16653097 0.33061892
000150 d6 de c4 3e 28 00 95 be c4 d8 7e be ce 1e df be
       0.3845126 -0.29101682 -0.24887377 -0.4357819
000160 39 d9 ea 3c 67 e3 df be 84 8e 37 bd 6f 38 57 3d
       0.028668033 -0.43728182 -0.044813648 0.052544054
000170 a0 35 24 3f ea 72 23 bf bb bb 5c 3e 38 b2 66 3e
       0.64144325 -0.6384722 0.21555988 0.22528923
000180 ac c5 00 be 55 cc bf 3e 2c c1 1c bf 4a 30 7b be
       -0.12575406 0.3746058 -0.61232257 -0.2453014
