nero/collections/planning/models/outputs/2020-11-10/17-31-08/checkpoints/epoch=0.ckpt (torch, 155812 bytes, 12 tensors)

encoder.layer0.weight f4 [100, 100]
-0.06360104 -0.08525103 0.048554815 0.07279729 0.085093796 -0.08475033 0.088716246 0.037828445
0.010421944 0.014426971 0.058719218 -0.099047124 -0.02147131 0.027762521 -0.040953495 0.018001128
-0.03700762 -0.04302993 -0.08945235 0.06544995 0.05058366 0.048173286 0.070291355 0.009641945
0.036442947 0.07436998 0.07045716 -0.0051745656 0.031874444 0.020724237 -0.08230966 -0.009206963
0.08803477 -0.0144569995 0.0003266454 0.042996656 -0.0154448515 -0.01593933 -0.07410318 0.09352594
0.035179973 0.0895587 0.08377492 0.03708886 -0.05996703 0.036356628 -0.032703437 -0.08352157
0.0339445 -0.018630838 -0.0024816038 -0.07832102 -0.010128391 0.0017112494 0.043010067 0.048717786
0.05586989 0.09869659 -0.09393229 -0.06537167 0.01960566 -0.09084757 -0.05656227 -0.09633241
-0.033908572 0.05137031 -0.047574688 -0.04519855 -0.04007882 0.007911515 0.09788686 0.046775114
0.055796493 0.040200364 -0.08967566 0.065067254 -0.060800385 0.096515946 0.05217824 0.092143096
-0.072878614 -0.089188695 -0.014672721 -0.0020102502 -0.06581745 0.031153893 -0.0012780309 -0.025065362
0.090667866 0.0003811121 0.07311535 -0.030683244 -0.07632885 -0.07283361 0.06686365 -0.07794831
-0.0037945271 -0.088171676 0.08763615 -0.015768576 0.0718232 -0.002079606 0.017633403 -0.04267739
-0.08114415 -0.014244867 0.094129816 0.01798377 -0.017625047 0.05895952 -0.010909987 0.016081726
-0.034843862 0.03630766 -0.09036602 -0.06879983 0.0114196185 -0.09079986 -0.0906686 0.055502653
-0.08489444 0.07841899 -0.0794971 -0.0100992685 -0.012272477 0.073076524 -0.030149246 0.08268781
0.07362709 -0.06030334 -0.096501246 -0.09797173 -0.000728333 0.062737145 0.08840606 0.025292993
0.04812603 -0.057892155 0.009540833 -0.060814917 -0.043109704 0.049174525 0.08851083 -0.07381412
-0.058510628 0.08118965 0.029560877 -0.015912235 0.09947206 -0.035827674 0.053736735 0.012738324
-0.018557286 0.009188629 0.079641834 -0.072309434 -0.022770142 -0.09703838 -0.09691798 -0.06262028
0.09967943 -0.0119012715 -0.023693502 0.060952127 0.0028422715 -0.05954963 0.052620303 0.090336025
-0.09924149 -0.09944488 -0.02348417 -0.04391071 -0.015699899 -0.06994086 -0.022744894 -0.0055433395
0.09993016 -0.011697412 -0.013893748 0.031031048 0.015315736 -0.06463885 -0.036931276 0.060060073
0.036459245 0.09784597 -0.004310584 -0.0707274 0.06300093 -0.025952745 -0.032302953 0.07522488
-0.09875573 0.018159116 -0.07532407 0.0947358 0.097681485 -0.0998224 0.015232933 -0.085110545
-0.009635425 0.03483807 0.05068587 -0.08918931 -0.07324197 0.005119109 0.08958433 -0.061960485
0.0066141486 0.028466487 0.08916032 -0.029004205 0.08298861 -0.04595349 -0.045148578 -0.09684179
-0.03356223 0.012473202 0.049524225 -0.010309303 0.0031619312 0.004024017 -0.027580177 -0.009103012
-0.07534212 0.011008525 0.023959948 -0.04563388 -0.018376505 -0.065242544 0.07996283 0.08668101
0.05554639 0.057981264 -0.06029972 0.0116477255 -0.048916627 0.009828842 0.020123566 -0.07599663
-0.056998886 -0.05732596 0.008766365 0.043669045 0.026611805 0.07249021 -0.031935215 -0.08254619
0.09663351 -0.016212344 0.062287487 0.043852832 0.07306998 -0.008618915 0.033884764 0.035405517
00000000: 4341 82bd 1898 aebd 6ae1 463d bf16 953d
00000010: a845 ae3d 9591 adbd ddb0 b53d 00f2 1a3d
00000020: cdc0 2a3c 1a5f 6c3c 9083 703d 38d9 cabd
00000030: 9ae4 afbc 3a6e e33c dabe 27bd 1a77 933c
00000040: 4d95 17bd 2740 30bd cb32 b7bd a00a 863d
00000050: d030 4f3d 5a51 453d eaf4 8f3d 40f9 1d3c
00000060: 3345 153d 4a4f 983d d84b 903d 678f a9bb
00000070: c78e 023d e0c5 a93c f891 a8bd cdd8 16bc
00000080: 934b b43d 0ddd 6cbc 9a41 ab39 431d 303d
00000090: 670c 7dbc 3393 82bc 68c3 97bd 878a bf3d
000000a0: e018 103d 8d6a b73d 2f92 ab3d 7dea 173d
000000b0: fd9f 75bd b0ea 143d 0af4 05bd 5b0d abbd
000000c0: 6309 0b3d b39f 98bc 67a2 22bb c566 a0bd
000000d0: 8df1 25bc 004c e03a 532b 303d 4d8c 473d
000000e0: d3d7 643d 7021 ca3d 935f c0bd 95e1 85bd
000000f0: 0d9c a03c 4a0e babd d7ad 67bd ed49 c5bd
00000100: b7e3 0abd ad69 523d addd 42bd 1d22 39bd
00000110: b029 24bd 4d9f 013c e878 c83d 4397 3f3d
00000120: dd8a 643d 23a9 243d dfa7 b7bd fb41 853d
00000130: d309 79bd 27aa c53d dab8 553d 85b5 bc3d
00000140: 6241 95bd 90a8 b6bd da65 70bc 67be 03bb
00000150: 4dcb 86bd 7336 ff3c 9a83 a7ba e055 cdbc
00000160: 13b0 b93d 00d0 c739 80bd 953d 6d5b fbbc
00000170: 4d52 9cbd ca29 95bd cfef 883d 5da3 9fbd
00000180: 9aad 78bb 5a93 b4bd 957a b33d 1a2d 81bc
00000190: 0b18 933d 004a 08bb ed73 903c 7dce 2ebd
000001a0: e72e a6bd 4d63 69bc 22c7 c03d b352 933c
000001b0: 6762 90bc 8a7f 713d cdbf 32bc d3bd 833c
000001c0: 70b8 0ebd 57b7 143d d211 b9bd ede6 8cbd
000001d0: 5a19 3b3c 47f5 b9bd 75b0 b9bd c056 633d
000001e0: 23dd adbd 239a a03d 60cf a2bd 6777 25bc
000001f0: 8012 49bc 25a9 953d 8dfb f6bc 3a58 a93d
00000200: cdc9 963d a300 77bd 72a2 c5bd 67a5 c8bd
00000210: 9aed 3eba 557c 803d 3d0e b53d 4033 cf3c
00000220: cd1f 453d 5320 6dbd 2751 1c3c 1019 79bd
00000230: cd93 30bd 3a6b 493d 2b45 b53d db2b 97bd
00000240: d7a8 6fbd c246 a63d a729 f23c 605a 82bc
00000250: 02b8 cb3d 0ac0 12bd 0d1b 5c3d 67b4 503c
00000260: 7305 98bc e78b 163c 421b a33d f816 94bd
00000270: 7388 babc 0fbc c6bd ef7c c6bd 103f 80bd
00000280: bb24 cc3d 8dfd 42bc e018 c2bc f0a8 793d
00000290: 6745 3a3b 50ea 73bd 6388 573d 1802 b93d
000002a0: 1f3f cbbd c2a9 cbbd e061 c0bc b7db 33bd
000002b0: 139d 80bc 273d 8fbd 8053 babc e7a4 b5bb
000002c0: 2fa8 cc3d 80a6 3fbc 9aa2 63bc d334 fe3c
000002d0: daee 7a3c 6061 84bd 4045 17bd 8d01 763d
000002e0: 4a56 153d 7863 c83d cd3f 8dbb 87d9 90bd
000002f0: a206 813d da9a d4bc 1a50 04bd 800f 9a3d
00000300: 7240 cabd 6dc2 943c 8243 9abd d804 c23d
00000310: 3b0d c83d b06f ccbd 8d93 793c 704e aebd
00000320: e7dd 1dbc 5db2 0e3d fd9b 4f3d e3a8 b6bd
00000330: e3ff 95bd 33be a73b fd77 b73d 47ca 7dbd
00000340: 80bb d83b 8d32 e93c b099 b63d 3a9a edbc
00000350: eff5 a93d ba39 3cbd b7ed 38bd fd54 c6bd
00000360: 8d78 09bd 675c 4c3c ead9 4a3d 5ae8 28bc
00000370: 6738 4f3b e7db 833b d3ef e1bc cd24 15bc
00000380: f84c 9abd 1a5d 343c a747 c43c 97ea 3abd
00000390: 538a 96bc e29d 85bd 8dc3 a33d d085 b13d
000003a0: 9d84 633d c37d 6d3d d7fc 76bd 1ad6 3e3c
000003b0: cd5c 48bd 2709 213c 2dda a43c 1fa4 9bbd
000003c0: aa77 69bd a0ce 6abd cda0 0f3c 50de 323d
000003d0: 0001 da3c bf75 943d 80ce 02bd fa0d a9bd
000003e0: cae7 c53d c0cf 84bc 2a21 7f3d 079f 333d
000003f0: b7a5 953d 5a36 0dbc c0ca 0a3d 6005 113d

encoder.layer0.bias f4 [100]
-0.00097441673 -0.077842295 -0.065792315 -0.0778921 -0.08964278 0.050237264 -0.07889493 0.028974498
0.033236172 -0.033215642 0.07390859 0.041754354 0.032543194 -0.09897079 -0.039595235 0.025249302
-0.024083544 0.045790087 -0.03900497 -0.055403974 0.03743414 0.013970506 0.0646184 0.0154276015
-0.08306589 -0.0033418895 -0.025237704 -0.029781794 -0.02123704 0.032839037 -0.015989317 -0.07410508
-0.026168585 -0.06959251 0.09645515 -0.028261995 -0.07115754 0.048390925 -0.0976321 0.015312338
0.052310254 0.04150058 -0.021036673 -0.06450351 -0.055485178 0.07351475 0.08206101 -0.09487218
-0.06265974 0.009971106 0.0996555 -0.035782434 -0.053396236 -0.020054473 0.06987132 0.034665894
-0.059681322 -0.086557865 0.076713584 0.033800732 0.03799821 -0.08685886 0.018719697 -0.0373397
-0.04856788 -0.06699691 -0.06174593 -0.053323984 -0.004733992 -0.06751156 -0.089968465 0.09958321
0.08492904 0.059480824 0.014301801 -0.08822117 -0.054050602 0.025576198 0.018853331 -0.07804543
0.052984037 0.04617226 -0.08338734 -0.076364815 0.07352332 -0.08903159 0.075067915 0.021998597
-0.02418611 0.090853415 0.091377474 0.04293276 0.01040976 0.08420034 0.005710125 0.016589403
0.021610988 -0.087424256 -0.03634138 0.075716846
00000000: 0070 7fba c86b 9fbd 1fbe 86bd e585 9fbd
00000010: a296 b7bd 97c5 4d3d aa93 a1bd ed5b ed3c
00000020: a722 083d 200d 08bd 635d 973d 9d06 2b3d
00000030: 034c 053d 33b1 cabd 9d2e 22bd a0d7 ce3c
00000040: da4a c5bc 638e 3b3d adc3 1fbd 47ef 62bd
00000050: 8a54 193d 8de4 643c a756 843d 0dc4 7c3c
00000060: 731e aabd 9a03 5bbb 4dbf cebc f3f8 f3bc
00000070: 4df9 adbc 3a82 063d 07fc 82bc 67c4 97bd
00000080: 805f d6bc 8586 8ebd 478a c53d b385 e7bc
00000090: 0bbb 91bd 9035 463d 57f3 c7bd 9ae0 7a3c
000000a0: 4743 563d 83fc 293d 1a55 acbc 6b1a 84bd
000000b0: 6d44 63bd e78e 963d 9a0f a83d 584c c2bd
000000c0: c053 80bd da5d 233c 2f18 cc3d 9a90 12bd
000000d0: 03b6 5abd 4749 a4bc b218 8f3d d3fd 0d3d
000000e0: 6774 74bd 4045 b1bd 031c 9d3d a372 0a3d
000000f0: 03a4 1b3d 0fe3 b1bd 0d5a 993c 83f1 18bd
00000100: 1def 46bd ad35 89bd 4de9 7cbd 406a 5abd
00000110: 9a1f 9bbb 8043 8abd 6341 b8bd 48f2 cb3d
00000120: 47ef ad3d 2aa2 733d 1a52 6a3c 4dad b4bd
00000130: 2a64 5dbd 2d85 d13c 4d72 9a3c 48d6 9fbd
00000140: ca05 593d 201f 3d3d fbc6 aabd 2865 9cbd
00000150: 6593 963d 3256 b6bd 35bd 993d 6736 b43c
00000160: f321 c6bc 5b11 ba3d 1d24 bb3d 43da 2f3d
00000170: b38d 2a3c 3a71 ac3d 001c bb3b 80e6 873c
00000180: 8709 b13c 7d0b b3bd b3da 14bd 6f11 9b3d

encoder.layer2.weight f4 [256, 100]
-0.015194225 0.020633483 0.098932885 0.034520056 0.008531177 -0.037010588 -0.035556924 0.02163732
-0.07108622 0.013464999 0.079894304 0.03580903 0.08655798 0.07104385 0.01054529 0.05146581
-0.013065851 0.07284249 -0.029892886 0.075080685 0.0017235995 -0.012362897 -0.07730754 0.0852949
0.046310354 -0.08951678 0.003399408 0.0608356 0.09069415 -0.002672577 0.031445015 -0.096459925
-0.08385726 -0.0798501 0.08311734 0.007961214 0.025729716 0.04787432 -0.07468306 -0.05040883
-0.07168603 -0.08363328 0.07409801 0.07974068 0.067418195 0.092843615 0.0068460824 0.07852697
0.06964683 0.06700214 0.019278837 -0.07263098 0.018416667 0.046647575 -0.04837824 -0.052240204
-0.059758354 -0.074112676 -0.08919122 -0.05604429 -0.049537648 0.018921733 -0.07839172 0.04102354
0.08353525 -0.034115493 0.054849934 0.07015079 -0.033090483 0.030611886 -0.025577903 -0.0011559725
-0.0027687312 -0.011113226 -0.067248635 -0.013213277 -0.014873874 -0.07249341 -0.050821222 0.08532196
0.08940797 0.058773305 0.064542346 -0.056930937 0.031742524 0.052580655 0.055717826 0.09844368
0.04297755 -0.0613922 -0.0037824034 0.010206545 -0.063820675 0.06874987 -0.041595507 -0.03239156
0.039311647 0.098804116 -0.040977728 -0.0599834 -0.0077760816 0.07163735 0.09698941 0.076210044
-0.066262685 -0.040812172 -0.031276453 0.022298122 -0.04128195 -0.072893456 -0.07422111 -0.022192478
0.026702536 0.05659112 0.058763243 0.023574853 0.090603344 -0.027200127 -0.05041175 -0.085647725
-0.07871572 -0.09889364 -0.0666327 0.06717806 -0.054187905 -0.08805932 -0.05884807 0.04337379
-0.04092809 0.016299916 0.059227884 -0.02150625 -0.009233034 -0.070642166 0.009848583 0.0236879
0.079208925 -0.0037143112 0.023952438 -0.016727543 -0.07794905 -0.0653737 -0.09164455 -0.04447961
0.019562675 0.044658996 0.08547349 -0.025082065 -0.075215235 0.00085453986 -0.045637418 0.0055012824
-0.017007625 -0.03655528 -0.08489436 0.0182745 0.08648985 0.06554594 -0.071186125 0.008470309
0.06663089 0.0556427 -0.0586342 0.021276249 0.029718816 -0.019736577 0.043260146 0.08204478
0.071806096 0.060929146 0.0152605055 0.005789912 0.04717481 0.019483209 0.0034839988 0.06533225
0.08228089 -0.028694285 0.066292845 0.0053382516 0.05122267 0.034977652 0.03435842 0.092094876
0.008157194 0.028402258 -0.08367019 0.023028493 0.02949369 -0.051113214 0.0229285 -0.05975621
0.031959534 0.09088435 -0.035160113 -0.03313289 0.074292 0.05529647 0.035753906 0.033255756
0.0932465 0.020293498 0.095862284 0.019592464 0.025739908 -0.025113214 -0.057879962 0.079484224
-0.030712938 0.08985128 0.05326227 -0.049447216 -0.04089705 -0.03425583 -0.0720346 0.03807224
-0.02407235 0.096776776 0.012202608 -0.04357337 -0.06405693 0.05138011 -0.05412965 0.04482708
0.0023594976 0.06861671 -0.045134306 0.017977703 -0.07169167 -0.09441099 0.088709414 0.018982185
-0.06901856 -0.0397028 -0.00871886 -0.07551091 0.016181862 -0.01899351 -0.09124434 0.096533574
0.016032815 -0.014568008 -0.098482005 -0.050834693 -0.09655441 0.08584535 -0.06560011 0.064867854
0.042147767 -0.028362144 0.018382479 -0.048060026 -0.0006161094 0.072623886 0.033349287 -0.054923546
00000000: 33f1 78bc 8d07 a93c 539d ca3d e764 0d3d
00000010: 5ac6 0b3c 6a98 17bd 23a4 11bd c040 b13c
00000020: a795 91bd 4d9c 5c3c a09f a33d 7dac 123d
00000030: 4f45 b13d 707f 913d 27c6 2c3c d0cd 523d
00000040: 2712 56bc 722e 953d ede1 f4bc e7c3 993d
00000050: 67ea e13a c08d 4abc 6a53 9ebd 18af ae3d
00000060: edaf 3d3d 9354 b7bd 9ac8 5e3b c02e 793d
00000070: dbbd b93d 6726 2fbb 7dcc 003d c88c c5bd
00000080: 5bbd abbd 7388 a3bd 6d39 aa3d c06f 023c
00000090: 20c7 d23c dd17 443d 6ff3 98bd 7d79 4ebd
000000a0: 20d0 92bd ed47 abbd b3c0 973d 154f a33d
000000b0: 8d12 8a3d cb24 be3d 1a55 e03b c0d2 a03d
000000c0: ffa2 8e3d 6b38 893d a7ee 9d3c 8dbf 94bd
000000d0: 8dde 963c 8711 3f3d 4328 46bd d3f9 55bd
000000e0: 2dc5 74bd 63c8 97bd e3a9 b6bd b38e 65bd
000000f0: fde7 4abd c001 9b3c d78b a0bd 4d08 283d
00000100: 8714 ab3d b0bc 0bbd 53aa 603d 38ab 8f3d
00000110: e389 07bd c7c5 fa3c c088 d1bc 0084 97ba
00000120: 9a73 35bb 4014 36bc a7b9 89bd 807c 58bc
00000130: 8db1 73bc 6d77 94bd ea29 50bd 48bd ae3d
00000140: 871b b73d 47bc 703d c72e 843d 6a30 69bd
00000150: 7304 023d d05e 573d 6038 643d d79c c93d
00000160: 3a09 303d 6376 7bbd 33e2 77bb 5a39 273c
00000170: 6ab4 82bd bbcc 8c3d 0d60 2abd 03ad 04bd
00000180: 4005 213d d059 ca3d 43d8 27bd 27b1 75bd
00000190: 80ce febb 9ab6 923d 62a2 c63d 0314 9c3d
000001a0: bbb4 87bd aa2a 27bd bd1b 00bd 8daa b63c
000001b0: 4317 29bd 2a49 95bd 3d01 98bd 00cd b5bc
000001c0: 47bf da3c 17cc 673d bab1 703d 0d20 c13c
000001d0: 3f8e b93d cdd2 debc 8d7c 4ebd 1368 afbd
000001e0: b535 a1bd c088 cabd ba76 88bd a794 893d
000001f0: 23f4 5dbd 7258 b4bd ad0a 71bd b7a8 313d
00000200: 37a4 27bd 6787 853c f098 723d e02d b0bc
00000210: 2746 17bc d7ac 90bd f35b 213c 200d c23c
00000220: 4a38 a23d cd6b 73bb e737 c43c 3308 89bc
00000230: c0a3 9fbd a5e2 85bd 23b0 bbbd 4030 36bd
00000240: e741 a03c 5aec 363d ba0c af3d e778 cdbc
00000250: 720a 9abd 3303 603a 4dee 3abd 1a44 b43b
00000260: 9353 8bbc fdba 15bd 18dd adbd 67b4 953c
00000270: 9721 b13d f33c 863d 08ca 91bd 0dc7 0a3c
00000280: c775 883d 9ae9 633d 6a2a 70bd 874b ae3c
00000290: e074 f33c 9aae a1bc 8d31 313d 1807 a83d
000002a0: 130f 933d d790 793d 3307 7a3c 4db9 bd3b
000002b0: 603a 413d 409b 9f3c cd53 643b eacc 853d
000002c0: e282 a83d 4710 ebbc 8bc4 873d 80ec ae3b
000002d0: ddce 513d ba44 0f3d 6abb 0c3d 3d9c bc3d
000002e0: c0a5 053c daab e83c 475b abbd 40a6 bc3c
000002f0: c09c f13c 175c 51bd 8dd4 bb3c edc2 74bd
00000300: 00e8 023d 9321 ba3d 0d04 10bd 5ab6 07bd
00000310: 6726 983d 8d7e 623d b072 123d 3037 083d
00000320: 05f8 be3d 8d3e a63c 7253 c43d 6080 a03c
00000330: 80dc d23c 3aba cdbc 8a13 6dbd a0c8 a23d
00000340: b399 fbbc f303 b83d 8a29 5a3d 2a89 4abd
00000350: aa83 27bd d74f 0cbd e086 93bd a3f1 1b3d
00000360: 6033 c5bc e732 c63d 73ed 473c fd79 32bd
00000370: 4830 83bd f373 523d 0db7 5dbd 9a9c 373d
00000380: cda1 1a3b eb86 8c3d c0de 38bd fa45 933c
00000390: 15d3 92bd 8d5a c1bd 48ad b53d 8780 9b3c
000003a0: 9a59 8dbd 679f 22bd 8dd9 0ebc 77a5 9abd
000003b0: d38f 843c 4798 9bbc 50de babd 65b3 c53d
000003c0: 4057 833c a7ae 6ebc efb0 c9bd 0a38 50bd
000003d0: 52be c5bd b0cf af3d 5a59 86bd 70d9 843d
000003e0: 23a3 2c3d ba57 e8bc da96 963c 97da 44bd
000003f0: 6782 21ba d5bb 943d 4399 083d 83f7 60bd

encoder.layer2.bias f4 [256]
-0.0006575465 -0.07970511 -0.026306475 0.09220686 -0.065094195 -0.044464577 -0.006845808 -0.025959898
0.096716955 -0.095646895 0.00144521 -0.025492156 0.06703899 0.04023993 -0.004348719 -0.03355206
0.059340227 -0.08114467 0.09783878 -0.08003205 -0.09741787 -0.056649115 0.05322057 -0.046050873
0.044004798 -0.050142944 0.016729617 -0.06393272 -0.054529455 -0.07453822 -0.0908845 -0.012034142
-0.080928944 0.007816756 0.0031910657 -0.0045856475 0.025105191 0.0762885 0.024521459 -0.08564959
0.06416754 0.021659864 0.082857065 0.07960466 -0.024587834 0.06765028 -0.010396647 -0.033734273
0.0725181 0.08948245 -0.025417292 -0.04107951 -0.025740553 0.08229597 -0.09948597 0.056332946
-0.07165181 0.055280805 0.032709863 0.09546807 0.018151999 0.08067073 0.03143133 0.013386297
-0.03847283 -0.012140036 0.08082118 0.09746108 -0.07274951 0.06981641 -0.046394993 -0.044179525
0.04067049 0.09414297 0.01752833 -0.07692375 0.016905189 0.088677004 0.015541864 0.042295314
0.039325275 -0.059463035 -0.029165685 0.05407984 -0.044903707 0.037879087 -0.0046554445 0.0648334
-0.0136183975 -0.091369465 -0.022213984 0.07501157 -0.0880808 0.06810775 0.06585636 0.0891388
0.06679469 -0.09154566 0.06942812 0.010811341 0.01548394 0.07187547 -0.0013673783 0.028066933
0.063743964 -0.0009336948 -0.074955285 0.015248633 -0.09453843 -0.08679905 -0.006519723 -0.017515302
-0.058345176 0.05977906 0.01322186 0.09711297 -0.07541504 0.017990697 -0.06094351 -0.03195845
-0.04600941 0.033474755 -0.020270456 0.053279888 -0.093099765 -0.024696875 0.08474942 0.08602091
-0.03901739 0.072276704 0.07773943 0.010605717 -0.0655188 -0.02424705 0.048167955 -0.00087758305
-0.028285492 0.09347365 -0.06209469 0.042877328 0.032881822 -0.011320817 -0.052455988 0.065638356
0.059161913 -0.097848594 -0.01084429 -0.020840956 -0.05818031 -0.06940552 0.05329535 0.026282167
-0.02821436 0.07599826 -0.09895785 -0.08654795 0.02895981 0.043668877 -0.014998603 -0.021405602
0.08713116 0.06953328 0.014166391 0.03246354 -0.04983604 -0.06986483 0.083866775 0.018963207
-0.01737833 0.011643553 -0.02407664 -0.082980886 0.017379308 0.023705352 0.03378277 0.022678828
-0.0043453933 0.09584206 0.0072095157 0.01670742 -0.040723216 -0.009948206 0.087435 0.07684988
0.09225253 0.067873314 -0.0828221 -0.0034634948 0.09163376 0.0599731 -0.0696175 -0.07692122
0.08088525 0.010263062 -0.08236082 -0.060478747 0.00086042885 -0.06846589 -0.020586599 -0.026585137
-0.047100138 0.0061733127 0.015179194 -0.047024753 -0.0270504 0.021604134 -0.08055671 -0.09655026
-0.099998035 0.061860837 0.02983657 -0.035149194 -0.08840996 0.048589874 0.07659685 0.0411804
-0.06580152 0.04693364 0.05068914 0.088620506 -0.07323352 -0.013142693 0.03669188 0.08206824
0.09758967 0.06596104 0.060517777 0.096140824 0.007903564 0.09914817 0.061281454 0.07587265
-0.047306847 -0.037103035 -0.07129023 0.03244952 -0.044471014 0.054971445 0.02262224 0.07159584
0.04776745 -0.08470046 -0.025453746 0.026639676 -0.09878524 0.05279552 -0.025271012 0.07315435
0.022474373 0.043204762 0.0043487907 0.019541217 -0.026990175 -0.07235096 0.08798983 0.020829607
00000000: 335f 2cba 6f3c a3bd ad80 d7bc f3d6 bc3d
00000010: 1b50 85bd 7d20 36bd cd52 e0bb daa9 d4bc
00000020: 8a13 c63d 85e2 c3bd 336d bd3a edd4 d0bc
00000030: bd4b 893d a0d2 243d b37f 8ebb e36d 09bd
00000040: bd0e 733d 2d2f a6bd b35f c83d d8e7 a3bd
00000050: 0583 c7bd e708 68bd d0fd 593d d79f 3cbd
00000060: 603e 343d b062 4dbd 8d0c 893c 28ef 82bd
00000070: 475a 5fbd 7fa7 98bd a721 babd da2a 45bc
00000080: 13be a5bd da11 003c 3321 513b 3343 96bb
00000090: 67a9 cd3c 253d 9c3d 3ae1 c83c 0d69 afbd
000000a0: 456a 833d 0770 b13c f7b0 a93d c507 a33d
000000b0: 6d6c c9bc 3b8c 8a3d b356 2abc f32c 0abd
000000c0: 5f84 943d 9342 b73d ed37 d0bc fd42 28bd
000000d0: dadd d2bc ca8a a83d 4dbf cbbd 60bd 663d
000000e0: 2fbe 92bd 206e 623d c7fa 053d c384 c33d
000000f0: 80b3 943c b236 a53d 23be 003d 3352 5b3c
00000100: b095 1dbd 00e7 46bc 9385 a53d ad99 c73d
00000110: b2fd 94bd e8fb 8e3d ad08 3ebd 97f5 34bd
00000120: 1a96 263d 08ce c03d 9397 8f3c 338a 9dbd
00000130: c07c 8a3c 4a9c b53d 4da3 7e3c da3d 2d3d
00000140: 8a13 213d 838f 73bd e0ec eebc d382 5d3d
00000150: f3ec 37bd 1a27 1b3d b38c 98bb 60c7 843d
00000160: b31f 5fbc ea1f bbbd 1afa b5bc aa9f 993d
00000170: b563 b4bd 137c 8b3d b3df 863d 678e b63d
00000180: a8cb 883d 4a7c bbbd 5530 8e3d 0d22 313c
00000190: 5ab0 7d3c 7233 933d 9a39 b3ba a0ec e53c
000001a0: 328c 823d 33c3 74ba 2882 99bd 67d5 793c
000001b0: 5d9d c1bd b3c3 b1bd 67a3 d5bb 407c 8fbc
000001c0: 5afb 6ebd e3da 743d 80a0 583c 2ae3 c63d
000001d0: 3373 9abd 3a61 933c e79f 79bd dde6 02bd
000001e0: 5d74 3cbd d31c 093d 3a0e a6bc 033c 5a3d
000001f0: 17ab bebd 1a51 cabc 1b91 ad3d bb2b b03d
00000200: b3d0 1fbd cf05 943d da35 9f3d 9ac3 2d3c
00000210: b82e 86bd c0a1 c6bc c34b 453d 9a0d 66ba
00000220: fab6 e7bc 1d6f bf3d 0057 7ebd 23a0 2f3d
00000230: 17af 063d f37a 39bc 17dc 56bd 676d 863d
00000240: c353 723d d864 c8bd 40ac 31bc a7ba aabc
00000250: 7a4e 6ebd 7b24 8ebd 3a4c 5a3d b34d d73c
00000260: cd21 e7bc faa4 9b3d 6aaa cabd 0d40 b1bd
00000270: 203d ed3c 23de 323d b3bc 75bc cd5a afbc
00000280: d271 b23d 7767 8e3d 271a 683c 7df8 043d
00000290: e020 4cbd 4b15 8fbd 58c2 ab3d ba58 9b3c
000002a0: 005d 8ebc 9ac4 3e3c 603c c5bc e2f1 a9bd
000002b0: 0d5f 8e3c ba31 c23c cd5f 0a3d f3c8 b93c
000002c0: cd63 8ebb d848 c43d cd3d ec3b 00de 883c
000002d0: 63cd 26bd cdfd 22bc 1f11 b33d 7863 9d3d
000002e0: e5ee bc3d 2a01 8b3d a29e a9bd cdfb 62bb
000002f0: 7baa bb3d 5aa6 753d 9f93 8ebd df88 9dbd
00000300: 2aa7 a53d 6726 283c caac a8bd 90b8 77bd
00000310: 678e 613a d837 8cbd 3aa5 a8bc 13c9 d9bc
00000320: 13ec 40bd 8049 ca3b 27b2 783c 079d 40bd
00000330: cd98 ddbc 27fb b03c ebfa a4bd 25bc c5bd
00000340: c5cb ccbd ca61 7d3d d36b f43c 9af8 0fbd
00000350: 4810 b5bd 2d06 473d cfde 9c3d c7ac 283d
00000360: f3c2 86bd 7d3d 403d 6a9f 4f3d ab7e b53d
00000370: 75fb 95bd 7354 57bc 3a4a 163d 6513 a83d
00000380: 18dd c73d 9516 873d 7de1 773d 7be5 c43d
00000390: f37d 013c 320e cb3d 4302 7b3d 1f63 9b3d
000003a0: d3c4 41bd 5af9 17bd 9d00 92bd cae9 043d
000003b0: 3d27 36bd bd29 613d 4752 b93c d7a0 923d
000003c0: cda7 433d 6f77 adbd 6084 d0bc 733b da3c
000003d0: ea4f cabd 1d40 583d 2705 cfbc f3d1 953d
000003e0: 2d1c b83c 7af7 303d 4d80 8e3b e714 a03c
000003f0: 801a ddbc bd2c 94bd 0334 b43d daa2 aa3c

fc_mu.weight f4 [2, 256]
0.044296727 -0.04055924 -0.040389605 0.00068656355 0.027631178 -0.062311277 0.06080319 -0.05562429
-0.043650188 -0.034598917 -0.011864528 0.00017349422 -0.017208815 0.028460518 0.032335795 -0.0470448
0.002611868 0.005693808 0.03344962 -0.04868909 -0.05000008 0.019266523 -0.051336706 -0.021438316
0.021335207 -0.04857883 -0.0474108 -0.03346304 -0.04463554 -0.035481513 -0.00697238 -0.0012711734
-0.05588083 0.0592637 0.009652652 0.039557524 0.010229446 -0.011034198 0.061110184 -0.011341736
0.03426195 0.013306238 0.055867635 0.048685163 0.037681796 -0.030000724 0.057513364 0.034919277
0.051615916 0.01615385 0.04241389 0.034979552 0.05546385 0.024939746 0.039844804 0.04451596
-0.032376274 0.041974254 0.035518266 -0.058069706 0.049680457 0.0075227767 0.008255526 -0.059812255
-0.046557017 -0.00854706 -0.047424436 0.044742383 0.0069324747 -0.034876898 -0.028140396 0.024919786
-0.056089014 -0.030744731 -0.035823673 -0.024744637 0.036791958 0.045640677 0.00036473572 -0.034747712
0.032388687 0.05124674 0.03897447 -0.00016959012 -0.0061888844 -0.023509324 -0.014336005 0.045670755
-0.050479084 -0.039471216 0.03447336 -0.0028624237 -0.050708495 0.047454596 -0.013546586 -0.026970282
0.015987441 0.0028612092 -0.025420956 -0.021271773 0.06095384 -0.054943442 0.007615745 -0.01546897
-0.010612808 0.005797021 0.054806992 -0.059628084 0.021796167 0.017568775 0.023188442 0.061507426
-0.022636235 0.028728582 -0.012061544 0.012325443 -0.026264772 0.029747829 -0.03981395 0.03371702
0.0010482296 0.03709069 -0.0084901005 -0.022013322 -0.0031309724 -0.0058650076 0.055860303 -0.062163003
-0.035033956 -0.015232652 -0.020505652 0.011908516 -0.015316397 -0.010062426 -0.013087705 -0.04046514
-0.024004355 0.02751854 -0.0323392 0.033155 -0.05964502 0.0059540495 -0.044675864 0.0135869235
0.038992055 0.039613783 0.013504326 -0.060243465 0.027913518 0.03961701 -0.021469206 -0.028616726
0.06141852 0.028000385 -0.042783156 -0.0014343485 0.029776461 -0.05314762 0.036327958 -0.04196111
-0.0037519187 0.017583773 -0.038372166 -0.0030863807 -0.0034827515 0.03855718 0.0005414784 -0.04335887
-0.04568424 -0.025875278 0.018203422 -0.050272122 0.03774485 -0.033118494 -0.042549156 0.05871637
0.010262169 0.045796067 0.010265 -0.019958459 0.010804102 -0.0002625361 0.004997097 -0.0025456324
0.021013632 0.019579276 0.05391828 0.047710307 0.04007122 0.04072199 0.052418 -0.016616784
-0.060223572 -0.028505467 0.053463444 -0.06067326 0.023839593 0.002589196 0.0496692 0.024219811
0.03448218 -0.03414397 0.0032407343 0.035773665 0.033484593 -0.045229524 -0.056345664 -0.0024380162
-0.0021426305 -0.058655508 0.050561935 -0.016981393 0.04503376 0.031552613 0.023995757 -0.024236023
0.038827002 0.0046692938 0.010868691 0.052290365 -0.01633431 -0.05926025 0.05993826 0.027527489
0.04894986 -0.03629981 0.0070630237 -0.0527787 -0.018714644 -0.060601644 0.043265752 0.018457867
0.021702878 -0.05826941 0.056890413 0.017051585 -0.011341587 0.055232294 0.050372258 0.043396972
0.061145946 0.038367845 -0.03803715 0.020551182 -0.044059962 0.043425664 -0.008056819 0.035897553
0.044023246 -0.056339346 0.030870527 -0.007689707 -0.009944074 -0.044797353 -0.044567436 -0.029714145
00000000: 7c70 353d 7221 26bd 926f 25bd 80fa 333a
00000010: c85a e23c 1c3a 7fbd c40c 793d 4cd6 63bd
00000020: 8aca 32bd 98b7 0dbd 7063 42bc 00ec 3539
00000030: 80f9 8cbc 0826 e93c 8a72 043d 0cb2 40bd
00000040: e02b 2b3b 2093 ba3b 7802 093d 366e 47bd
00000050: e2cc 4cbd d4d4 9d3c 7046 52bd 689f afbc
00000060: 2cc7 ae3c 98fa 46bd d431 42bd 8a10 09bd
00000070: c2d3 36bd 1055 11bd 9078 e4bb 809d a6ba
00000080: 4ce3 64bd 7ebe 723d 2826 1e3c 1207 223d
00000090: 6899 273c c8c8 34bc ac4e 7a3d b0d2 39bc
000000a0: 4256 0c3d 6802 5a3c 76d5 643d 186a 473d
000000b0: 3a58 1a3d 14c4 f5bc 2293 6b3d 8407 0f3d
000000c0: 366b 533d 1455 843c 30ba 2d3d b846 0f3d
000000d0: 102e 633d 704e cc3c 4e34 233d 5e56 363d
000000e0: fc9c 04bd 32ed 2b3d 9a7b 113d 80da 6dbd
000000f0: bc7d 4b3d a081 f63b 3042 073c b2fd 74bd
00000100: 92b2 3ebd f808 0cbc 2040 42bd ca43 373d
00000110: d029 e33b 14db 0ebd b086 e6bc 9424 cc3c
00000120: 98bd 65bd 60dc fbbc d8bb 12bd 44b5 cabc
00000130: 2ab3 163d b8f1 3a3d 003a bf39 9e53 0ebd
00000140: 00aa 043d 1ae8 513d b2a3 1f3d 00d4 31b9
00000150: 20cc cabb a096 c0bc 90e1 6abc 4211 3b3d
00000160: 28c3 4ebd 92ac 21bd f033 0d3d 8097 3bbb
00000170: b6b3 4fbd c05f 423d 80f2 5dbc c8f0 dcbc
00000180: 18f8 823c 2083 3b3b 9c3f d0bc 2442 aebc
00000190: bcaa 793d 600c 61bd 808d f93b 9071 7dbc
000001a0: 58e1 2dbc f0f4 bd3b 4c7d 603d 943c 74bd
000001b0: e08d b23c 64ec 8f3c b0f5 bd3c 36ef 7b3d
000001c0: a06f b9bc 3458 eb3c c89d 45bc a8f0 493c
000001d0: 3829 d7bc b8b1 f33c f413 23bd dc1a 0a3d
000001e0: c064 893a 68ec 173d 101a 0bbc 4855 b4bc
000001f0: 0031 4dbb 402f c0bb c6cd 643d a29e 7ebd
00000200: c47f 0fbd 6092 79bc 78fb a7bc f01b 433c
00000210: a0f1 7abc e0dc 24bc d06d 56bc c6be 25bd
00000220: c8a4 c4bc 906e e13c 1c76 04bd 8acd 073d
00000230: 564e 74bd 301a c33b 0afe 36bd b09b 5e3c
00000240: 22b6 1f3d 1042 223d 4041 5d3c dac1 76bd
00000250: e4aa e43c 7245 223d 30e0 afbc a06d eabc
00000260: fc91 7b3d 1061 e53c 643d 2fbd c000 bcba
00000270: c4ed f33c 52b1 59bd a0cc 143d 6adf 2bbd
00000280: c0e2 75bb d80b 903c 222c 1dbd e044 4abb
00000290: e03e 64bb 22ee 1d3d 00f2 0d3a 1299 31bd
000002a0: 661f 3bbd 64f8 d3bc 581f 953c 24ea 4dbd
000002b0: 589a 1a3d 42a7 07bd 0648 2ebd 9480 703d
000002c0: a822 283c a894 3b3d 882e 283c ec7f a3bc
000002d0: b003 313c 00a5 89b9 b0be a33b a0d4 26bb
000002e0: c824 ac3c b864 a03c 6ad9 5c3d e26b 433d
000002f0: b821 243d 1acc 263d 42b4 563d ec1f 88bc
00000300: feac 76bd 4c84 e9bc 7cfc 5a3d 8684 78bd
00000310: 404b c33c 80af 293b ee71 4b3d a068 c63c
00000320: 303d 0d3d 8cda 0bbd 8062 543b 6887 123d
00000330: 2427 093d 9842 39bd b6ca 66bd 20c7 1fbb
00000340: 606b 0cbb c240 70bd 081a 4f3d 901c 8bbc
00000350: 5275 383d 503d 013d c092 c43c a08a c6bc
00000360: 1009 1f3d e000 993b 9812 323c 6c2e 563d
00000370: 88cf 85bc e0ba 72bd d281 753d 5481 e13c
00000380: a67f 483d 1caf 14bd f070 e73b 7a2e 58bd
00000390: 744f 99bc 6e39 78bd 6e37 313d f434 973c
000003a0: 3cca b13c e8ab 6ebd ec05 693d c4af 8b3c
000003b0: 10d2 39bc 423b 623d 2453 4e3d 06c1 313d
000003c0: 2c74 7a3d 9a27 1d3d d8cc 1bbd f45a a83c
000003d0: 3878 34bd 1cdf 313d c000 04bc 5009 133d
000003e0: b851 343d 16c4 66bd 30e4 fc3c f0f9 fbbb
000003f0: 78ec 22bc 6e7d 37bd 588c 36bd 146b f3bc

fc_mu.bias f4 [2]
-0.030751735 0.0102259815
00000000: 10eb fbbc e08a 273c

fc_var.weight f4 [2, 256]
0.02085162 -0.019986704 -0.058164775 0.046516143 0.00043997169 0.012588054 -0.052797355 0.037590057
-0.04864338 0.049928367 0.043563694 -0.0024957582 -0.04514169 -0.02384901 0.022433065 0.056270696
0.036404543 -0.05281865 0.040708788 0.012512706 -0.026357606 0.058371276 -0.02046001 -0.04183679
0.010495305 0.0069402307 0.017754517 0.045381002 0.017803393 -0.021130748 0.0491658 0.026025489
-0.05902618 0.044641964 -0.028562821 0.055842407 0.05536235 0.027159348 0.029805027 0.04413251
-0.044128053 0.035219923 0.025449596 0.009769894 -0.016934857 0.026527457 -0.031609125 0.008084349
-0.0047226325 -0.0535872 0.044265307 0.045540325 -0.056444407 -0.061863594 -0.04600653 0.015259393
0.048845895 -0.016819917 -0.01167509 0.060311057 -0.060626194 -0.041736588 0.0479683 0.012667015
0.05616887 -0.032050677 -0.04381734 -0.006901473 0.057954103 0.055692643 0.060445063 0.041242898
0.035570294 -0.022512004 -0.05657328 -0.030798733 -0.02352772 0.0346193 0.038218565 -0.022761934
-0.012412675 0.051002674 0.00658191 -0.003933221 -0.019367673 -0.038909413 0.0214305 0.05637595
0.026683606 -0.005003266 -0.054882474 -0.061274044 0.0032656863 0.0021285638 0.0502114 -0.05665192
-0.0049902275 -0.045251936 0.0011149123 0.057211645 -0.015136205 0.056971967 0.03356623 0.039789476
-0.055519484 -0.011032768 -0.00095234066 -0.048731804 -0.025613382 0.002777733 0.05253409 0.049130335
-0.015325397 -0.021926336 -0.008969143 0.035751753 -0.02332282 -0.054058604 -0.0036018714 0.019067965
-0.035527036 0.022007093 0.011044525 -0.042000674 0.046183065 -0.030893065 0.05974962 0.0013697073
0.037479915 0.006271228 -0.048191845 0.027333863 -0.010415241 -0.01930987 -0.047565624 -0.026426725
0.0575419 0.04046826 -0.031671703 0.026005492 0.021892518 -0.06171541 -0.03701693 -0.00011226535
-0.029484145 0.04537715 0.043972768 0.0076469705 -0.017879963 0.04722908 0.012457445 0.043381616
-0.025621504 -0.015940152 0.060073033 -0.002918601 -0.0033410192 -0.010787375 0.046509057 0.046035893
0.01280953 0.0119847655 0.059702426 -0.042761438 -0.054794855 -0.008299053 0.0027555525 -0.025158003
0.011331551 0.002375342 0.00385575 -0.04500541 -0.00063545257 -0.035253935 -0.013968073 0.0033666864
-0.045207605 0.05477254 0.06080103 -0.025191776 0.023053102 -0.010301128 -0.020965464 0.04268586
-0.054105677 0.004267521 0.0012794808 -0.060382232 -0.017287076 -0.0016249791 -0.030045033 -0.008011609
0.053309448 -0.04617314 0.039016165 -0.014628693 0.05440548 0.0028417036 0.04996316 -0.029194817
0.032722205 0.024213761 -0.013187222 -0.005958542 -0.05931019 0.02797839 -0.034342736 -0.006139219
0.009732708 0.052252486 0.013936438 0.036396727 0.009406365 0.00663583 0.029054537 0.003048867
-0.03501744 -0.017710842 0.05093205 0.022218287 0.01682482 0.016592883 0.013901703 -0.052508324
0.006374277 -0.0019652024 -0.023713566 -0.04134883 -0.011232689 0.0050949454 -0.017423503 0.029572614
-0.024005562 0.04880617 0.032922618 0.0036849678 -0.033860795 -0.028949186 0.052870713 -0.016802989
0.0014077872 -0.062152848 0.030453503 0.0012843832 -0.006755814 0.03361895 -0.05198046 0.056548044
-0.039657645 0.060664363 0.059333354 0.033627182 0.05182855 -0.051621087 -0.033523202 0.023022823
00000000: 04d1 aa3c 28bb a3bc 303e 6ebd b687 3e3d
00000010: 00ac e639 203e 4e3c 0a42 58bd 08f8 193d
00000020: 483e 47bd b081 4c3d d86f 323d e08f 23bb
00000030: 7ee6 38bd 005f c3bc 8cc5 b73c 1a7c 663d
00000040: ee1c 153d 5e58 58bd 42be 263d 1802 4d3c
00000050: e8eb d7bc b816 6f3d c09b a7bc 0e5d 2bbd
00000060: 80f4 2b3c e06a e33b ec71 913c 6ee1 393d
00000070: 6cd8 913c 641a adbc 1462 493d 6833 d53c
00000080: 70c5 71bd 7eda 363d 94fc e9bc 02bb 643d
00000090: a2c3 623d 487d de3c ac29 f43c 4ac4 343d
000000a0: 9ebf 34bd c442 103d ac7b d03c e811 203c
000000b0: f8ba 8abc 1c50 d93c 9278 01bd 3874 043c
000000c0: 50c0 9abb 407e 5bbd 8a4f 353d 7e88 3a3d
000000d0: 4032 67bd ae64 7dbd 5871 3cbd 8802 7a3c
000000e0: a212 483d ecc9 89bc e048 3fbc ba08 773d
000000f0: 2c53 78bd fcf3 2abd 687a 443d 5089 4f3c
00000100: 5411 663d 9247 03bd d079 33bd c025 e2bb
00000110: 4861 6d3d f81d 643d 3e95 773d 50ee 283d
00000120: 28b2 113d 186b b8bc 62b9 67bd a04d fcbc
00000130: 34bd c0bc f8cc 0d3d 128b 1c3d 3c77 babc
00000140: 885e 4bbc 2ee8 503d 10ad d73b 40e2 80bb
00000150: f4a8 9ebc 7a5f 1fbd 048f af3c 78ea 663d
00000160: 9497 da3c 70f2 a3bb 72cc 60bd 7efa 7abd
00000170: 2005 563b 607f 0b3b 78aa 4d3d d80b 68bd
00000180: 1085 a3bb 185a 39bd 4022 923a c256 6a3d
00000190: d8fd 77bc 705b 693d be7c 093d 4afa 223d
000001a0: 6668 63bd c8c2 34bc 80a6 79ba 009b 47bd
000001b0: 28d3 d1bc a00a 363b fc2d 573d e43c 493d
000001c0: 6017 7bbc dc9e b3bc 50f3 12bc 6e70 123d
000001d0: 800f bfbc 8e6c 5dbd 600d 6cbb 6c34 9c3c
000001e0: cc84 11bd 3848 b43c 18f4 343c e608 2cbd
000001f0: 742a 3d3d 7413 fdbc 04bc 743d c087 b33a
00000200: 8a84 193d e07e cd3b d064 45bd 44eb df3c
00000210: b0a4 2abc bc2f 9ebc 2cd4 42bd dc7c d8bc
00000220: 0eb1 6b3d 0cc2 253d 30ba 01bd 7809 d53c
00000230: f057 b33c 4cc9 7cbd 109f 17bd 0070 ebb8
00000240: bc88 f1bc 64dd 393d ca1c 343d 7093 fa3b
00000250: 0079 92bc 4873 413d 501a 4c3c ecb0 313d
00000260: 30e4 d1bc ec94 82bc 240f 763d 0046 3fbb
00000270: 00f5 5abb 88bd 30bc 4880 3e3d 2290 3c3d
00000280: 10df 513c c05b 443c 888a 743d 9e26 2fbd
00000290: 9270 60bd c0f8 07bc 8096 343b 2818 cebc
000002a0: f8a7 393c a0ab 1b3b c0b0 7c3b 9857 38bd
000002b0: 8094 26ba 6e66 10bd 58da 64bc a0a3 5c3b
000002c0: 9c2b 39bd 2c59 603d 800a 793d fc5e cebc
000002d0: dcd9 bc3c 10c6 28bc c4bf abbc 5ed7 2e3d
000002e0: ea9d 5dbd 90d6 8b3b 40b4 a73a 5c53 77bd
000002f0: a09d 8dbc 40fd d4ba 0021 f6bc 2043 03bc
00000300: 025b 5a3d 0c20 3dbd 6acf 1f3d 30ad 6fbc
00000310: 48d8 5e3d e03b 3a3b 2ca6 4c3d f829 efbc
00000320: b807 063d f05b c63c 380f 58bc e03f c3bb
00000330: 3eef 72bd f032 e53c f8aa 0cbd 802b c9bb
00000340: f075 1f3c b406 563d a855 643c bc14 153d
00000350: 281d 1a3c 6071 d93b c803 ee3c 80cf 473b
00000360: 726e 0fbd 5416 91bc 209e 503d 2003 b63c
00000370: 34d4 893c cced 873c f8c3 633c f812 57bd
00000380: 50df d03b a0ca 00bb f442 c2bc 645d 29bd
00000390: 5009 38bc 80f3 a63b bcbb 8ebc 4442 f23c
000003a0: 50a7 c4bc fae8 473d ded9 063d 807f 713b
000003b0: 9eb1 0abd d826 edbc f68e 583d 6ca6 89bc
000003c0: 8085 b83a fc93 7ebd a079 f93c c058 a83a
000003d0: e05f ddbb 06b4 093d 76e9 54bd ec9e 673d
000003e0: 0e70 22bd 327b 783d 8807 733d a8bc 093d
000003f0: 2c4a 543d a270 53bd a04f 09bd 5c9a bc3c

fc_var.bias f4 [2]
-0.0051569194 0.007225685
00000000: 60fb a8bb 70c5 ec3b

decoder.layer0.weight f4 [2, 2]
0.69446945 -0.4420273 -0.10632166 -0.4154661
00000000: c0c8 313f 6751 e2be 2cbf d9bd f9b7 d4be

decoder.layer0.bias f4 [2]
0.33879253 -0.34102693
00000000: 3776 ad3e 159b aebe

decoder.layer2.weight f4 [100, 2]
0.56980413 0.4572208 0.2074064 -0.2267385 -0.24586195 -0.65731835 -0.03239904 0.68982524
-0.027205031 0.6817761 0.70149374 -0.696115 -0.557701 -0.6418179 -0.06824527 0.52982825
0.21463165 -0.07678852 0.40966392 -0.5172432 -0.09995091 0.62405807 0.44208276 -0.22292918
0.14853695 0.075112596 0.63445634 -0.20707345 0.18145196 -0.2678498 0.07168825 0.18716007
0.65334374 -0.36634284 0.3213686 0.0007278761 -0.008807933 0.048304416 0.5790328 -0.37145585
-0.16992395 -0.44439873 -0.21716577 0.55711687 0.6803314 -0.23838258 -0.3195762 -0.66018164
0.36286843 -0.24322018 0.51949716 -0.13557343 -0.3257857 -0.0062612514 0.020330543 0.005924077
-0.5782511 -0.0973899 -0.17741859 0.07586273 0.6669907 0.117766894 0.30697235 -0.4877353
-0.3201091 -0.6836909 -0.30437753 0.30396172 -0.31959626 0.32021523 0.48758364 -0.5583762
0.09675753 -0.28873515 0.5438803 -0.14446211 0.58563375 0.1264268 0.60268813 -0.21303284
-0.0530397 0.14064606 0.5884828 -0.24788602 -0.09333301 0.274026 -0.6162642 0.4690226
-0.59137285 0.04183378 -0.7005853 -0.40988746 0.6946308 -0.25533935 0.16272435 0.3582585
-0.46851322 0.3778213 -0.28450724 -0.65700936 0.40520528 0.61295515 -0.07315015 -0.23112328
0.6197511 -0.4911539 -0.4369775 0.61719507 -0.44929677 -0.05814065 -0.38749516 0.023283942
-0.62481177 0.25020838 -0.46343225 0.6682687 0.4522516 0.68947786 -0.35764349 -0.21205942
-0.13261338 0.67056054 -0.6682999 0.36325812 -0.6470076 -0.43102232 0.20883705 0.5045757
-0.5774559 0.38347983 -0.59067047 0.28787097 -0.4021728 -0.3378815 -0.00015198153 -0.6393944
0.08380665 0.63571995 0.35155538 0.23105475 -0.05138822 -0.6199473 0.013443833 0.3213161
0.13826197 0.59344447 -0.31416193 0.35802642 -0.15399648 -0.37691402 0.5960072 0.35677466
0.36852345 -0.35668227 -0.010978158 -0.18793617 0.49315295 -0.0882088 0.33479282 0.21607028
0.20483747 0.59738874 0.1383445 -0.04872715 -0.05603044 -0.33687764 0.40519786 -0.52235615
0.19001207 0.1107491 0.44239017 -0.4002762 -0.42441833 0.034306943 -0.11452479 0.3729502
-0.2524137 0.2939251 -0.22244094 -0.58225685 -0.4404612 0.6844134 -0.47989917 -0.6590758
0.2816008 0.6546562 0.62246555 -0.40811297 -0.14712815 0.56269896 0.5567365 0.08923769
0.5414344 0.48813915 0.25254795 -0.0047541643 -0.22833088 -0.18820776 0.15629062 -0.66608286
00000000: afde 113f d818 ea3e 5862 543e 232e 68be
00000010: 3cc3 7bbe 0446 28bf dbb4 04bd 6398 303f
00000020: 16dd debc e188 2e3f 1895 333f 9834 32bf
00000030: 7ec5 0ebf 2e4e 24bf 2dc4 8bbd d3a2 073f
00000040: 66c8 5b3e 4d43 9dbd 78bf d13e 0d6a 04bf
00000050: 10b3 ccbd 45c2 1f3f ac58 e23e 8c47 64be
00000060: 121a 183e a2d4 993d bb6b 223f 100b 54be
00000070: 8bce 393e 9c23 89be 4ad1 923d e4a6 3f3e
00000080: 8941 273f 4a91 bbbe 6d8a a43e f0ce 3e3a
00000090: 264f 10bc dada 453d 7e3b 143f 762f bebe
000000a0: 8b00 2ebe 3b88 e3be b460 5ebe 369f 0e3f
000000b0: 332a 2e3f 901a 74be 7e9f a3be aa01 29bf
000000c0: e4c9 b93e b60e 79be c4fd 043f c3d3 0abe
000000d0: 62cd a6be 2f2b cdbb 3d8c a63c c21e c23b
000000e0: 4408 14bf 5b74 c7bd 38ad 35be eb5d 9b3d
000000f0: e7bf 2a3f c52f f13d 7b2b 9d3e 71b8 f9be
00000100: 57e5 a3be 5e06 2fbf 5fd7 9bbe dfa0 9b3e
00000110: 1fa2 a3be 40f3 a33e 90a4 f93e bef1 0ebf
00000120: d028 c63d 18d5 93be bd3b 0b3f e0ed 13be
00000130: 18ec 153f 0776 013e c549 1a3f 4825 5abe
00000140: 2840 59bd 8505 103e cfa6 163f d5d5 7dbe
00000150: 6125 bfbd 234d 8c3e 7ec3 1dbf bb23 f03e
00000160: 3664 17bf e659 2b3d 8f59 33bf c5dc d1be
00000170: 53d3 313f d7bb 82be 36a1 263e a86d b73e
00000180: f7e0 efbe cb71 c13e efaa 91be c431 28bf
00000190: 1177 cf3e a1ea 1c3f bfcf 95bd 95ab 6cbe
000001a0: 02a8 1e3f 8678 fbbe 84bb dfbe 7f00 1e3f
000001b0: 3a0a e6be e424 6ebd c465 c6be f7bd be3c
000001c0: aaf3 1fbf 501b 803e fe46 edbe a813 2b3f
000001d0: 868d e73e 9f81 303f 0c1d b7be 1b26 59be
000001e0: cdcb 07be dba9 2b3f b415 2bbf f8fc b93e
000001f0: 4aa2 25bf f5ae dcbe 61d9 553e e02b 013f
00000200: 26d4 13bf 7857 c43e 2e36 17bf d363 933e
00000210: 98e9 cdbe cefe acbe 3b5d 1fb9 5aaf 23bf
00000220: d2a2 ab3d 8bbe 223f 11ff b33e 9e99 6c3e
00000230: 747c 52bd deb4 1ebf 8643 5c3c 8b83 a43e
00000240: 8c94 0d3e faeb 173f d5d9 a0be 3d4f b73e
00000250: 41b1 1dbe e0fa c0be ee93 183f 2bab b63e
00000260: 1baf bc3e 0f9f b6be bbdd 33bc 5772 40be
00000270: 8b7e fc3e d1a6 b4bd f769 ab3e 8741 5d3e
00000280: eac0 513e 78ee 183f 2eaa 0d3e 1f96 47bd
00000290: 2d80 65bd 3a7b acbe 1876 cf3e 22b9 05bf
000002a0: 8692 423e 6dd0 e23d f780 e23e 01f1 ccbe
000002b0: 5c4d d9be 7085 0c3d f98b eabd 54f3 be3e
000002c0: 5e3c 81be 5a7d 963e 8fc7 63be c90e 15bf
000002d0: 2184 e1be b735 2f3f 58b5 f5be 31b9 28bf
000002e0: fb2d 903e 8c97 273f e759 1f3f 2ff4 d0be
000002f0: c3a8 16be 0a0d 103f 4986 0e3f 40c2 b63d
00000300: 729b 0a3f 60ed f93e f74d 813e d2c8 9bbb
00000310: 92cf 69be 89b9 40be a60a 203e 6884 2abf

decoder.layer2.bias f4 [100]
0.6301612 0.5312525 0.3919024 0.31282774 0.6397823 0.68317115 -0.68349165 0.68545645
0.25160345 -0.41709566 0.6780736 0.38129848 -0.4243847 -0.08720798 0.42231244 -0.50116664
0.60187846 0.2928621 0.054903183 0.4532729 0.25718412 -0.38933808 0.13124655 0.042288125
0.4144152 0.20443152 -0.62023056 -0.6439667 -0.4169628 -0.3118989 0.60304934 -0.14402278
0.41902742 -0.49482355 -0.5299928 0.39696977 -0.68649167 0.60437566 0.40420252 -0.39654124
-0.49197865 0.19213812 -0.10707297 -0.5756872 -0.4599666 -0.1722196 -0.18766356 0.6412181
-0.6179145 0.69006747 -0.66785437 -0.013511015 -0.24984221 0.17129844 0.3457252 -0.2426925
-0.5656199 0.67616093 -0.08712403 -0.42115828 -0.43163607 0.14104477 -0.5194615 -0.38406584
0.1862631 -0.110472366 0.61094815 0.50677943 -0.1573872 0.015269971 -0.28882307 -0.061447237
-0.36306602 0.68176436 -0.69034827 0.46818557 -0.3363288 0.46954775 -0.40358162 0.281164
-0.0507153 0.28145868 -0.03832059 0.66022843 0.4407831 -0.5488028 -0.3964598 0.09395316
-0.4050162 -0.30520228 -0.008487026 -0.5128394 -0.65751266 0.5433302 0.6280853 0.59236246
-0.2063594 0.3791452 0.38828358 -0.4056866
00000000: 3f52 213f 2a00 083f 6ea7 c83e f52a a03e
00000010: c6c8 233f 4ee4 2e3f 4ff9 2ebf 137a 2f3f
00000020: 2bd2 803e 908d d5be 3b96 2d3f 8e39 c33e
00000030: f448 d9be 199a b2bd 5639 d83e 754c 00bf
00000040: b514 1a3f 05f2 953e 29e2 603d 6313 e83e
00000050: a3ad 833e 5257 c7be 7f65 063e 5036 2d3d
00000060: 3b2e d43e 7f56 513e 6ec7 1ebf 00db 24bf
00000070: 267c d5be 36b1 9fbe 7161 1a3f b57a 13be
00000080: c38a d63e 8359 fdbe 9cad 07bf 9f3f cb3e
00000090: ebbd 2fbf 5db8 1a3f a2f3 ce3e 7407 cbbe
000000a0: a0e4 fbbe dbbf 443e 1349 dbbd 3d60 13bf
000000b0: be80 ebbe 565a 30be e02a 40be df26 243f
000000c0: a52f 1ebf 43a8 303f 81f8 2abf 4e5d 5dbc
000000d0: a3d6 7fbe dc68 2f3e e502 b13e 6284 78be
000000e0: 77cc 10bf e218 2d3f 156e b2bd 0fa2 d7be
000000f0: 67ff dcbe 0a6e 103e 6efb 04bf 47a4 c4be
00000100: c1bb 3e3e 563f e2bd 1967 1c3f 4cbc 013f
00000110: 1c2a 21be e72e 7a3c 9ee0 93be 19b0 7bbd
00000120: cae3 b9be 1c88 2e3f aaba 30bf 05b6 ef3e
00000130: 4a33 acbe 9068 f03e 40a2 cebe baf4 8f3e
00000140: d9ba 4fbd 5a1b 903e 0df6 1cbd bb04 293f
00000150: 53ae e13e 577e 0cbf c7fc cabe 846a c03d
00000160: 495e cfbe 7943 9cbe 2b0d 0bbc 7149 03bf
00000170: c052 28bf b017 0b3f 33ca 203f 11a5 173f
00000180: e14f 53be 521f c23e 1bcd c63e 27b6 cfbe
