nero/collections/planning/models/outputs/2020-11-10/17-32-41/checkpoints/epoch=0.ckpt (torch, 155812 bytes, 12 tensors)

encoder.layer0.weight f4 [100, 100]
000000 c0 4c c3 3c 3d 0f ad bd 93 1b a1 bd 83 2a 9b bd
       0.023840308 -0.08450172 -0.078665875 -0.07576468
000010 6d 63 d8 3c 6b 5a 86 bd 7a 94 97 bc d8 e4 a9 3d
       0.026414597 -0.065602146 -0.018503416 0.082956016
000020 f0 b4 41 bd 63 e4 7d bd 87 23 ce 3c 40 a5 4d bc
       -0.047291696 -0.061985385 0.025163425 -0.012551606
000030 dd e2 2b bd b3 7a 6e bd 0d 38 a9 bd 00 fa b9 3d
       -0.0419644 -0.058222484 -0.08262644 0.09080887
000040 37 38 24 3d 2d f9 3d 3d 47 3f b3 bd 70 58 9f 3d
       0.040092673 0.04638021 -0.087523036 0.0778054
000050 d8 25 af bd 73 8c 2b bc 53 1e 7d 3d 4a b7 5f 3d
       -0.0855214 -0.010470497 0.061796498 0.054618157
000060 f0 02 77 bd 6d 95 d7 3c df 8f 98 3d 9a 50 c4 bd
       -0.060305536 0.026316369 0.07449316 -0.09585686
000070 db 1e 8a 3d 47 76 90 3c 48 d2 a4 bd 10 c8 ba 3d
       0.067441665 0.017634524 -0.080479205 0.0912019
000080 ba e9 27 bd bd 08 a4 3d cd fd e6 bb 43 9d 82 bd
       -0.040994383 0.08009479 -0.0070492984 -0.063776515
000090 93 e1 6a bd 07 80 38 3d ed 48 43 3d 7d d1 1e bd
       -0.05734403 0.04504397 0.04767697 -0.038774002
0000a0 ef 79 8c 3d 58 50 94 3d 57 7b 96 bd 17 75 3a bd
       0.068591945 0.07241887 -0.07347744 -0.04552182
0000b0 4d 5f 03 bd 9b 0e cc 3d 48 4c a7 bd 9a 9d 27 bd
       -0.032073308 0.09963723 -0.08168846 -0.040921785
0000c0 67 59 3f 3d ff 9f 90 3d c7 9d aa 3d 5d e8 02 3d
       0.04671612 0.07061767 0.08330875 0.03195988
0000d0 fd 03 01 3d c8 8b a1 3d cd cc f6 37 b3 ba 91 3b
       0.031497944 0.07887989 2.9420853e-05 0.004447305
0000e0 d3 17 43 3d 78 ef 96 3d c7 4c 0a 3d 5a 4e a3 3d
       0.047630142 0.07369894 0.033764627 0.07973929
0000f0 9a f2 3e 3b b3 03 86 3c fd 4c 62 bd 9a ee c1 bb
       0.00291363 0.016359186 -0.055249203 -0.005918336
000100 67 2b 0d bd 73 20 31 bc d7 d1 0f 3d e7 a1 91 bb
       -0.03446522 -0.010810959 0.03511223 -0.004444349
000110 05 93 9f 3d a7 75 7f bd 5d b8 54 3d 3b b1 b9 bd
       0.077917136 -0.06236806 0.051933635 -0.09067007
000120 c2 94 c7 3d cd 93 95 3c ca 40 0a 3d e0 54 99 3d
       0.0974517 0.018258953 0.033753194 0.07486892
000130 6d 04 ad bd 67 26 7a b8 47 bd 4a 3d 0d 2a d5 bc
       -0.0844811 -5.964041e-05 0.049496915 -0.026021028
000140 da 64 95 3d 1d cb a5 3d bb 32 ab 3d cd 15 67 3d
       0.072946265 0.080953814 0.083592854 0.056417275
000150 83 e6 b0 bd c7 03 cc 3c 9a f9 07 3a 67 1f 56 bc
       -0.086377166 0.024904145 0.0005187035 -0.01306901
000160 c3 38 70 bd 1a 63 2b 3c c7 e2 95 3c 1a 47 a9 3b
       -0.058647882 0.010460639 0.018296612 0.0051659467
000170 d7 81 3c bd e7 6f 2b bd c0 8d 7d bc 80 58 c0 bd
       -0.046022262 -0.041854765 -0.01547569 -0.0939188
000180 f2 24 b2 bd ed 37 04 bd 2f 07 80 bd 45 27 b8 3d
       -0.08698453 -0.032279897 -0.0625137 0.08991865
000190 a3 63 a9 3d 20 fa bc 3c 3d ac 3f 3d d5 3b aa bd
       0.08270957 0.023068488 0.04679512 -0.08312193
0001a0 33 93 f6 3b 02 90 a2 3d e3 58 c1 3d da 19 06 3d
       0.0075248717 0.079376236 0.09440782 0.032739498
0001b0 70 55 8b 3d f3 11 03 3d f3 e1 89 3d 6d 7d 99 3d
       0.06803405 0.03199954 0.067325495 0.07494626
0001c0 a0 26 01 bd d7 54 6b 3d 2d 8e 8e bc 0d 9f e3 bc
       -0.031530976 0.057453956 -0.01740178 -0.027785802
0001d0 47 b7 b0 bc 2d 68 ac bd ad c5 a5 bd 1d 6e 2b 3d
       -0.021571768 -0.084183075 -0.08094344 0.04185306
0001e0 e3 b9 6b 3d d8 a4 a2 3d 83 87 52 bd 33 75 6a bc
       0.057550322 0.07941598 -0.051398765 -0.014310169
0001f0 cd 32 3e bd 42 dd 9d bd a0 08 98 bc 67 c6 10 bb
       -0.046435166 -0.07708217 -0.0185588 -0.0022090913
000200 0d 28 ee 3c c0 17 ac 3c ba 60 8b 3c 8d 27 42 bd
       0.029071832 0.021007419 0.017013896 -0.047401
000210 33 a7 1d 3b 33 3c 0d bb ca c1 32 3d 42 ad a2 bd
       0.0024055957 -0.0021550774 0.043641843 -0.079432026
000220 87 71 de 3c 3a cd d4 3c d2 e0 9b 3d 78 da af 3d
       0.027153743 0.025976766 0.076112404 0.085865915
000230 40 96 98 bd 63 90 26 bd cf 57 c9 bd 47 51 87 3d
       -0.07450533 -0.04066504 -0.09831201 0.06607299
000240 03 b7 2b 3d 92 d0 ac bd c3 98 bd bd e0 ff d8 3c
       0.04192258 -0.08438219 -0.092576526 0.026489198
000250 40 a3 4f 3c 92 44 83 3d d7 b3 51 3d 53 cc 1e bd
       0.012673199 0.06409563 0.0511969 -0.038769078
000260 f3 63 4f 3c 87 0f 95 bc 8d cb 97 3c 1f d3 ab bd
       0.012658107 -0.01819588 0.018529678 -0.083898775
000270 0a 4b 47 bd 5d e5 99 3d e0 a8 cb bd 03 24 33 3d
       -0.048655547 0.07514451 -0.0994432 0.043735515
000280 c5 6f 8b bd 33 fc 60 bb ea 80 8c 3d 0a e2 8c bd
       -0.06808428 -0.003433001 0.06860526 -0.06879051
000290 c0 e6 a0 3d a2 eb 98 bd 40 66 d7 3c a7 0a 24 bc
       0.07856512 -0.074668184 0.026293874 -0.010012305
0002a0 e7 b7 e8 3b 1b f1 81 3d 35 ba ac bd fd da 89 bd
       0.007102001 0.06344815 -0.08433954 -0.06731222
0002b0 5f 11 88 3d c0 bc b0 3c 98 3d ad bd 4d 7f 5a 3d
       0.06643938 0.021574378 -0.08459014 0.05334406
0002c0 60 05 7b bd 87 2d 82 bd ad 58 1e 3d df bf b9 3d
       -0.061284423 -0.0635634 0.038658787 0.090698
0002d0 d0 f6 42 bd 8f 44 8e 3d 6a f6 91 bd ea 42 ba bd
       -0.04759866 0.0694667 -0.07127078 -0.09094794
0002e0 33 28 c1 3d 1f f3 9e bd 4d 54 7c bd 3b 54 84 3d
       0.094314955 -0.077612154 -0.061603833 0.06461378
0002f0 4a 65 61 3d 30 98 c5 3d 1a 79 55 bd 07 33 ca 3d
       0.055028237 0.09648168 -0.052117445 0.09873014
000300 2d 64 23 bd 60 b4 e8 bc a7 ab 07 3c f3 6f 03 bd
       -0.039890457 -0.028406322 0.008280671 -0.032089185
000310 52 12 9c bd 37 6a ca 3d 8a d2 0f 3d 40 e8 f3 bc
       -0.07620682 0.0988354 0.035112895 -0.029773831
000320 67 bf c0 3c 1a ff c0 3c 38 3a 99 bd aa ab 94 bd
       0.023528768 0.023559142 -0.074818075 -0.07259305
000330 8b e2 bb bd b3 ba a1 bd 67 3d bd 3d 33 ed 3c bb
       -0.09174069 -0.07896938 0.09240227 -0.0028827905
000340 b7 27 c1 3d 2d 25 89 bc 77 aa b7 3d 6a 55 65 bd
       0.09431403 -0.01674136 0.089680605 -0.05598966
000350 3a 33 b3 3c da d9 6d 3d 6a 6d 43 3d 83 ac 53 3d
       0.021875013 0.058069088 0.047711767 0.051678192
000360 d8 b9 be 3d 1a 73 ca bc 47 a5 27 bd 8d 90 33 bc
       0.09312791 -0.024713088 -0.040929105 -0.010959757
000370 4d 3f cd bc 88 70 8d 3d 0f 8e 8e bd c7 a2 f2 3c
       -0.025054598 0.06906229 -0.06960689 0.029618634
000380 cd aa b8 3d 4d 96 8d bb 75 72 b6 3d ed 85 c2 3c
       0.09016953 -0.0043208958 0.0890855 0.023745501
000390 ed 1a f5 bc d7 7b 93 3d b3 92 71 bd a7 d7 ee bc
       -0.029920066 0.07201355 -0.058977794 -0.029155565
0003a0 2b 6f 81 bd 73 e2 66 3c 33 eb 21 3a 00 e7 b7 3b
       -0.06320032 0.014092076 0.000617671 0.005612254
0003b0 2b c8 93 bd 8a de ca bd 63 fd 58 bd 98 43 95 3d
       -0.072159134 -0.09905727 -0.052976023 0.07288283
0003c0 0d 0c b1 bd 6b b6 82 bd 33 3b cd b9 8b 3f c8 3d
       -0.08644877 -0.0638245 -0.00039144754 0.09777745
0003d0 fa 07 f6 3c 9d d6 c7 3d 3f 84 bc bd 4d ef 83 bb
       0.0300331 0.09757731 -0.092049114 -0.0040263296
0003e0 1a 4d 3e bc b7 d0 06 3d 9a 6a ac 3d 57 00 31 bd
       -0.011615062 0.03291389 0.0841877 -0.043213215
0003f0 da 37 c9 bc 00 a2 5d bc 9a b8 ac bc 0a 01 1a 3d
       -0.024562765 -0.013527393 -0.021084119 0.037598647

encoder.layer0.bias f4 [100]
000000 e0 4a af bc 00 dc 5a 3c b8 47 94 bd c7 22 4d bd
       -0.021398008 0.013358116 -0.07240242 -0.050081994
000010 40 09 7a bd 27 ee 05 3d 00 fa 65 3b 1a bb a4 bc
       -0.061043978 0.032697823 0.0035091639 -0.020108748
000020 1a dc 3d 3c e5 f2 bb bd 48 e4 b1 bd ab eb 94 3d
       0.011588121 -0.09177188 -0.08686119 0.072715126
000030 f0 16 2d 3d b3 86 2f 3c 15 16 a7 bd 23 1d 3e 3d
       0.042258203 0.010713267 -0.08158509 0.046414506
000040 fa bb 71 bd 5f 69 90 bd c3 2b 0f bd 8d db 5c 3d
       -0.05901716 -0.07051348 -0.034953844 0.053920317
000050 c5 dc ba bd c7 20 99 bc 65 7d b3 3d 30 eb a6 bd
       -0.0912414 -0.018692387 0.087641515 -0.08150327
000060 d7 9e 06 bd 1a 07 01 bd 6a 76 b4 bd 0d da c9 3c
       -0.032866325 -0.031500913 -0.08811648 0.024640108
000070 40 33 89 bc 7a f1 70 bd cd de 45 3b 93 8f d2 bc
       -0.01674807 -0.05882404 0.0030192614 -0.025703227
000080 12 c0 c6 3d b0 8f 16 3d 60 69 b4 3c 40 1c be 3c
       0.09704603 0.036758125 0.022022903 0.02320683
000090 df 86 a3 bd fb a1 95 3d 00 14 2c bc bb 81 9b bd
       -0.07984709 0.07306286 -0.010502815 -0.075931035
0000a0 67 7e f4 ba 20 7e 0b 3d 20 45 aa 3c cd 18 45 bc
       -0.0018653393 0.03405583 0.020784914 -0.012029839
0000b0 f0 38 00 3d ea 99 6f bd a0 75 f8 bc 77 c0 99 bd
       0.0313043 -0.058496393 -0.030329525 -0.07507413
0000c0 47 77 bd bc 30 86 89 bd 4d c9 c0 bd 78 a1 9a 3d
       -0.023128165 -0.06715047 -0.09413395 0.07550329
0000d0 67 cc 47 bd 6b 65 80 3d 6f 62 bd 3d 43 d7 ac 3d
       -0.048778918 0.06269344 0.0924729 0.084394954
0000e0 f0 ca 3f bd 23 8c 3c bd 50 f3 31 3d d5 8d 9a 3d
       -0.046824396 -0.046032082 0.04344493 0.075465836
0000f0 a7 dd fe 3c e0 e1 8d 3c 67 63 15 3c a5 aa 98 bd
       0.031111551 0.01731962 0.009117938 -0.07454423
000100 5a e7 69 bc ca 41 4e bd cf 4a ad bd c3 15 0b bd
       -0.01427635 -0.05035571 -0.08461534 -0.0339563
000110 88 f2 a3 3d b3 11 aa 3d 33 c7 93 3a 6d fa 91 bc
       0.080052435 0.08304157 0.0011274576 -0.017819608
000120 e3 d7 09 3d 33 3e fb bc 9a 63 54 3c 0d 4f b6 bc
       0.03365315 -0.030669307 0.0129632 -0.022254491
000130 5b 87 aa 3d 38 bd bc bd 60 55 e0 bc f5 98 89 3d
       0.08326598 -0.09215778 -0.02738446 0.06718627
000140 c7 21 2a bd 6d 12 b7 bd 6a 7e a4 3d 33 f2 e9 bb
       -0.04153612 -0.08939061 0.08031924 -0.007139468
000150 7f e3 a3 bd 7d 28 c0 bd a0 47 3c bd 67 53 6d bc
       -0.08002376 -0.093827225 -0.045966744 -0.014485217
000160 dd 97 4d 3d df 26 c9 bd e0 07 0b 3d 2a 8f 6e 3d
       0.050193656 -0.09821867 0.033943057 0.058242
000170 10 4a 42 bd 2d 9f 89 3c 9a 2b 75 3c 00 ef bc bc
       -0.047433913 0.016799534 0.014964009 -0.023063183
000180 80 de 3d 3d 1f d6 8d bd e0 26 17 3d 37 e0 74 3d
       0.04635477 -0.06925606 0.03690231 0.05978414

encoder.layer2.weight f4 [256, 100]
000000 d3 07 57 3d 5a 15 1b bd 85 04 c2 bd e2 07 bd 3d
       0.052497696 -0.03786216 -0.09473518 0.09230019
000010 75 90 b0 3d 4d ce d3 3b 0f 46 c0 bd 0d 67 68 bd
       0.08621303 0.006463802 -0.093883626 -0.056738902
000020 da 5b 01 bc 73 62 b1 3d 67 20 d5 ba ed 45 30 3d
       -0.007895434 0.08661356 -0.0016260267 0.043035436
000030 d0 21 35 bd 4d d6 c1 3c cd f0 75 bb 9d 9a 03 bd
       -0.0442217 0.023661757 -0.0037527562 -0.032129873
000040 9f e1 b8 bd ea 06 6e bd 18 d7 8b bd 22 fe c5 3d
       -0.09027409 -0.058112063 -0.06828135 0.096676126
000050 9a f0 6c bb 48 42 cc bd 33 86 0c bc bd d6 7a 3d
       -0.0036154152 -0.0997358 -0.008576917 0.061239947
000060 4b 0d 83 bd a3 5d 74 bd bd 79 83 bd d3 75 0c 3d
       -0.0639902 -0.05965961 -0.06419704 0.034292053
000070 b7 8f 68 3d 8d c5 4b 3d 67 93 1c bd 27 4e a4 3c
       0.056777682 0.049748946 -0.03822651 0.020056797
000080 b3 cb b2 3c 45 ff c8 3d 00 71 cb 3b 8d ea 43 bd
       0.021825647 0.09814314 0.006208539 -0.047831107
000090 3d 4d 36 bd 9a 58 0b bc c0 46 a9 bc b7 fa ba bd
       -0.044507254 -0.008505011 -0.020663619 -0.09129851
0000a0 fa 15 0a 3d 22 84 98 3d 10 73 32 bd e3 07 39 bd
       0.033712365 0.07447077 -0.043566763 -0.045173537
0000b0 4f 83 9a bd 88 21 b0 bd 33 b5 67 bc f3 d9 0b 3d
       -0.075445764 -0.086001456 -0.014142322 0.0341434
0000c0 25 46 c3 3d 98 b3 81 3d 30 ba 7c bd 1d 59 b4 bd
       0.095348634 0.06333083 -0.061701 -0.088060595
0000d0 3d 24 71 3d 73 be 67 3c 27 5f c5 3c 5a dd b5 3d
       0.05887245 0.014144528 0.024093224 0.0888011
0000e0 07 ce f8 3c 70 c5 07 3d b7 b3 34 3d 82 11 9b 3d
       0.030371679 0.033147275 0.044116702 0.07571699
0000f0 f5 ca 81 3d ed 72 7f bd 9a 00 96 3d 50 50 0d 3d
       0.06337539 -0.06236546 0.073243335 0.03450042
000100 90 ae 14 3d ca 5d 5b bd 80 e7 90 3c 80 a1 49 bc
       0.03629929 -0.05355624 0.017688513 -0.012306571
000110 5a ed 71 bd 0f ad 8d 3d 5d 1a 75 bd 53 f2 03 3d
       -0.059064247 0.06917774 -0.059839595 0.03221352
000120 93 49 af 3c 83 df 7c 3d b0 a0 3b 3d 8a fd 1f 3d
       0.021397388 0.061736595 0.04580754 0.039060153
000130 33 a8 32 3b 68 6a cc 3d 33 29 98 ba dd 12 c2 3d
       0.00272609 0.09981233 -0.0011608958 0.09476254
000140 f3 af 9d bc 5a 40 3f bc 5f 9c 9d bd 2a be 37 3d
       -0.019248938 -0.011673057 -0.07695841 0.04485909
000150 97 b7 82 bd c7 84 3d 3d 00 f4 a5 3a ef 4d ad 3d
       -0.06382673 0.046269204 0.0012661219 0.0846213
000160 97 ee 49 3d c0 4b c4 3d fd 61 00 3d 9a cc 6f 3b
       0.049299803 0.09584761 0.03134345 0.0036590458
000170 8d 15 dc bc a0 48 b7 bd 1b f6 9d bd 8d 4e 91 3d
       -0.026865745 -0.08949399 -0.077129565 0.070950605
000180 d7 3e 68 3d 67 2f 3b bc 3a cd 80 bc 9b 06 83 3d
       0.056700554 -0.011424876 -0.01572286 0.06397744
000190 7d b5 a3 bd 4f cd 86 3d 5f 89 bf 3d da 0f 11 bd
       -0.079936005 0.06582128 0.09352373 -0.035415508
0001a0 67 eb 7c 3d ed 38 ec bc 27 73 b3 bc e3 41 72 bd
       0.061747935 -0.028835738 -0.021905495 -0.059144866
0001b0 48 5a b8 bd ea df 88 3d ad d0 84 3c 7a cf be 3d
       -0.09001595 0.06683333 0.016212786 0.09316917
0001c0 1a 74 28 3d 3b fa 9b bd 37 6a 97 3d 6f d9 b1 3d
       0.041126348 -0.07616087 0.07393306 0.0868405
0001d0 9a ca b5 bc 67 b7 5d bd cd b7 cc bb dd d9 ac 3d
       -0.022191335 -0.054129984 -0.0062474967 0.084399916
0001e0 c5 af ac bd f0 3b 54 bd b7 5a 88 3d 8b df a5 bd
       -0.08431963 -0.051814973 0.066579275 -0.08099278
0001f0 35 a3 8e 3d 83 f1 a8 3d 73 ba 2a bd 8a a0 90 3d
       0.06964723 0.0824919 -0.041681718 0.070618704
000200 9d 2d c5 bd 83 e7 52 bd ca fa 04 3d 3d 6c 44 bd
       -0.09627841 -0.051490318 0.032465734 -0.047954787
000210 17 ea 4b bd eb a1 8d bd cd 26 a4 bd a3 67 86 3d
       -0.049783792 -0.06915649 -0.08015213 0.06562736
000220 ca 9c 28 bd 00 e3 2e 3c 3d 49 ab bd 2f b0 af bd
       -0.04116515 0.010674238 -0.083635785 -0.08578526
000230 da 89 5e bc 07 75 94 3d 13 9f 8d bc 0a c5 b7 3d
       -0.013582671 0.07248884 -0.017287767 0.08973129
000240 40 73 69 bc 6b 8c 8e bd e7 32 98 3d 8d 36 54 bc
       -0.014248669 -0.06960376 0.07431584 -0.012952459
000250 57 6b 11 bd 7a ce 18 3d 6d 96 60 3d 27 07 ca bc
       -0.035502758 0.037306286 0.054830957 -0.024661614
000260 ba b9 4f bd 7a a7 5d bd 5d cb 57 3d 87 90 10 bd
       -0.050714232 -0.054114796 0.052684177 -0.035294082
000270 75 95 b2 3d c8 11 9f bd 17 e4 1a 3d b0 a7 b2 bd
       0.08719913 -0.077670634 0.03781518 -0.0872339
000280 97 28 0e 3d b3 ef a5 bd f0 b7 c2 bd ed 50 31 3d
       0.03470668 -0.081023596 -0.095077395 0.043290067
000290 a0 7e 61 bd 80 b1 a4 bd bd 40 80 bd bd 68 a9 3d
       -0.0550524 -0.08041668 -0.06262348 0.0827193
0002a0 cd aa 1e 3c 8b c6 c8 bd b3 62 f0 bc 0a b4 3d 3d
       0.009684277 -0.09803494 -0.029343938 0.046314277
0002b0 a0 dc b6 3c 9a b0 25 3d 97 b3 61 3d 27 d2 8a bc
       0.022322 0.040451623 0.05510291 -0.016945912
0002c0 ba ec 82 3d f2 8e aa 3d 30 c6 76 3d 35 e3 87 bd
       0.06392808 0.08328046 0.0602476 -0.06635133
0002d0 a2 48 9f bd cb 83 b5 3d f0 96 8a bd cd d0 3f bc
       -0.077775255 0.08863028 -0.0676707 -0.011707497
0002e0 00 07 c6 bd 83 e5 0d 3d 40 f1 06 bc 97 35 37 bd
       -0.09669304 0.034642708 -0.008236229 -0.04472884
0002f0 20 78 89 bd f3 af 55 bd 0a 8e 60 3d 87 61 44 bd
       -0.06712365 -0.05216975 0.05482296 -0.04794457
000300 70 6a 14 bd 0d 34 68 bd 4d 56 ab 3d 6b ff 8b 3d
       -0.03623432 -0.056690264 0.0836607 0.068358265
000310 c7 93 3b bd 5d 08 73 3d f3 4e 6c bd ca 37 26 3d
       -0.04579523 0.059334148 -0.05769248 0.04058055
000320 00 b9 95 3c 5a a4 b9 3d 9d e6 76 bd ad 9d 1d bd
       0.018276691 0.09064551 -0.060278524 -0.03848045
000330 87 45 25 bd e7 1c ce 3c d7 a9 75 3d 40 9c dd 3c
       -0.04034951 0.025160266 0.059976425 0.027052045
000340 00 f2 f8 3c 20 9d 7b 3d 7d 6a 64 bd 07 1b 71 bd
       0.030388832 0.061429143 -0.055765618 -0.058863666
000350 00 c5 83 bc bb 6b 82 3d 43 18 17 3d 80 bf 57 3c
       -0.016085148 0.06368204 0.036888372 0.013168216
000360 6d b3 ac 3d 33 31 be bc 1f bb af 3d 15 a5 b3 bd
       0.0843266 -0.02321682 0.085806124 -0.08771721
000370 40 d0 de bc b5 9b 97 bd 73 86 80 3c a0 41 ad bd
       -0.02719891 -0.07402746 0.01568911 -0.084597826
000380 0a c8 bf bd 4a 2d 5b 3d 8d 70 05 3c bd a0 bc bd
       -0.09364326 0.053509988 0.00814451 -0.09210346
000390 a2 a5 89 bd 30 8e c7 3d 7a a0 91 3c ba 75 7e bd
       -0.06721045 0.09743917 0.017776717 -0.06212399
0003a0 13 33 f5 3c da 8b 42 3d b7 c3 bd bd 40 e3 3a bd
       0.02993158 0.047496654 -0.09265845 -0.04562688
0003b0 35 e2 c9 3d 5d 6b 99 3d ed 80 56 bd cd 83 bd 3b
       0.09857599 0.07491181 -0.052369047 0.005783534
0003c0 7d 3a 5b 3d 00 ac 46 ba d7 e5 06 bd 1a 76 fe bc
       0.053522576 -0.00075787306 -0.032934036 -0.031062175
0003d0 80 4d 17 3d 8d f3 f2 bc 15 83 86 3d cd a8 9c bc
       0.036939144 -0.02965715 0.06567971 -0.01912346
0003e0 5b 48 96 3d 3a e4 87 3c ed f8 b3 bd da 6d 4f bd
       0.073380195 0.01658832 -0.08787713 -0.050641872
0003f0 22 23 b5 bd 33 07 d5 3b 8a a5 ac 3d 57 74 b9 3d
       -0.08844592 0.0065011024 0.084300116 0.09055393

encoder.layer2.bias f4 [256]
000000 27 9b 45 3d 87 5b bf bc f3 61 73 bc b3 56 62 3c
       0.048243668 -0.023359073 -0.014854896 0.013814616
000010 30 b7 5a 3d 47 49 f3 bc b3 07 47 bc 80 78 05 3d
       0.053397357 -0.029698027 -0.012147832 0.03258562
000020 20 b7 d5 3c ba b1 7e 3d 1b 30 a0 bd aa de b1 3d
       0.026088297 0.062181212 -0.078216754 0.08685048
000030 33 87 64 bd 3f b5 86 bd 4d ae d2 bb 20 0d 9c bc
       -0.055793 -0.06577539 -0.0064294697 -0.019049227
000040 f3 56 76 3c db b9 ba bd 27 6f ae 3c 40 29 11 3c
       0.015035379 -0.0911748 0.021293236 0.008859932
000050 6a a0 5a bd 3b 14 b4 bd 83 46 bb bd 40 3b da bc
       -0.05337564 -0.08792921 -0.091443084 -0.02663958
000060 9a 62 6d bb d7 51 27 bd 27 70 95 3c 83 7a 3a bd
       -0.0036222101 -0.040849533 0.018241955 -0.045526993
000070 d3 ed 5d bd 1d ae 31 bd 40 da 81 3c 80 ae fa bc
       -0.054181885 -0.043378938 0.01585114 -0.030600786
000080 23 c2 00 3d 9a e4 2b 3b ed 84 1d bd 67 28 a9 3b
       0.031435143 0.0026228786 -0.038456846 0.005162287
000090 9a cd cf 3c d7 64 b4 3d 33 fb 06 3c c0 21 08 bc
       0.025366593 0.08808296 0.0082386015 -0.008308828
0000a0 ea b8 c7 3d 5d 2c 16 3d 27 e1 46 bd da 1b ac bd
       0.097520664 0.036663402 -0.048554566 -0.0840375
0000b0 3a 4b 6b bd ea e0 88 3d d3 eb ac 3c cd de 20 bc
       -0.05744479 0.06683524 0.021108544 -0.009818745
0000c0 1a ed d6 bb f0 b4 b9 bd e7 d7 18 bc 00 22 10 3c
       -0.0065590264 -0.09067714 -0.009328819 0.008797169
0000d0 0a 0a 66 3d 02 98 a5 3d 2d 28 ba 3d 4d d0 e3 bb
       0.056161918 0.08085634 0.09089694 -0.0069523216
0000e0 ba f7 bd 3d 5a 43 40 bd f0 0f 2d 3d 4d 28 84 bd
       0.09275766 -0.04693923 0.042251527 -0.06452999
0000f0 bf b1 c5 3d ed d4 c8 3c 35 70 8d bd da 37 77 bd
       0.09653043 0.024515593 -0.069061674 -0.060356
000100 b8 2b 90 3d 8a a4 89 bd cd af fa bc 48 71 86 bd
       0.07039589 -0.067208365 -0.030601406 -0.065645754
000110 60 d3 91 bd 62 74 b1 bd 3a 21 42 3d 0d f6 29 3c
       -0.07120395 -0.086647764 0.04739497 0.0103736045
000120 27 32 96 bd f7 1a 7d bd b3 84 a4 bc a7 f8 c1 bd
       -0.073337846 -0.061793294 -0.020082807 -0.09471255
000130 b3 31 a8 bd 02 8a c9 bd 00 6c ce 3a 13 c5 de 3c
       -0.082126044 -0.09840776 0.0015748739 0.027193582
000140 1a e0 bc 3c 5a 5e 38 bc 80 21 cd bc cb e5 af 3d
       0.023056079 -0.011252964 -0.025040388 0.085887514
000150 1a 7e d8 3b 6d 25 5e 3d ea b3 90 3d 87 fe f1 bc
       0.0066068294 0.05423491 0.07065566 -0.029540313
000160 90 e2 02 bd da 0a 39 3d 57 e4 1d 3d 68 2d b0 bd
       -0.031954348 0.045176364 0.03854784 -0.086024106
000170 50 04 73 3d df c7 9d bd 80 c8 ac bb 9d 59 2f bd
       0.059330285 -0.07704138 -0.005272925 -0.04281007
000180 ea 74 cb 3d 1d 19 50 bd 5f 7d 81 bd 1f 5c a2 bd
       0.09934409 -0.0508052 -0.06322741 -0.07927727
000190 e0 9d 97 bd f3 d6 21 bd 5a 61 6e bd 7a cd 98 3d
       -0.07403159 -0.039511632 -0.05819831 0.074610665
0001a0 53 13 b2 3d 9d 7b bd bd 20 30 a1 3c 5f 24 bc bd
       0.08695092 -0.09252093 0.019676268 -0.09186625
0001b0 53 bc 4c bd f3 1e 73 bd 07 b3 2a bd ad 75 17 3d
       -0.049984287 -0.059355687 -0.04167464 0.03697746
0001c0 f3 24 03 bc 0a 58 ab 3d 00 66 0b bc 8d 5c f4 3c
       -0.008004415 0.083664015 -0.008508205 0.029829288
0001d0 47 44 97 3c 17 ea 18 bd b3 14 77 bc d3 6e 56 3d
       0.018465174 -0.03733262 -0.015080619 0.052351784
0001e0 0d aa 67 bd 2a bf 6d 3d ad d1 ec bc e8 87 89 3d
       -0.056558657 0.058043636 -0.028908575 0.06715375
0001f0 78 65 8d 3d 73 8a 4e bc 80 b0 b7 3d fa e7 4e bd
       0.06904119 -0.012606251 0.089692116 -0.0505142
000200 25 c4 c5 3d 6a 30 87 3d 13 fb 8d bd e7 d7 1c 3d
       0.09656552 0.06601031 -0.06932654 0.038291838
000210 a2 b0 b8 bd 15 bc 94 3d 33 16 70 bd d0 42 a5 3d
       -0.09018065 0.07262436 -0.05861492 0.08069384
000220 da 70 17 3c ed 67 de 3c 0a 81 78 bd e3 17 ba 3d
       0.0092432145 0.027149165 -0.060669936 0.09086587
000230 1a 2b bb bb da 24 20 bd c0 b5 c3 bc 67 d2 ec 3c
       -0.005711925 -0.039097644 -0.023890376 0.028908921
000240 0d b8 7d bd b3 9c ee bc 27 9c 18 bd 33 2a 17 bd
       -0.061943103 -0.029127454 -0.037258293 -0.03690548
000250 c0 71 9b 3c 67 e0 05 3b 97 01 ac bd 1d dd 4a 3d
       0.018975139 0.0020427944 -0.08398741 0.049527276
000260 a8 45 93 bd 05 e0 97 3d 58 7f b7 3d ca 1c 0c 3d
       -0.0719102 0.07415775 0.08959836 0.034207143
000270 40 c7 a1 3c 73 5d 41 3c 7a 69 98 3d c0 13 9b 3c
       0.01974833 0.011802065 0.07441993 0.018930316
000280 33 85 a5 ba 8d 8b b8 3d 27 49 9e bd 1d ef a4 3d
       -0.0012628197 0.09010992 -0.077287965 0.0805342
000290 eb 2d ae 3d ed a7 80 3d 4d 67 b8 bd 40 66 99 3d
       0.08504852 0.06282029 -0.09004078 0.07490206
0002a0 ca 7b 15 3d 67 f4 5c 3c 57 db 85 3d da d3 02 3c
       0.036495008 0.013486004 0.065359764 0.00798508
0002b0 07 79 a8 3d df 0a b3 3d bd 3b be 3d 4d fc f3 bc
       0.08226209 0.08742308 0.09288738 -0.029783392
0002c0 d7 af 4a bd 27 91 a7 3c 80 7f 55 3c 73 d1 47 3c
       -0.0494841 0.020454956 0.013030887 0.012195933
0002d0 ca 44 4d 3d 3d d2 6e 3d c0 58 72 bd c8 d0 93 3d
       0.05011443 0.058305968 -0.05916667 0.07217556
0002e0 8d a4 33 bd 33 ae 95 3b 7b 1b 80 3d da 0d 91 bc
       -0.0438581 0.0045678853 0.062552415 -0.0177068
0002f0 cd f4 ac bd 57 89 a3 bd 40 48 8d bc 6d 8c aa 3c
       -0.084451295 -0.0798518 -0.017246366 0.020818913
000300 77 b1 94 bd 0d 9d 2e bc 57 7e 15 bd c3 8b 5d 3d
       -0.07260411 -0.010657561 -0.03649744 0.054088365
000310 73 9d 5a bc c7 aa 8e bd 30 48 2e bd 1a ec ea bb
       -0.013343203 -0.06966167 -0.042549312 -0.007169259
000320 93 78 bd bd 47 4d e9 3c ba 8e e4 bc 67 19 00 3d
       -0.09251513 0.028479232 -0.027900089 0.031274226
000330 37 5d b4 bd 6d 0f b3 3c 3f 20 ad bd c3 dd 18 3d
       -0.08806842 0.021857942 -0.08453416 0.037320863
000340 33 f6 35 3c 9a 7b 62 bc 63 27 c4 3d 67 93 b4 3c
       0.011106062 -0.013823414 0.09577825 0.022042943
000350 13 f3 ce 3c 53 6d 28 bd b3 6d 66 3c 2d a2 8e bd
       0.025262391 -0.041119885 0.01406424 -0.06964526
000360 23 2d 44 bd 25 95 9b 3d b0 db b1 3d e7 df 62 bd
       -0.04789461 0.075968064 0.0868448 -0.05538931
000370 1a be 96 3b f0 23 a0 bd 83 2b 48 3d cd 56 ce bb
       0.0046002986 -0.078193545 0.04886962 -0.0062969686
000380 73 a5 69 bc ea 94 07 3d c3 5e 0c bd b7 bd bd 3d
       -0.014260638 0.033101 -0.03427006 0.09264701
000390 5a b3 d8 3c 0a 8f 06 3d ed 51 5b 3d 0d 88 be bc
       0.026452709 0.032851256 0.053544927 -0.023258233
0003a0 4a b7 b7 3d 2d a7 87 bd 0f 1f 8c bd 00 52 4c 3b
       0.089705065 -0.06623683 -0.068418615 0.0031176805
0003b0 c0 bc b3 3c 8d ba 7a bd c0 99 5e bc e8 66 b4 3d
       0.021940589 -0.061213065 -0.013586462 0.0880869
0003c0 e3 58 70 3d bd 1b 2f 3d 03 27 3f 3d a0 bd 5b bd
       0.05867852 0.042751063 0.046668064 -0.053647637
0003d0 82 c1 95 3d 1a c6 67 bc 73 49 18 bc 5a 92 9e bc
       0.07312299 -0.014146352 -0.009294855 -0.019356895
0003e0 5a 90 b0 bd 28 9a 8c bd 12 16 8a bd 00 8d a8 3d
       -0.08621283 -0.068653405 -0.06742491 0.082300186
0003f0 13 fe 60 3d 40 20 5a 3c 67 a7 17 bc 67 8f c6 bd
       0.054929804 0.013313353 -0.00925622 -0.096953206

fc_mu.weight f4 [2, 256]
000000 aa fb 58 3d 00 3c 72 3b 2c 68 b2 3c 8c 9f eb bc
       0.05297438 0.0036962032 0.021778189 -0.028762601
000010 c0 b2 ac 3a 68 d7 2c 3c 78 f8 b6 3c b8 53 a5 bc
       0.001317583 0.010549404 0.022335276 -0.020181522
000020 c0 fd a2 3a f4 a4 8b 3c b0 36 19 bc c0 f3 fe 3a
       0.0012435243 0.01704643 -0.009351417 0.0019451305
000030 80 0b ef 3c 2a 1f 4e 3d 0c d3 27 3d 80 34 d1 3c
       0.029180288 0.05032269 0.040972754 0.02553773
000040 b8 f2 a8 bc 9a 3e 05 3d f0 67 ca bc 48 9e 77 bd
       -0.02062355 0.032530405 -0.024707764 -0.060453683
000050 98 fb c9 3c 30 43 98 3c e4 2a 2a 3d bc 08 83 3c
       0.024656102 0.018586725 0.04154481 0.015995376
000060 04 84 e3 bc 98 09 5a 3d 10 76 84 3c a6 13 2b 3d
       -0.02777291 0.053231806 0.016169578 0.041766785
000070 66 24 2c bd e0 ae ed 3c 68 58 5f 3d c6 d6 00 3d
       -0.0420269 0.029014051 0.05452767 0.031454824
000080 b8 cd 0c 3c 92 c3 21 3d 82 d3 7e 3d 8e 62 2f 3d
       0.008593969 0.03949315 0.06221343 0.0428186
000090 86 d5 30 3d 1e 4e 73 bd e0 8e 53 bc 54 a5 c2 3c
       0.04317238 -0.05940067 -0.012912482 0.023760475
0000a0 00 46 0d 3d d8 53 7a 3c 5c 38 69 3d 08 18 9b bc
       0.034490585 0.015278779 0.056938514 -0.018932357
0000b0 a0 ae 4c 3d a0 6a 4f bd 10 4d 4f 3c d8 8a 61 3d
       0.049971223 -0.050638795 0.0126526505 0.055064052
0000c0 42 b0 2d bd 68 9f a5 3c dc 20 5f bd 64 10 b0 bc
       -0.04240442 0.020217612 -0.054474697 -0.02149219
0000d0 7e 7f 21 3d 9e 99 4d bd 2a 68 3f bd 30 63 44 3d
       0.039428227 -0.05019533 -0.046730198 0.047946155
0000e0 f0 7f 01 3c b0 d1 72 3c 20 a1 81 bc 86 8d 61 bd
       0.007904038 0.014820501 -0.0158239 -0.055066608
0000f0 dc 00 a5 3c 36 3d 66 bd d4 81 7d bd 16 7a 72 bd
       0.020142011 -0.05621072 -0.061891392 -0.05919846
000100 c4 63 05 3d 40 92 29 bd 38 97 3a 3c 40 56 4f bb
       0.032565847 -0.04139924 0.011388592 -0.0031637102
000110 20 fa 20 bc d0 36 99 bb 04 00 4d 3d 10 b3 1b 3d
       -0.009825259 -0.0046757236 0.050048843 0.038012564
000120 d2 5a 42 bd 80 51 49 ba bc d2 e5 bc 30 9a b2 bb
       -0.047449894 -0.0007679686 -0.028054588 -0.0054505095
000130 c4 ba ff 3c b4 75 af 3c d6 95 07 3d 40 72 95 3a
       0.031216986 0.02141843 0.03310188 0.0011401847
000140 28 be 36 3c c6 5b 4b bd 00 72 47 bd 64 5f c8 bc
       0.011153735 -0.04964807 -0.048692703 -0.024459548
000150 04 5f 06 3d aa 40 66 3d 0a d6 7a 3d 40 78 8d bb
       0.032805458 0.056214012 0.06123928 -0.0043173134
000160 c0 69 4b 3b 04 1a 9d 3c 90 f8 bd 3b 60 a6 e6 bc
       0.0031038374 0.019177444 0.005797453 -0.028155506
000170 38 17 0f bc b0 9d 55 bd c0 2c ca 3a 70 46 b8 3b
       -0.008733563 -0.052152336 0.0015424713 0.005623631
000180 b6 93 3b bd 7c 16 f1 bc 5c 42 85 3c 10 23 99 3b
       -0.045795165 -0.029429667 0.016266994 0.004673369
000190 10 8b 70 3c 58 d2 8e bc 58 21 12 3c 28 4a a4 bc
       0.014681593 -0.017434284 0.008919083 -0.020054892
0001a0 a2 b0 5f bd 66 5c 5e bd 1a 89 55 3d 54 88 90 3c
       -0.05461181 -0.054287337 0.052132703 0.017643131
0001b0 82 66 7f bd 08 f2 0b 3d bc 80 67 3d bc 55 2e 3d
       -0.06235362 0.034166366 0.056519255 0.04256223
0001c0 30 24 de 3c e2 ca 04 3d 48 bb 06 3c c0 14 1c bd
       0.027116865 0.032420047 0.008223362 -0.038105726
0001d0 4a f9 55 3d f8 61 13 3d ac d9 c2 bc b0 b5 95 3c
       0.052239694 0.035982102 -0.023785435 0.018275112
0001e0 1a 6d 32 3d b8 7b 0c 3c 8a dd 01 bd 00 3c bc b9
       0.04356108 0.008574419 -0.031705417 -0.00035902858
0001f0 ce 8c 13 3d d0 ce 24 bc c0 c8 7c 3d 40 1c 80 3a
       0.036022954 -0.010059074 0.061714888 0.0009774044
000200 76 5a 00 3d 28 7d ea bc 3c a2 d5 3c d4 1e c1 3c
       0.03133627 -0.028624132 0.026078336 0.02357427
000210 76 dd 3a 3d b6 34 25 3d e0 96 5c bc fc 3f 7d bd
       0.045621358 0.040333472 -0.013463706 -0.0618286
000220 30 13 91 3c 86 a3 20 3d 04 97 4e 3d 32 5b 24 3d
       0.017709345 0.039218448 0.05043699 0.040126033
000230 78 3d 6e bc ba 34 27 3d a0 4c 90 3c c2 1e 16 3d
       -0.0145410225 0.04082177 0.017614663 0.036650427
000240 f6 43 23 3d 30 cb 97 bb 5e cf 41 bd 9a e4 1b bd
       0.039859734 -0.004632376 -0.0473169 -0.03805981
000250 48 7b 21 bd da 37 5f bd 36 fb 1e 3d d8 57 1c 3d
       -0.03942421 -0.054496624 0.038813792 0.03816971
000260 40 95 06 3d f8 90 24 bc 1c 65 99 bc 6c 83 1b 3d
       0.03285718 -0.010044329 -0.01872497 0.03796713
000270 48 1f 1f 3d da 39 7f 3d 00 d9 3a 3b 3c 94 c9 3c
       0.03884819 0.06231103 0.002851069 0.024606816
000280 18 2e 0f 3d 14 97 44 bd 14 a3 37 3d 28 b4 34 bd
       0.034956068 -0.04799564 0.044833258 -0.044117123
000290 88 b9 13 3c 66 45 16 3d 62 14 7b 3d 00 4a 08 bd
       0.009016402 0.036687277 0.061298735 -0.033273697
0002a0 be 9f 17 3d 16 7a 1e bd 2e fd 22 3d 90 8b 1e bc
       0.037017576 -0.03869065 0.039792232 -0.009676829
0002b0 7a 8b 26 bd d4 34 d5 bc a6 ff 41 bd 7a b5 22 3d
       -0.04066036 -0.026026167 -0.047362946 0.03972385
0002c0 60 eb f2 3c f0 25 08 3c 1c b8 7b 3d 28 09 87 bc
       0.029653251 0.008309826 0.061454877 -0.016483858
0002d0 f2 cc 09 bd 0c 8b a8 3c 74 fd f2 bc 98 fe c8 bc
       -0.033642717 0.020574115 -0.029661871 -0.024535462
0002e0 8e 9a 76 bd 60 a4 17 3b 8e a2 35 3d 4a f5 6c 3d
       -0.06020599 0.0023138747 0.044344477 0.057851113
0002f0 90 05 b8 3b 32 9e 7a bd 40 f8 32 bc 3c 16 93 3c
       0.0056158975 -0.061186023 -0.010923445 0.017954938
000300 78 ce 21 bc 9c 81 ab 3c 24 32 ad 3c 04 22 07 bd
       -0.009875886 0.020935826 0.021142073 -0.032991424
000310 54 17 ec 3c 52 12 0d 3d b8 2d 45 3c 64 e1 4b 3d
       0.028819717 0.0344413 0.012034826 0.049775496
000320 5e 15 66 bd 58 5f 63 3c 50 1c 0f 3c 38 8f 45 3d
       -0.05617272 0.013877712 0.008734778 0.048232287
000330 fc 7f b8 3c 12 9a 15 bd 40 bc d0 bc f4 c1 6e 3d
       0.022521965 -0.036523886 -0.02548039 0.058290437
000340 7c 0c 79 bd 00 24 b1 38 e0 fe fd 3b c4 93 14 3d
       -0.06080292 8.446723e-05 0.0077513307 0.036273733
000350 40 ae 66 3c 48 a1 6c 3c e8 b4 39 bd de cd 59 3d
       0.01407963 0.014442749 -0.04533854 0.053174846
000360 1c 96 cf bc 0e 0a 6d 3d 02 7e 6f 3d ae 06 6e bd
       -0.025340132 0.057870917 0.05846978 -0.05811184
000370 84 59 25 3d 80 24 35 3b b0 e8 99 bc 28 f9 37 bc
       0.040368572 0.0027640164 -0.018787712 -0.011228837
000380 ac ed 74 bd ea 96 4b bd 44 c1 86 bc 26 9c 53 3d
       -0.059796974 -0.04970447 -0.016449578 0.051662587
000390 c2 6d 4d 3d e0 c5 3d 3b 8a 5d 31 bd ac f2 62 bd
       0.0501535 0.0028957054 -0.043302096 -0.05540721
0003a0 d4 54 a3 3c ec 26 cd 3c 88 a3 f8 3c 5c 04 27 3d
       0.01993791 0.025042973 0.030351415 0.04077564
0003b0 14 35 2c 3d c8 f4 00 bc bc 26 ee 3c f8 44 5a 3c
       0.042042807 -0.00787086 0.029071204 0.0133221075
0003c0 b4 26 2f 3d 3e ee 29 bd a8 17 31 bc 3e b2 42 bd
       0.04276152 -0.04148697 -0.010808863 -0.047533266
0003d0 9c 18 6d bd f0 bf 41 bc 8e 88 6e bd 20 3a 7d bb
       -0.057884797 -0.011825547 -0.058235697 -0.0038639382
0003e0 b8 15 dc bc d6 19 76 bd de 24 48 bd ec 9d a0 3c
       -0.026865825 -0.060083233 -0.048863284 0.019606553
0003f0 24 44 75 bd 40 c9 58 bc 70 b4 3e bd 5a 1e 75 3d
       -0.059879437 -0.0132315755 -0.046558797 0.0598434

fc_mu.bias f4 [2]
000000 00 9f b7 bb 50 78 9d 3b
       -0.005603671 0.004805602

fc_var.weight f4 [2, 256]
000000 f0 0f 31 bc 24 ae 78 bd d4 37 4d 3d e0 34 3e bd
       -0.010807022 -0.06071295 0.05010207 -0.046437144
000010 c0 1e 48 3d 30 1b 7e 3d 88 13 ec bc 2c d7 12 3d
       0.04885745 0.062037647 -0.028817907 0.035849735
000020 2c ca 0e bd f8 55 83 bc f8 17 38 3d 80 84 c4 bb
       -0.034860775 -0.016032204 0.044944733 -0.0059972405
000030 a0 e1 b6 3b 64 9c 0f 3d a2 6d 72 3d 16 e9 02 3d
       0.005581096 0.035061255 0.059186585 0.03196057
000040 94 15 e3 3c 48 35 70 3d c4 ee 58 3d fc 1c 04 bd
       0.02772025 0.058644563 0.05296208 -0.032254204
000050 00 d5 95 3c f8 cf 9e bc e6 7c 52 bd d8 d5 20 3d
       0.018290043 -0.019386277 -0.051388644 0.039266437
000060 80 f8 88 ba a8 b6 7b bd 12 72 2b 3d 72 f1 2f 3d
       -0.0010450035 -0.06145349 0.041856833 0.04295487
000070 a0 b0 60 bb a0 c2 a9 bb a0 69 04 bd 90 ac 81 3c
       -0.0034284964 -0.005180672 -0.032327294 0.015829355
000080 b2 fd 0d 3d 90 4d 06 3d c2 fb 78 bd c0 4a 50 3c
       0.03466577 0.032788813 -0.06078697 0.012713134
000090 da 22 19 bd 7c 7b ea 3c 3c fe 42 bd 08 e4 2a 3c
       -0.037386753 0.028623335 -0.047605738 0.010430343
0000a0 24 2b 96 3c 58 5a 19 3c 30 d0 3f bc 26 a4 7a bd
       0.018331118 0.009359919 -0.011707351 -0.0611917
0000b0 60 ef e1 3b c0 33 f6 3b 36 dd 3a 3d c4 47 05 bd
       0.006894991 0.0075134933 0.04562112 -0.032539144
0000c0 34 4a d1 3c 6e e5 27 3d c0 16 8b ba f0 8e da 3b
       0.025548078 0.040990286 -0.0010611638 0.0066698715
0000d0 c2 dd 4e bd 28 9c fc 3c f0 e6 ee bc ea 9d 3d bd
       -0.050504453 0.03083618 -0.029162854 -0.046293177
0000e0 80 91 ba 3c 6c 6b 0e 3d 40 9b 0b bb 60 c9 95 bc
       0.022774458 0.034770414 -0.0021302253 -0.0182845
0000f0 f0 5a 1a 3d 60 f1 1f 3b f8 75 2d 3d 20 b2 bb 3b
       0.03768438 0.0024405345 0.042348832 0.0057280213
000100 9a 4c 1d 3d c0 ad 12 bb 58 a9 94 bc a0 9b 11 bd
       0.03840313 -0.0022381395 -0.018147156 -0.035548806
000110 5a 8b 6a 3d 08 4b 60 3c f6 68 07 3d 20 e6 fa 3b
       0.057261802 0.013689764 0.033059083 0.0076568276
000120 c2 41 6e 3d 56 32 44 3d e8 a7 7b 3c f0 ec b2 3c
       0.05816818 0.047899567 0.015359856 0.021841496
000130 ac d7 cf bc ce 17 27 bd 4c 0d de 3c 84 a7 a0 3c
       -0.025371395 -0.040794186 0.02710595 0.019611128
000140 00 9f f5 b9 e2 b3 16 bd 28 fa fb 3c 50 ff e0 bb
       -0.00046848506 -0.036792643 0.030758932 -0.006866373
000150 fc 8f d5 3c b0 71 1d bd 70 2a a3 3b d2 52 0b bd
       0.026069634 -0.0384385 0.004979424 -0.03401453
000160 da e2 6e 3d 66 c6 2c bd ac 23 af bc 6c ba 58 3d
       0.05832181 -0.042181395 -0.021379314 0.05291216
000170 a0 0c fc bc 00 bf 40 3d c4 45 46 3d 40 e5 fb 3c
       -0.030767739 0.04705715 0.048406377 0.030748963
000180 9e 83 39 3d 6c e3 82 bc a0 0b a4 bb 00 51 14 ba
       0.045291536 -0.015977584 -0.0050062686 -0.0005657822
000190 00 0a e2 3a c8 6a 44 bd 90 fb 25 3d 78 51 11 3d
       0.0017245412 -0.047953397 0.04052311 0.035478085
0001a0 98 5d 0d 3c 8c cb 04 bd 18 dd 9a 3c c0 35 04 bb
       0.0086282715 -0.03242068 0.018904254 -0.002017364
0001b0 78 40 0e 3d c0 d6 51 bd 12 32 6b bd 5a c7 23 3d
       0.03472945 -0.051230192 -0.057420798 0.03998504
0001c0 bc 3d 06 3d 60 14 28 bc 78 55 8e bc 2c 6f 7d 3d
       0.03277372 -0.010258764 -0.017374739 0.0618736
0001d0 d2 88 09 bd 68 db 36 bd 10 33 93 3b 40 aa 5a bb
       -0.033577748 -0.044642836 0.004492171 -0.0033365637
0001e0 9c 19 e5 bc 44 19 26 bd d8 e8 27 bd e0 a6 6e bb
       -0.027966313 -0.04055144 -0.04099354 -0.0036415383
0001f0 32 f7 7e bd 8a b8 39 3d 64 b0 98 3c 08 21 5e bd
       -0.062247463 0.045342006 0.018638797 -0.05423072
000200 40 ab 15 3c d8 b4 0e 3c b8 51 52 3d 30 a5 c3 3c
       0.009135067 0.008710109 0.051347464 0.023882478
000210 24 8f 1a 3d ba 7f 1b bd 18 27 dc bc 10 58 4c bc
       0.037734166 -0.037963606 -0.02687411 -0.012472168
000220 18 ea 48 3d 04 7b 8f 3c c4 5a 07 bd 04 02 98 3c
       0.049051374 0.017514713 -0.033045545 0.018555649
000230 98 f6 a2 bc ce 7c 5a bd e8 85 42 3c ca d0 76 3d
       -0.019892976 -0.05334168 0.011872746 0.06025771
000240 94 f3 60 3d 98 d0 61 3d c0 44 11 3c a0 6c 52 bb
       0.054919794 0.05513057 0.008866489 -0.0032108203
000250 78 9b 4f bc c6 2e 02 bd 2c d7 e1 3c c6 fa 3d 3d
       -0.012671344 -0.031782888 0.027568422 0.046381734
000260 b4 ff fb 3c da a9 03 bd c0 a8 47 3d b8 dd 1d 3c
       0.030761577 -0.032144405 0.048744917 0.009635381
000270 1a 0a 6c bd ac 2d da 3c 40 6a 21 3b 0c 26 76 3d
       -0.05762682 0.026633106 0.002462998 0.060094878
000280 18 fe 67 bd 14 f9 3b bd 00 fc 03 3d 80 c1 28 ba
       -0.056638807 -0.045891836 0.032222748 -0.0006437525
000290 48 0a d0 bc 24 9c 06 bd b0 67 76 bc 18 07 e5 3c
       -0.025395527 -0.03286375 -0.015039369 0.027957484
0002a0 ca df 09 3d 70 46 d3 bb 12 e1 50 3d 40 57 7f 3c
       0.033660688 -0.006447606 0.050995894 0.015584767
0002b0 10 4a 3d bd 80 eb 8d bc a0 eb c1 bc 40 8f b7 bc
       -0.04621321 -0.01732421 -0.023671925 -0.022407174
0002c0 2c a6 a8 3c 40 2f 4b 3b 20 c7 75 bd 92 6a 09 3d
       0.02058705 0.0031003505 -0.060004354 0.0335489
0002d0 48 13 dc bc 30 94 81 bb 10 a3 14 bd 6c 28 38 bd
       -0.026864663 -0.003954433 -0.03628832 -0.044960424
0002e0 a0 b9 ff 3c 60 b4 50 bb 20 10 6d 3b 74 d3 b9 3c
       0.031216443 -0.0031845793 0.0036172941 0.022683837
0002f0 f4 19 62 3d a8 64 8f bc 80 d7 a8 ba b4 69 68 bd
       0.055200532 -0.017504051 -0.0012881607 -0.05674143
000300 00 ee 4e 3a 20 83 e6 3c 8e 6b 4d 3d 2c 67 73 3d
       0.0007893741 0.028138697 0.0501514 0.059424564
000310 66 90 2f 3d 0a b2 7c bd d8 7d 4d bc b0 d2 c1 3b
       0.04286232 -0.06169323 -0.0125422105 0.0059150085
000320 e0 12 4d bc 8c 6a 97 bc 38 88 92 bc 5a 6d 1a 3d
       -0.012516707 -0.018483423 -0.01788722 0.037701942
000330 f0 9b 8f bc d2 67 12 bd 40 1e 4f bc dc b4 4d bd
       -0.017530411 -0.035743542 -0.0126414895 -0.05022131
000340 86 8e 68 3d 26 25 03 bd fa b1 36 3d 80 3b 60 3b
       0.056776546 -0.03201785 0.044603325 0.0034215152
000350 68 1f 7b bc 94 5e e6 bc da 17 39 3d 88 a8 3e 3d
       -0.015327312 -0.02812127 0.045188762 0.046547443
000360 10 0c 54 bd 30 60 c2 3c 5c fb cc 3c c4 f2 da 3c
       -0.051769316 0.023727506 0.025022201 0.026727088
000370 42 92 56 bd 52 2f 64 3d c0 c2 73 3b da 25 03 bd
       -0.052385576 0.05570919 0.0037194937 -0.03201852
000380 00 b2 45 3c aa fe 72 3d b4 f8 d0 3c e0 47 6a 3c
       0.012066364 0.059324898 0.025509216 0.014299363
000390 60 91 7e bc ea ed 58 3d 98 b2 53 bd 10 ec 9a bc
       -0.01553759 0.052961268 -0.051683992 -0.018911391
0003a0 1c f3 da 3c 60 fe d3 3b 1c 59 6c 3d 36 1e 0e bd
       0.026727252 0.006469533 0.05770217 -0.03469678
0003b0 88 71 2d 3c 72 5d 3c 3d e0 bb 31 3b 72 c9 08 bd
       0.01058615 0.045987554 0.002712004 -0.03339524
0003c0 f6 d7 67 bd f8 95 12 bd 30 07 ec bc d0 61 5b bd
       -0.05660244 -0.035787553 -0.028812021 -0.05356008
0003d0 74 b8 f4 3c 74 2e 15 bd f8 ab 8a 3c 40 4c d4 3c
       0.02987311 -0.036421254 0.016927704 0.025915265
0003e0 ec 39 70 bd bc 08 a8 3c c0 c4 18 bd 64 14 04 bd
       -0.05864899 0.020511977 -0.03729701 -0.03224601
0003f0 76 69 33 bd 48 64 7c 3d 80 28 f6 bb 00 dc 0d 39
       -0.043801747 0.061619073 -0.007512152 0.00013528764

fc_var.bias f4 [2]
000000 f0 0f 62 bc 28 a7 51 bd
       -0.013797745 -0.051184803

decoder.layer0.weight f4 [2, 2]
000000 33 2b f0 be 5c e5 aa 3e 62 ba 0b bf 57 89 bc 3e
       -0.46907958 0.33378112 -0.5458127 0.36823532

decoder.layer0.bias f4 [2]
000000 37 d0 90 3e fb 3b 55 3e
       0.28283855 0.20823662

decoder.layer2.weight f4 [100, 2]
000000 5d c4 15 bf 8e b5 1b bf c8 d6 03 3e bb 8d 00 bf
       -0.5850275 -0.60823905 0.12874901 -0.50216264
000010 94 42 20 bf bb 91 35 3e 6e 3f bb bd 4f a9 02 bf
       -0.6260159 0.17731373 -0.09142958 -0.51039594
000020 b9 3e 95 3e 83 d9 dd 3e 6d 3a 11 3f 8f f7 0a be
       0.29149416 0.4333001 0.56729776 -0.13570999
000030 9d 39 2a 3f de cd f6 3e 1f 4c 9a be e6 fa 12 3e
       0.6649416 0.4820394 -0.301362 0.14353523
000040 16 98 fa 3e 63 2f a0 be b8 3c f5 3e b1 d1 97 3e
       0.48944157 -0.31286153 0.47897887 0.2965217
000050 a4 a9 df 3e a2 ad 5c be 8c 16 ea 3d 0d b1 1d 3f
       0.43684113 -0.2155061 0.11430082 0.61598283
000060 7d 23 32 3f fb 98 ac 3c b6 13 bd bd 1a 45 eb be
       0.695854 0.02106904 -0.09232275 -0.45951158
000070 9f d9 55 be d8 8d 6b 3e 63 53 71 3e e5 8e 19 3c
       -0.20883797 0.23003328 0.23566966 0.009372448
000080 ed 75 b2 be f2 df c3 be 17 cb 34 bf 88 70 17 bf
       -0.34855595 -0.38256794 -0.7062239 -0.59156084
000090 14 db b1 3e cc 6f 85 3c f2 6a 25 3e b8 c2 9a 3e
       0.34737456 0.01628866 0.16154078 0.30226684
0000a0 e5 c5 1d 3e 2a 1a 16 bf af 11 8e 3e db 7e 3e bd
       0.15407522 -0.58633673 0.27747867 -0.046507698
0000b0 4a a1 0a 3e 28 d2 3f 3e b3 9b 30 3e df dd 31 bf
       0.1353809 0.18732512 0.17246895 -0.69479173
0000c0 b2 00 af bc 96 c7 28 bf 0f 63 46 3e 7c bb 91 be
       -0.021362636 -0.65929544 0.19373725 -0.28463352
0000d0 51 e4 8b be a1 f6 f1 be 12 4b 27 3e a4 65 c7 bd
       -0.2732263 -0.47258475 0.16337231 -0.09736183
0000e0 a5 da 09 bf ee 15 48 be 33 95 a8 bc 8b 71 28 3f
       -0.5384925 -0.19539616 -0.020578956 0.6579825
0000f0 9e 65 e0 3e 4d 3f 2f bf 04 95 a1 3e fd 28 9a be
       0.43827528 -0.68455964 0.31559002 -0.30109397
000100 58 6c 74 3e 4c 6d ed 3e 75 92 70 be be 53 10 bb
       0.23869455 0.4637245 -0.23493369 -0.002202257
000110 d2 4f e2 3e 11 8a fc 3b 58 87 31 be d4 de 18 3f
       0.44201523 0.0077068885 -0.17336786 0.5971501
000120 49 89 6c be f5 d7 78 3c d1 74 15 bf 32 fa ce be
       -0.23099245 0.015188207 -0.5838137 -0.4042526
000130 8d 15 0d 3f 47 89 f6 be 33 a8 14 3e 03 64 13 bf
       0.5511101 -0.4815161 0.14517288 -0.5757448
000140 fd 8c 55 3d 86 65 7f 3e 5b bc 09 3f fb 01 84 3e
       0.05213641 0.24941072 0.5380303 0.2578276
000150 fb 2b f9 be 3f cd 1a bf d2 4e 10 3f e1 0c 9c bd
       -0.48666367 -0.6046943 0.5637027 -0.07619644
000160 17 05 85 be ea 6a 8b 3e 08 c3 39 be 62 59 67 3e
       -0.25980446 0.27230006 -0.18140805 0.2259269
000170 fd 07 50 3e dc e0 2f 3f 24 2a 18 bf 35 35 04 3f
       0.20315547 0.68702483 -0.594393 0.5164369
000180 98 a0 2f 3f 24 2c 26 be 65 2b 14 3e 2d 97 8b 3e
       0.6860442 -0.16227776 0.14469679 0.27263775
000190 52 a7 b5 3d 01 af 0d bf d1 72 dd 3e 97 52 18 3f
       0.088698044 -0.5534516 0.4325166 0.5950102
0001a0 8c 83 9d be 21 58 66 3e 56 ca 2c 3f 15 a4 b5 3e
       -0.30764425 0.22494556 0.6749624 0.35476747
0001b0 ab 6b 1f 3f ed 00 16 3f c8 9d 83 3e 8a 48 21 be
       0.62273663 0.5859516 0.25706315 -0.15750328
0001c0 91 eb a4 be 2b ac d9 3d 4a 2d d4 bd 4b a2 b7 be
       -0.32210973 0.106285416 -0.10360201 -0.35866007
0001d0 55 57 cd 3e c8 a0 27 bf 70 68 27 3f 9b 2b d5 3e
       0.40105692 -0.6547971 0.65393734 0.4163483
0001e0 63 1f b3 3d 6b 03 02 bf c4 bb ba be bc 24 09 3d
       0.08746221 -0.50786465 -0.3647138 0.0334823
0001f0 93 64 1e 3e 88 d0 23 bf 7c 24 e1 3e 88 bb ae be
       0.15468054 -0.6399007 0.43973148 -0.3412745
000200 48 8a 3e be 83 70 b0 3e 7d 87 0f bf 2e 05 89 be
       -0.18607438 0.3446084 -0.56066114 -0.26761764
000210 db f6 c2 3e 8e fb 28 3d 4e 5a ae be c3 d7 2a bf
       0.3807896 0.041255526 -0.34053272 -0.66735476
000220 51 a7 70 3e 9a b3 19 3f 1c 52 25 be 66 e2 00 3d
       0.23501326 0.60039675 -0.16144603 0.03146591
000230 13 a8 06 3e fe 66 c4 be f0 b7 df be f3 a5 28 3e
       0.13150053 -0.38359827 -0.4369502 0.16469555
000240 dd 59 cb bd 1c c8 70 be b0 e6 c9 3e b9 31 17 be
       -0.099292494 -0.23513836 0.39433813 -0.14765061
000250 1c 99 34 3f 9f 76 9b bc 8d 7e a0 3e a3 73 27 bf
       0.70546126 -0.018977461 0.3134655 -0.6541082
000260 49 06 23 3f a7 79 96 3e b4 a4 43 be 78 4d 14 be
       0.63681465 0.29389688 -0.19105798 -0.14482677
000270 74 d7 ea bd ae 88 1e be e9 f0 d7 3e c4 9a 2c 3f
       -0.11466876 -0.15481827 0.42175987 0.67423654
000280 40 ce 83 3c 62 d1 2e bf fb eb 0a bf 31 ff 2f 3f
       0.016089559 -0.6828824 -0.5426633 0.68748766
000290 bb 7a fe 3e 2e ae 4c 3e bd 28 95 bd 38 1c 78 3c
       0.4970301 0.1998832 -0.07283161 0.015143447
0002a0 89 3c 20 3f 07 ea ee 3e 38 78 8b be eb 42 1a 3e
       0.6259237 0.46662924 -0.27240157 0.1506459
0002b0 37 e5 a8 be 9c a5 2b 3f 85 f3 22 bf fd 29 e0 be
       -0.32987377 0.67049575 -0.6365283 -0.43782035
0002c0 68 df 2e bf a6 0f 0e bf 18 7a 18 bf 2f a3 57 be
       -0.6830964 -0.5549263 -0.595613 -0.21058343
0002d0 12 92 b5 be f9 60 bb bd 58 42 c6 be 96 7e fa 3d
       -0.35463005 -0.091493554 -0.3872249 0.122311756
0002e0 68 8a d6 3e 5a 62 c6 be 63 26 03 bf 29 f5 84 3e
       0.4190247 -0.3874691 -0.5123045 0.25968292
0002f0 28 85 9a 3e 2b f1 3d 3e 43 44 6b 3e cf 0e fc 3d
       0.30179715 0.1854903 0.22975259 0.12307512
000300 18 e6 a9 3d cf ec 32 be b9 07 37 ba c3 d2 9e 3e
       0.0829584 -0.17473148 -0.0006982047 0.31020173
000310 8a 64 8b 3d fd 14 e4 3d 27 e6 91 be e8 96 bc be
       0.06806286 0.11136816 -0.28495905 -0.36833882

decoder.layer2.bias f4 [100]
000000 bb b3 99 be a5 fa 05 bf 5a 7a 30 3f 95 2c e9 3e
       -0.30019936 -0.5233558 0.68936694 0.45541826
000010 3f 5d d1 3e 2a cc 1d bf 0a 0b 10 bf de ad 23 3f
       0.40891454 -0.61639655 -0.56266844 0.63937175
000020 d0 ec f2 3e 0f 09 af be e2 b8 e8 3e 60 76 b9 3e
       0.474463 -0.341866 0.45453554 0.36223125
000030 91 5b 19 bf 3a 3e 39 be 90 5d 34 3e 06 3b a6 be
       -0.59905344 -0.18090144 0.17613816 -0.32466906
000040 f1 8f 74 be 7d 31 50 3e da ed 96 be 3f ff 63 bd
       -0.23883034 0.20331378 -0.2947834 -0.055663344
000050 6f 51 8a 3d 4f d7 4b 3e 42 84 3c 3e bc 66 0d bf
       0.067538135 0.19906352 0.18409827 -0.55234885
000060 25 1b ee 3e 36 e5 9c bd 58 d8 d8 bd e5 d4 f6 3e
       0.46505085 -0.07660906 -0.10588139 0.482093
000070 0b 4d 82 3e 15 33 9d bd 62 a4 1c bf 38 f2 b7 3e
       0.25449404 -0.07675759 -0.6118833 0.35926986
000080 cd 28 33 3d 53 1e 38 bb ed 91 05 3f b4 68 05 be
       0.043740083 -0.0028094247 0.5217579 -0.13028222
000090 77 55 58 3e a7 42 ad be 75 ef ed 3d 1c 0c 0f bf
       0.21126352 -0.33839914 0.116179384 -0.5587785
0000a0 e7 c6 7b 3e 3a b8 84 be 5f 07 97 be a3 76 34 bf
       0.24587594 -0.25921804 -0.2949781 -0.70493525
0000b0 2e a9 de 3e 1e c6 ef 3e 3a 04 49 3e b3 86 e8 3e
       0.4348845 0.4683084 0.19630519 0.45415267
0000c0 5a 0a 91 3c 3c d8 f1 bd c0 b3 80 be a0 69 e5 3e
       0.017705131 -0.118088216 -0.25137138 0.44807148
0000d0 38 36 31 3f 16 ce 07 bf d5 34 7d be e5 74 74 bd
       0.69223356 -0.5304884 -0.24727185 -0.05968179
0000e0 b3 d5 d7 be 1d ab ac be 18 36 8b 3d bb d9 e2 3e
       -0.42155227 -0.337243 0.06797427 0.4430674
0000f0 c8 6a 28 bf 90 4c 90 3e 71 df b6 3e 49 bf 6d be
       -0.65787935 0.28183413 0.35717347 -0.23217501
000100 f5 fe d4 3e 96 c1 e0 bd 08 5b a8 be 79 2e 28 bf
       0.41600767 -0.109744236 -0.3288195 -0.6569591
000110 e5 d8 15 bf ad c5 83 be ee 2b 91 3e de 7f 86 be
       -0.5853408 -0.25736752 0.28353828 -0.2626943
000120 23 77 c6 be ff 6c da be 5f cf c1 be a3 1f 1f 3f
       -0.3876277 -0.42661282 -0.37853524 0.6215765
000130 3d 91 0a 3f d9 88 8b be 88 70 11 be d5 e9 82 3e
       0.54127866 -0.27252844 -0.14203084 0.25569025
000140 92 14 5f 3e f4 bf e8 3d f8 b8 b6 3d a7 a9 00 3d
       0.2178519 0.11364737 0.08921999 0.031411793
000150 24 d8 44 be f1 54 27 3f dc e2 50 3e 53 f5 2e 3f
       -0.19223076 0.65363985 0.2039904 0.68343085
000160 e0 76 1a 3f f9 22 34 3f 5b 47 ac be bd 92 b2 3e
       0.6033764 0.70365864 -0.3364819 0.34877577
000170 55 af d0 bd d3 54 9b be b2 5e 1a bd a6 8b 32 3d
       -0.10189692 -0.30338153 -0.037687965 0.04359021
000180 e7 ed 3c 3e 74 7e 2e be 10 bd 0b bf a9 ac 30 3f
       0.18450128 -0.17040426 -0.5458536 0.6901346
