nero/collections/planning/models/outputs/2020-11-10/17-32-51/checkpoints/epoch=0.ckpt (torch, 155812 bytes, 12 tensors)

encoder.layer0.weight f4 [100, 100]
000000 ab 78 ba 3d e7 9f 5f 3d 27 b1 9b bc 30 1d c6 3d
       0.09105047 0.054595854 -0.019005371 0.09673536
000010 cd e1 a9 3c 43 ad 07 bd 4a 9a 6e bd 33 90 6e 3c
       0.020737553 -0.03312422 -0.05825261 0.014560747
000020 cf 0e a2 3d ed 9a 6d 3d 38 06 98 bd 8d ca 72 3d
       0.07912981 0.058009077 -0.07423061 0.0592752
000030 67 7e a0 b9 73 ec ab bd 0a 03 4b bd 95 87 97 bd
       -0.00030611755 -0.083947085 -0.049563445 -0.07398907
000040 30 e4 cb 3d da 65 b1 bc 6a 3f 6a 3d cd 1e d5 ba
       0.09955633 -0.021655012 0.057189383 -0.001625979
000050 cd 55 a6 bb 42 39 c5 bd ad da 4c bd ed 06 0e bd
       -0.005076146 -0.09630062 -0.050013233 -0.034674574
000060 60 d3 ca 3c 63 90 45 bd 67 bc e1 bb 67 c6 ba 3c
       0.024758995 -0.0482334 -0.0068889144 0.022799684
000070 a0 15 fe 3c e7 77 d9 3b b3 d4 f0 3c 7a fd d1 bc
       0.031016171 0.006636608 0.029398298 -0.025633562
000080 33 92 a8 bd 45 13 b1 bd 98 83 97 3d 4f 99 99 3d
       -0.0823101 -0.086462535 0.073981464 0.074999444
000090 17 d6 c8 3d 60 77 c4 bd b3 ff da 3c 9d 56 24 3d
       0.098064594 -0.095930815 0.026733255 0.040121663
0000a0 eb 1e a1 bd 6a d1 2a bd 90 6a ba bd 88 1f bd 3d
       -0.07867225 -0.04170362 -0.091023564 0.0923453
0000b0 cd d8 23 bb 4d 22 9e 3d 9a d2 12 3b a3 04 6e 3d
       -0.002500105 0.07721386 0.002240336 0.05810989
0000c0 83 07 0d 3d e0 99 51 3d d8 d5 a8 3d bb f0 a3 3d
       0.03443099 0.051172137 0.082439125 0.080049
0000d0 ad f6 c3 bc 57 5d 8a 3d 97 cd 74 bd 5d e5 3e 3d
       -0.023921335 0.067560844 -0.05976638 0.046605457
0000e0 78 67 bc 3d aa 2a 07 bd c5 d2 93 3d e0 f5 80 3c
       0.091994226 -0.032999672 0.072179355 0.015742242
0000f0 9a 68 5e bd 77 e5 34 3d 0d e4 84 bd 3a 16 91 bd
       -0.054298975 0.044164147 -0.0648881 -0.070843175
000100 4a c2 b8 bd 00 ae bc ba 9a a4 41 3b 70 dd 04 3d
       -0.09021433 -0.0014395118 0.0029547573 0.03243774
000110 6d c1 a6 3d 9a 51 96 3c 8d 80 b4 3d ff 68 a1 bd
       0.08142362 0.018349458 0.088135816 -0.078813545
000120 53 e1 a9 bc 03 59 53 bd c3 09 a4 bd 23 28 75 3d
       -0.020737326 -0.05159856 -0.080096744 0.05985273
000130 f3 e9 9a bc 58 c2 b6 bd 10 6c 01 3d da 65 25 3d
       -0.018910384 -0.08923787 0.031597197 0.040380336
000140 8d 82 85 bc a3 2b 5b bd 9a ca e2 bc ad f1 60 3d
       -0.016297603 -0.053508412 -0.027684499 0.05491798
000150 5a c1 c2 bc 4a c1 a7 3d 30 98 13 bd 67 07 e9 bc
       -0.023773838 0.08191164 -0.03603381 -0.028445913
000160 00 dd 04 3b e7 bb b3 bd 5f c0 8f bd bb 76 be 3d
       0.0020273328 -0.08776074 -0.07019114 0.0929999
000170 5a 21 5e 3c ff 40 cc bd 32 fc b2 3d 27 28 13 bd
       0.013557756 -0.099733345 0.08739509 -0.035926964
000180 f7 66 93 bd 88 87 82 3d 85 77 cb 3d 2a a8 a7 3d
       -0.07197373 0.06373507 0.09934906 0.081863716
000190 67 7e a5 39 90 74 97 3d ab ab 89 bd b3 e0 0e bc
       0.0003156543 0.073952794 -0.06722196 -0.008720565
0001a0 e2 81 c5 3d ca 29 89 bd bb 6c a7 bd e7 ba 97 bd
       0.09643914 -0.06697424 -0.081750356 -0.07408696
0001b0 1a 9b 77 3d 0d 1a 57 bd 2d 02 a2 3c f8 f5 96 bd
       0.06045065 -0.05251508 0.019776428 -0.073711336
0001c0 93 c3 49 bd 00 b3 b9 bb a0 5b 81 bc 7d 51 7b bd
       -0.04925878 -0.0056670904 -0.01579076 -0.06135701
0001d0 3a 10 33 bd fa 75 27 bd a7 78 5f bd 47 bf 80 bc
       -0.043716647 -0.040883996 -0.054558422 -0.015716208
0001e0 08 f3 a4 bd e0 42 71 bd cd ad e9 3b 73 a7 92 3c
       -0.08054167 -0.058901668 0.0071313144 0.017902112
0001f0 0d 6f a3 3c 88 41 92 bd df c1 91 bd 45 af 95 3d
       0.019950414 -0.07141405 -0.07117056 0.07308821
000200 4d ed 8d 3c f8 8c 9d 3d 5f 38 b4 3d e7 89 9b bd
       0.017325068 0.07692903 0.087998144 -0.07594662
000210 a0 86 53 3d 13 36 18 bd f3 6c 4a 3d 67 5b 18 3d
       0.05164206 -0.037160944 0.04942031 0.037196543
000220 63 1a 5c 3d a0 b2 9e bd 47 82 49 3d a3 e8 0e bd
       0.0537361 -0.07748914 0.049196508 -0.03488983
000230 9a f7 a5 3b 4b a1 82 3d 73 05 97 bd 02 16 bc bd
       0.005064917 0.063784204 -0.07374086 -0.09183885
000240 9b 08 8e bd 9a 82 38 3c 60 db 82 bc 23 81 34 bd
       -0.06935235 0.011261607 -0.015973747 -0.044068467
000250 6d 42 1a bd e7 13 cf bb 33 71 21 3d c7 4a 9e 3d
       -0.037661005 -0.006319511 0.039414596 0.077291064
000260 7a 58 ab bd cd 5d a4 3c 10 a1 90 3d a5 d0 89 3d
       -0.08366485 0.020064259 0.0706197 0.06729249
000270 80 a3 14 3d 92 91 8e bd 80 cb f9 3c 27 52 3f 3d
       0.03628874 -0.06961359 0.030492544 0.046709206
000280 1a 3e 50 3d 8d ca 3d 3d 6b 31 ba bd 37 ca bb 3d
       0.050840475 0.046335746 -0.09091457 0.09169429
000290 cb 11 ca bd 5b 3c bc bd 92 5b 86 bd fa fc 9c bd
       -0.09866675 -0.091911994 -0.065604344 -0.07665439
0002a0 80 71 9d bd 33 31 39 bd 1a 8e 0f bd 9b d0 9c bd
       -0.07687664 -0.045212936 -0.035047628 -0.07656976
0002b0 30 3c 46 3d b0 33 0d bd e0 cf a7 3d 05 89 b0 3d
       0.048397243 -0.03447312 0.08193946 0.086198844
0002c0 d0 2d b2 bd d3 55 62 3d e7 b1 a1 bc 92 63 a2 3d
       -0.08700144 0.05525763 -0.01973815 0.07929148
0002d0 8a fd 30 3d 55 a5 80 3d 33 a1 ad bc 7a fa 8f 3d
       0.043210544 0.062815346 -0.02119503 0.070301965
0002e0 43 e1 50 3d 1a 3f 6b 3c d0 b0 10 bd 80 90 a3 bc
       0.050996076 0.014358306 -0.03532487 -0.019966364
0002f0 2d 78 01 bd 67 d7 b0 3c a7 e4 b5 bc c3 f3 49 bd
       -0.03160875 0.021587087 -0.022203756 -0.049304735
000300 b3 36 a6 3d b3 6a ca 3d 67 f6 b7 3c 80 bc 8a bb
       0.08115902 0.098836325 0.022456361 -0.0042338967
000310 12 b6 84 3d e0 fd 15 3d 67 b6 fb b9 27 d6 44 3d
       0.0648004 0.036619067 -0.0004801035 0.048055794
000320 0a ec 13 3d 2d 49 93 bc 50 6d 9b 3d da 7a 96 bc
       0.036113776 -0.017979229 0.07589209 -0.018369127
000330 93 7f da bc 00 0a bf bc 8d 3a 9f bc aa 49 b7 bd
       -0.02667216 -0.023320198 -0.019437099 -0.08949597
000340 bd 8c 75 bd 33 d6 c2 3b 27 a1 8d 3c 80 1d c0 bd
       -0.05994867 0.0059459447 0.017288757 -0.09380627
000350 a2 70 9a 3d cd 68 50 bb 20 d6 46 3d 4a 84 85 3d
       0.07541014 -0.0031800747 0.04854405 0.06519373
000360 63 98 85 bd ab 09 a6 bd d2 76 8c bd 33 67 c2 bc
       -0.06523206 -0.08107313 -0.06858601 -0.02373085
000370 33 23 74 b9 05 67 a9 bd 3a 7f af 3d 2d f3 73 3d
       -0.00023282766 -0.082716025 0.085691884 0.059558082
000380 f0 c1 0d 3d f2 4e c4 3d a7 b3 6e 3d 90 53 bd 3d
       0.03460878 0.0958537 0.0582768 0.09244454
000390 97 a1 5f 3d 23 98 6e bd a0 53 e7 bc ed 24 ae bd
       0.054597463 -0.058250558 -0.028238118 -0.08503137
0003a0 03 bb bf 3d 67 a2 83 3b 9a ee c4 3c 47 84 59 3d
       0.093618415 0.0040171626 0.024039555 0.053104665
0003b0 20 b4 7f bd 9a 6e b7 3b b3 89 8a 3d 20 44 bc 3c
       -0.06242764 0.0055979015 0.06764545 0.022981703
0003c0 fd 66 7c bd 03 f0 98 3d 53 bb 69 3d bb 1a 92 3d
       -0.061621655 0.074676536 0.057063412 0.07134005
0003d0 8d 17 1e 3d 80 f3 a3 3c 70 1f 8c bd 37 b6 97 3d
       0.03859668 0.02001357 -0.06841934 0.074078016
0003e0 e7 8c ea bc 90 5c 06 3d a3 47 33 3d c7 f9 bc bc
       -0.02863164 0.03280312 0.04376949 -0.023068322
0003f0 d3 c1 94 bc 20 33 dc bc 47 08 c4 3d b3 e9 9c bb
       -0.018158829 -0.026879847 0.09571891 -0.0047886013

encoder.layer0.bias f4 [100]
000000 93 cf 3a bd 23 0d 62 3d da 91 4b 3d e0 c8 e6 bc
       -0.045608114 0.05518831 0.04969964 -0.028171957
000010 ad d9 af 3d 2b c4 96 3d 20 66 c5 3d aa 14 b4 3d
       0.0858644 0.07361635 0.096386194 0.08793004
000020 48 92 96 3d c0 2e ae 3d 90 84 84 3d cd d2 c7 bb
       0.0735212 0.085050106 0.06470597 -0.0060981275
000030 b0 b0 4f bd 7b c1 cc bd 0a 6a 49 3d 0d 7d 29 3d
       -0.05070561 -0.09997841 0.049173392 0.041379023
000040 9a bd b0 3c c7 31 c2 bc ea 07 42 bd 37 59 7d bd
       0.021574784 -0.023705376 -0.04737083 -0.06185266
000050 93 c8 46 3d b7 a2 5b 3d 9a fd d6 3a fa 5a 96 3d
       0.048531126 0.053621974 0.0016402483 0.07341571
000060 aa 15 1d 3d e0 13 e5 bc 2d 38 23 bd da 2d e6 3c
       0.03835074 -0.027963579 -0.039848495 0.028098036
000070 7d b1 43 bd 5a d9 63 3c 77 e1 aa 3d 3a 57 36 3d
       -0.047776688 0.013906801 0.08343785 0.04451678
000080 da b1 2b 3d d3 3e 54 3d b3 25 ed bb 80 6d 2f bd
       0.04191766 0.051817726 -0.00723716 -0.042829037
000090 f3 41 ca 3c 60 75 c0 3c ef 90 b4 bd 67 98 7e bc
       0.02468965 0.023493469 -0.088167064 -0.015539265
0000a0 b3 39 b6 bc cd bb 07 bd 9a cd ee bc 80 88 ae 3d
       -0.02224431 -0.033138085 -0.029150773 0.08522129
0000b0 2d 37 db bc e0 82 de 3c 9a aa 45 3d 60 bb c0 3c
       -0.026759708 0.027162015 0.0482584 0.023526847
0000c0 cd c1 de 3b 00 a5 ec 3c 58 fa 94 bd ed 00 79 3d
       0.006798005 0.028887272 -0.07274312 0.0607919
0000d0 9b a6 af bd da 62 a7 bc fd 31 b8 3d 43 e7 6b 3d
       -0.08576699 -0.020432878 0.089939095 0.057593595
0000e0 e0 07 8e bc 5a 4c 75 3d 9a e7 3e 3d 1a 32 eb 3b
       -0.01733774 0.059887268 0.04660759 0.0071776034
0000f0 7d f2 be 3d 2d 04 93 bd e3 c0 a8 3d 0d 76 61 bd
       0.09323595 -0.07178531 0.08239915 -0.055044223
000100 60 5f ab bd f0 04 9f 3d 33 53 72 3a d8 95 c4 3d
       -0.08367801 0.07764614 0.0009243965 0.09598893
000110 a3 62 57 3d 87 a6 bb 3c 20 38 ac 3d 1a 4f af bb
       0.0525843 0.022906555 0.084091425 -0.005350006
000120 e3 c1 b5 3d b3 73 c4 3b 1a 61 d3 bb ed df c7 3c
       0.088748716 0.0059952377 -0.0064507844 0.024398768
000130 47 b5 a8 bc e7 a8 9d bb cd 8e 29 bd e7 e4 8a bb
       -0.020594252 -0.0048113945 -0.04139595 -0.004238713
000140 4d 9a b1 bd 15 06 be 3d a3 7d 5c 3d 2a 61 ba 3d
       -0.08672009 0.09278504 0.053830754 0.09100564
000150 6d eb c1 bd b3 28 71 3d 73 75 31 bd 3d 74 a2 bd
       -0.09468732 0.058876704 -0.0433249 -0.07932327
000160 52 df 87 3d 9a 47 2d 3d 5a ce 42 3c 0d 93 2b bc
       0.06634392 0.042304613 0.011890018 -0.010472071
000170 cd f7 30 3d 4d 9b f9 3c 0f 52 8d bd 9a 46 ac bb
       0.04320507 0.030469561 -0.06900417 -0.00525744
000180 25 89 bd bd 8b 1d 97 bd 9a 81 65 3c 93 50 bf 3d
       -0.09254674 -0.07378682 0.01400795 0.0934154

encoder.layer2.weight f4 [256, 100]
000000 33 d9 fd 3a ad 90 c2 3c 7a 34 9c 3c 9a 32 6f 3c
       0.0019367099 0.023750627 0.019067992 0.014599467
000010 7d 41 af bd 1a 4d 8b 3c d7 8d 39 3d 67 d4 75 bd
       -0.08557413 0.017004538 0.045301285 -0.060017016
000020 13 94 b1 3c e7 5f 11 bd 9a 15 bd 3c 73 bd f6 bc
       0.021677053 -0.03549185 0.02308159 -0.030119633
000030 0d 5d 3b 3c 33 00 7b bc 00 4c 19 bd 4f ae ae bd
       0.011435759 -0.015319872 -0.037425995 -0.085293405
000040 ca a0 9e 3d 00 ed 90 3c ca b9 49 bd 67 56 be bc
       0.07745512 0.017691135 -0.049249448 -0.02323456
000050 73 d1 6e bd d5 3c 81 3d 2a c1 5c 3d 8b 81 b0 3d
       -0.058305215 0.06310431 0.053895153 0.08618458
000060 c7 5f e5 3c c8 c8 a9 3d 47 0f ab 3c 5a 34 a4 3c
       0.027999772 0.08290249 0.020881308 0.020044494
000070 90 65 7e bd bf 98 b5 3d d2 ae c5 bd 87 ee be bd
       -0.062108576 0.08867025 -0.09652485 -0.09322839
000080 27 70 8c bd 10 71 5d bd 35 f3 aa 3d 93 d8 34 3d
       -0.06857329 -0.054062903 0.08347169 0.044151854
000090 25 a2 aa 3d 98 29 c3 3d e5 1a 8d bd b7 f6 1e bd
       0.08331708 0.09529418 -0.06889895 -0.038809504
0000a0 33 15 54 bc 85 26 8d bd fd 74 5c 3d 37 94 0c 3d
       -0.012944507 -0.06892113 0.053822506 0.034321036
0000b0 33 d7 c4 bd 7d 02 6b 3d 73 6b ef 3c 85 cd 9b 3d
       -0.096113585 0.05737542 0.02922604 0.07607559
0000c0 73 82 90 bd 67 e6 93 3c 13 ef f5 3c 00 84 8d ba
       -0.07056131 0.0180542 0.030021226 -0.0010796785
0000d0 df 2f 9a 3d 67 30 f6 3c 33 10 58 bc bd 99 ac 3d
       0.07528662 0.030052377 -0.013187456 0.08427761
0000e0 05 97 8a 3d 73 26 37 bc 57 cc 07 3d ad 8a 81 bc
       0.06767086 -0.011178601 0.033153858 -0.015813196
0000f0 60 eb 49 3d c7 67 ef bc 40 6b ad bd dd ca 11 3d
       0.049296737 -0.02922429 -0.08467722 0.035593856
000100 20 e9 2e 3d 8d 7d 29 3c fd b6 15 bd b7 8d a7 3d
       0.042702794 0.010344875 -0.036551464 0.08181327
000110 c7 4c 99 3c 32 99 a8 bd 40 91 71 3c 1a ab 3d 3d
       0.018713368 -0.08232345 0.014744103 0.046305753
000120 ad 39 94 bc 83 70 75 bd 20 2c c8 bd ca 22 02 3d
       -0.018093908 -0.059921753 -0.09774041 0.03177146
000130 80 f2 9e bc 27 8a 99 3d a7 7c aa bc 53 cc cc bc
       -0.019402742 0.074970536 -0.020811392 -0.024999773
000140 83 4a 66 bd 73 59 5b 3c 0a c1 91 bd e5 42 c6 bd
       -0.056223404 0.013388026 -0.071168974 -0.09680728
000150 32 f3 86 bd 0d 40 67 bc 7a 30 bc 3d eb 46 96 bd
       -0.065893546 -0.014114392 0.09188934 -0.07337745
000160 f5 71 9e 3d 2a 72 88 3d 27 61 54 3d 40 48 77 bd
       0.07736579 0.066624 0.051850464 -0.060371637
000170 b3 75 24 bd 40 81 b0 3c 68 2f 9e 3d 00 40 bc b9
       -0.04015131 0.021546006 0.07723886 -0.00035905838
000180 4d 8f 84 3b ba 53 e5 bc 47 1e 5d 3d da 3c 1e 3d
       0.004045403 -0.027994025 0.053983953 0.03863225
000190 0d 22 8d bc 10 e8 4d bd d3 d1 f8 3c 9a 6d 68 3a
       -0.01722815 -0.05027014 0.03037349 0.00088664296
0001a0 4a 60 b4 3d 43 1a 0f 3d 25 1e c6 bd 6d 3a f7 3c
       0.08807428 0.034937155 -0.09673718 0.030179227
0001b0 6d 41 9b bd 6d d6 86 bc 00 b2 f4 bc 3d b4 49 bd
       -0.07580838 -0.016459668 -0.029870033 -0.049244154
0001c0 1a 29 f3 bb 43 df 70 3d 70 f2 1b bd d2 78 94 bd
       -0.007420671 0.05880667 -0.038073003 -0.07249607
0001d0 f0 8a 31 bd 93 d3 6d bd ed 67 f2 3c 4d 20 f2 3c
       -0.04334539 -0.0580631 0.029590571 0.029556418
0001e0 47 7f 82 bd 5a 7b 83 3d a3 30 3f 3d 7d 3f 1b 3d
       -0.063719325 0.06420012 0.046677243 0.037902344
0001f0 05 3f 85 3d 87 a9 25 bd 53 69 ab 3c 4a b2 11 bd
       0.06506161 -0.040444877 0.020924246 -0.03557042
000200 5a 26 62 bd ed a4 47 3d ed ab be 3c 73 a3 93 bc
       -0.055212356 0.04874127 0.02327534 -0.018022275
000210 c0 c8 51 bd 77 ac 58 bd 67 de 6a 3d 90 af 56 3d
       -0.05121684 -0.05289885 0.057341006 0.052413523
000220 f2 7d 8d bd 3a a9 c0 3d c0 a7 bd 3c 97 00 0c 3d
       -0.06908788 0.094072774 0.023151278 0.03418025
000230 10 bf 3a 3d fd ad c1 3d 1a 6e 8a 3b e7 d1 47 3c
       0.045592368 0.09457014 0.004224551 0.012196041
000240 e0 d8 8f bc 30 63 2b 3d f0 89 ae bd 7d c2 68 bd
       -0.017559469 0.04184264 -0.08522403 -0.056826103
000250 8f 76 88 3d cd bd be 3b e7 04 e3 3c b3 17 46 3c
       0.06663238 0.005820966 0.027712299 0.012090611
000260 a0 9d d4 3c 00 fd 3d 3c f3 91 98 3c e3 7c 3a 3d
       0.025954068 0.011595964 0.018624282 0.045529258
000270 6d 4a 9d bd 60 30 bc bd 18 2b be 3d 7a 7e 0b 3d
       -0.07680211 -0.09188914 0.09285563 0.034056164
000280 27 61 2d bd aa d8 0e 3d b0 b1 9b 3d 7a bb e9 bc
       -0.04232898 0.034874596 0.076022506 -0.028531779
000290 65 80 cb bd d3 4e 14 bd e8 f1 80 bd 40 d8 06 3c
       -0.09936599 -0.036207985 -0.0629614 0.008230269
0002a0 77 db 4a bd 47 e9 8f 3c 8b b5 a2 3d 57 1d 52 3d
       -0.049525704 0.01756729 0.07944783 0.051297512
0002b0 90 2d 38 bd 4d e1 d4 bc fd 14 af bd 23 5d 23 bd
       -0.044965327 -0.025986338 -0.08548925 -0.039883744
0002c0 53 b7 a8 3c 5a 61 38 3d 87 5d a6 3c 67 de d3 bb
       0.020595228 0.045014717 0.02030827 -0.0064657214
0002d0 73 7f 7c 3d 37 e3 94 3d 2a 85 8b 3d b7 c3 be bd
       0.061644983 0.072699 0.068125084 -0.093146734
0002e0 1a 34 79 bd e3 d1 3c bd f3 78 52 3d 93 e1 a2 bd
       -0.060840704 -0.0460986 0.051384877 -0.07953181
0002f0 ea ef 0d 3d 1a f4 50 bd 00 92 16 bd fa 1f 8d 3d
       0.034652628 -0.051014043 -0.03676033 0.06890865
000300 8d c3 c1 bc 53 a7 dd bc 88 ba a0 3d 27 d5 0d bd
       -0.023652816 -0.027057325 0.07848078 -0.034627106
000310 2d 2b 28 3d 80 6e 58 bd 75 bd b6 3d bf b5 97 3d
       0.0410568 -0.052839756 0.08922855 0.07407712
000320 ff a2 a4 3d 80 a4 2c bc 9f 37 88 3d 33 5b 52 bd
       0.080389015 -0.010537267 0.06651234 -0.051356506
000330 6a c6 6c 3d b0 41 3d bd 90 b2 05 bd ba 08 9e bc
       0.05780641 -0.046205223 -0.032640994 -0.01929127
000340 c3 5c ab 3d b3 d2 14 bd bb 58 87 bd 87 94 e2 3c
       0.08367302 -0.03633375 -0.06608721 0.027658714
000350 b3 c3 92 bb 2d d1 de 3c 8d 78 0e 3d ea 3a 31 3d
       -0.0044788956 0.027199352 0.034782935 0.043269075
000360 37 4e b8 bd 9a 04 45 bc 17 9e 78 3d 73 9d f3 bc
       -0.08999293 -0.012025023 0.06069764 -0.029738164
000370 bd 45 07 bd 73 95 aa 3c 82 bd cb 3d da 2d 78 bd
       -0.033025492 0.020823216 0.09948255 -0.060590602
000380 60 3b 8a 3c 6b 38 92 3d 20 b4 a6 bd 00 8e be 3a
       0.016874015 0.07139667 -0.08139825 0.0014538169
000390 60 7b 68 bd 33 1f 4e 3c 5a 25 a2 bd 97 2b b8 bd
       -0.056758285 0.012580681 -0.079172805 -0.08992689
0003a0 c2 12 84 3d 20 48 a7 bd 85 ee 82 3d 1d 49 5c bd
       0.0644889 -0.081680536 0.0639315 -0.053780664
0003b0 b2 19 b8 bd a7 42 7c bd 9b 77 c8 3d 30 09 88 bd
       -0.08989276 -0.061587002 0.09788438 -0.066423774
0003c0 67 7e 3c bd 97 76 19 3d 0a 3b 70 bd c3 80 09 bd
       -0.046018984 0.03746661 -0.058650054 -0.033570062
0003d0 af 92 c3 3d 2d ab 88 3d ba 8f 8b bd 27 4d 4c bd
       0.09549462 0.06673274 -0.06814523 -0.049878266
0003e0 00 40 39 39 1a 9a 3a 3c 67 0f 82 3c 90 f3 cb bd
       0.00017666817 0.01138928 0.015876485 -0.09958565
0003f0 c7 fb 91 3d 5d 5a 08 3d 10 72 19 bd cd d7 fc 3b
       0.07128101 0.033289302 -0.037462294 0.007716155

encoder.layer2.bias f4 [256]
000000 40 5e 2e bc 1a f1 0c bc e3 ef 50 bd d3 0f 89 bc
       -0.010642588 -0.008602405 -0.051010024 -0.016731178
000010 e3 81 36 bd 90 ec 75 bd 0a 8a 64 3d 2a 7d 6d bd
       -0.044557463 -0.060040057 0.055795707 -0.057980694
000020 9b 4a 85 3d 23 08 87 3d ca f0 32 3d 73 28 85 bd
       0.065083705 0.06593349 0.043686666 -0.06501856
000030 00 ea 46 3d 67 13 09 3d 32 ec 9b bd c8 9c a4 3d
       0.048563004 0.03346577 -0.0761341 0.08037716
000040 cd 09 ae bd 0b dd 9d bd c8 0b 91 bd b7 da b9 3d
       -0.08497963 -0.07708176 -0.07082325 0.0907492
000050 07 ec a7 bc 00 a1 1e 3c ba b3 81 bd 43 29 1b bd
       -0.020498289 0.00968194 -0.06333108 -0.037881147
000060 63 44 01 bd 80 60 4d 3d 27 ec 65 3d a0 2a be bd
       -0.03155936 0.050140858 0.056133416 -0.09285474
000070 1a 2f b3 bd 5a b1 94 3c ff 63 a6 3d 22 f7 b5 bd
       -0.08749218 0.018150974 0.081245415 -0.088850275
000080 3a 6f 68 bd 63 07 2d bd a0 5a 94 3d 33 90 d7 bb
       -0.0567467 -0.042243373 0.07243848 -0.006578469
000090 c7 3b 17 3d eb 8d bc bd 00 04 b0 bd 55 e4 97 bd
       0.036922242 -0.09206756 -0.08594513 -0.07416598
0000a0 80 92 86 bd 1b f2 98 3d 40 a9 8e bc a0 f8 ee 3c
       -0.065709114 0.07468053 -0.017414689 0.029171288
0000b0 47 92 b9 3d eb 84 a7 bd 03 d0 4f bd cd f9 e8 3c
       0.09061103 -0.08179649 -0.050735485 0.028439427
0000c0 17 1a 3e bd 47 58 c6 bc 6a 72 0c 3d fb 08 ad bd
       -0.0464116 -0.024212016 0.0342888 -0.084489785
0000d0 b8 65 b3 bd 47 ea b5 bd f2 47 a6 3d 92 0c bd bd
       -0.08759636 -0.088825755 0.08119191 -0.09230913
0000e0 5a a0 f9 3c 60 03 9b 3d 32 96 a1 3d d8 6e b4 3d
       0.03047197 0.07569003 0.078899756 0.08810204
0000f0 c2 90 8f 3d 27 6b c6 bc fb a5 a2 bd f3 25 23 3c
       0.07010032 -0.024221016 -0.079418145 0.009957778
000100 e7 df 70 3c f0 c1 b7 3d 4d fa 0f 3c 80 22 7f bc
       0.01470182 0.089725375 0.008787704 -0.01557219
000110 5a 6c 6c bc 93 33 9d 3d 10 4f 8e 3d ff 8b 99 bd
       -0.01443013 0.076758526 0.06948674 -0.07497405
000120 27 a1 ed 3c 3a f8 e9 3c 87 71 b0 bc f7 30 6e bd
       0.029007507 0.028560746 -0.021538509 -0.058152165
000130 23 3c a9 bd e3 42 73 bd 67 ae c8 3a 9d f6 0b bd
       -0.08263423 -0.05938996 0.0015310765 -0.034170736
000140 9d 43 1b bd 73 88 eb 3c 55 62 ad bd 5a 3f 54 bd
       -0.037906278 0.028751587 -0.08466021 -0.05181823
000150 30 c3 02 bd b3 59 05 3c 77 a5 46 3d 17 b8 4f 3d
       -0.031924427 0.008139062 0.048497643 0.05071267
000160 37 ee 4e 3d 53 84 ad bc d3 3c ae 3c 17 44 63 3d
       0.050520148 -0.021181261 0.021269238 0.055484857
000170 60 84 6a bd 9a 61 e9 3b 83 87 8f bd d7 2d 72 3d
       -0.05725515 0.0071222307 -0.07008269 0.059125748
000180 e5 dd bb bd 40 27 75 3d 2f 2a 84 bd 30 0e 23 3d
       -0.091731824 0.059851885 -0.064533584 0.039808452
000190 b5 b6 84 bd eb 5a b0 3d f3 e5 68 bc 73 da 75 bc
       -0.06480161 0.08611091 -0.01421498 -0.015005696
0001a0 1b 90 84 3d 33 20 44 bd 87 03 f2 bc 1a 37 61 3c
       0.064727984 -0.04788227 -0.029542698 0.013746047
0001b0 9a 3a eb 3b 6f bc 85 bd 33 e8 9a bb fa c6 88 3c
       0.0071786167 -0.065300815 -0.0047273873 0.016696442
0001c0 4b 89 a7 3d 83 c7 85 bd 6d 14 a2 bc 93 95 f3 3c
       0.081804834 -0.065321945 -0.01978513 0.029734408
0001d0 aa 3a 0a bd 73 c2 05 3c d3 f1 a9 bc 77 74 7d bd
       -0.033747353 0.008164036 -0.020745194 -0.061878648
0001e0 55 25 ac bd 5b 5d 89 3d 6b ed a0 3d 9a 2e 61 bc
       -0.08405558 0.06707259 0.07857784 -0.013744021
0001f0 b7 81 ab bd 07 1a 8d 3c ad d0 c2 bc fd 57 95 3d
       -0.083743505 0.017224325 -0.023781145 0.07292173
000200 98 06 b0 3d cd de 00 3d 7f 8e cc 3d 6d 5d c8 3d
       0.08595008 0.03146248 0.099881165 0.097834446
000210 2a 03 9a bd 03 d1 40 bd f3 b9 79 bc 70 27 b0 bd
       -0.07520135 -0.04707433 -0.015242088 -0.08601272
000220 9a a8 54 3b 22 94 c6 3d b5 a0 b5 bd 00 2a fc ba
       0.0032449127 0.09696223 -0.08868543 -0.0019238591
000230 00 c0 e9 b9 5a 58 8d bc 17 d4 c7 bd 27 ee 86 bc
       -0.00044584274 -0.017254043 -0.0975725 -0.016470982
000240 4d 2b b7 bd 67 6c 51 bb 23 56 b6 bd 60 74 84 bd
       -0.08943806 -0.0031955482 -0.08903148 -0.06467509
000250 02 69 c7 bd e7 13 84 3b d2 e6 c7 bd 3a 1d 0e 3d
       -0.097368255 0.004030693 -0.09760822 0.03469584
000260 4f 0f b6 3d 8d 37 ca 3c 40 f3 3f bd 28 32 96 bd
       0.08889639 0.024684692 -0.04686284 -0.07333785
000270 9a f6 3a bd 6f e4 a3 bd e7 e7 84 3c 9f db c2 3d
       -0.045645334 -0.080025546 0.01622386 0.09514546
000280 ad 0b b4 3c 62 73 a1 3d 0a 40 5f 3d 60 ff 00 bd
       0.021978224 0.07883336 0.05450443 -0.031493545
000290 4a a6 03 3d a0 01 e3 3c 83 9e 8e bd a0 cd df 3c
       0.032141007 0.027710736 -0.069638275 0.02731973
0002a0 87 8e ac bc 33 4a 81 3b 42 d9 c8 3d c7 3b af bd
       -0.021064056 0.003945613 0.09807064 -0.085563235
0002b0 c0 4e 95 3d 27 47 25 3d 0d 03 29 3d 60 27 d4 3c
       0.07290411 0.04035106 0.041262675 0.025897682
0002c0 6b 34 a0 bd cf 2e 8c bd aa c7 66 bd af 0c 92 bd
       -0.07822498 -0.068448655 -0.05634276 -0.071313255
0002d0 33 dd e4 3b 67 93 28 3d b3 0a a5 bc c0 14 81 3c
       0.006984377 0.0411562 -0.020146703 0.015756965
0002e0 3a a5 84 3d 73 06 ba 3c 08 77 a4 bd 33 e9 94 bc
       0.06476827 0.022708153 -0.08030516 -0.018177604
0002f0 6a c8 2e bd ca 14 37 3d f3 6a 0d bc 80 32 97 3d
       -0.0426716 0.04469756 -0.008631456 0.07382679
000300 d7 b0 ab 3d fa d5 8c 3d 67 d5 6b bd 5a 55 95 3c
       0.08383339 0.0687675 -0.057576563 0.018229175
000310 cd 34 17 bc aa 2a 8f 3d 80 e4 d2 bb 1a a9 10 3c
       -0.009228897 0.069905594 -0.0064359307 0.008829379
000320 4b 51 a9 bd b0 08 66 3d da db 1c bd 52 cc be 3d
       -0.082674585 0.05616063 -0.038295604 0.09316315
000330 2a dc 4c 3d 60 14 9a bd aa a8 83 bd 9a d1 89 b9
       0.050014652 -0.075234175 -0.064286545 -0.00026286842
000340 33 7b 39 3c 42 99 c0 bd 0d 83 05 bd 4d 8e c7 3c
       0.011320877 -0.094042316 -0.032595683 0.024359846
000350 bd a2 94 bd c0 d7 08 3c 2f 6c 85 3d b0 62 62 3d
       -0.07257602 0.00835222 0.06514775 0.055269897
000360 5a 62 46 bd ba 77 bc 3d 00 8a e3 bb 93 ce 98 bc
       -0.04843364 0.092025235 -0.006943941 -0.01865319
000370 ef 31 c2 bd 50 65 a8 bd 18 35 bd bd 73 38 85 bd
       -0.0948218 -0.08222449 -0.092386425 -0.065049075
000380 b0 44 72 bd 1a 45 d1 bb 18 8f c9 bd 9a 49 1b bc
       -0.059147537 -0.0063864114 -0.09841746 -0.009477997
000390 1a da d6 3c c7 6b 84 bd 7a 1c 0f 3d 43 5f 95 3d
       0.026227046 -0.064658694 0.034939267 0.0729356
0003a0 0a 0e 66 bd 67 c5 80 bb 8d 63 6f bc 1a 5b 77 bd
       -0.056165732 -0.003929782 -0.014611137 -0.060389616
0003b0 07 86 02 bd 8b 4f 82 3d d7 9d 05 3d fa 08 54 3d
       -0.0318661 0.06362828 0.03262123 0.051766373
0003c0 2d 06 b0 bc 60 90 dc bc 00 96 50 3c 63 87 0b 3d
       -0.02148732 -0.026924312 0.012731075 0.03406466
0003d0 bd 9b 16 3d 53 51 88 bc e7 14 c1 bc ff 7c b5 3d
       0.036769617 -0.01664034 -0.023569537 0.08861732
0003e0 57 b4 20 bd 33 7f 5e bc 8a 01 ad bd e7 6f 08 bc
       -0.039234485 -0.013580131 -0.08447559 -0.008327461
0003f0 42 f5 9f 3d 30 61 13 bd 73 aa 41 bd 5b b8 a1 3d
       0.07810451 -0.035981357 -0.047281694 0.07896491

fc_mu.weight f4 [2, 256]
000000 60 45 40 3d 4e 58 60 3d 60 8d 70 bd e2 8c 03 bd
       0.04694116 0.054771714 -0.058728576 -0.03211678
000010 60 25 3f 3b 08 0a 5c bc 5c 02 6a bd bc 92 14 bd
       0.0029166564 -0.013430126 -0.057131156 -0.03627275
000020 50 d0 76 3d 28 87 91 bc 28 df 03 bd 70 38 11 bc
       0.060257256 -0.017764643 -0.03219524 -0.008863553
000030 e0 cd 1d bd 6e e5 7a 3d ca 6f 41 3d 80 1f e1 ba
       -0.038526416 0.061253957 0.04722575 -0.0017175525
000040 20 2b 56 bb 6c c9 3a 3d a2 31 17 bd b6 86 56 3d
       -0.0032679513 0.045602247 -0.036912568 0.052374564
000050 18 d8 28 bd 18 97 6f bc 00 cf 70 bc c0 c8 21 bd
       -0.041221708 -0.014623426 -0.01469779 -0.03949809
000060 84 72 0c 3d 10 85 fd 3b 4c e7 ec bc c2 cf 62 3d
       0.034288898 0.0077368096 -0.028918885 0.055373915
000070 40 7f 3a 3d c4 0a 13 bd 92 25 2a 3d b0 b8 08 bd
       0.04553151 -0.03589894 0.041539736 -0.033379257
000080 f0 d6 3a bc 14 3d 89 bc 40 d2 d4 3a 84 01 d0 3c
       -0.011403784 -0.016752757 0.0016236976 0.025391348
000090 08 08 41 bd 22 c7 33 bd 64 b8 e1 bc 44 85 c7 3c
       -0.0471268 -0.04389108 -0.027553745 0.024355538
0000a0 5a e6 2f bd 3e 08 30 3d b2 58 43 3d 40 47 0e bb
       -0.04294429 0.04297661 0.04769201 -0.0021709949
0000b0 ac 11 b4 bc ca e9 2a 3d 2a 8f 62 bd b0 79 bc bb
       -0.021981083 0.041726865 -0.055312313 -0.005751811
0000c0 2c 0e 39 bd 34 c6 41 bd 00 f0 c1 ba c4 ea 6a bd
       -0.04517953 -0.04730816 -0.0014796257 -0.057352796
0000d0 9c 25 b2 bc 8c fb bf 3c 00 25 53 bb 42 3d 5a 3d
       -0.02174645 0.023435377 -0.0032218099 0.053281076
0000e0 d8 de 04 bd 68 ed e7 bc 18 62 19 bd 82 bc 12 3d
       -0.032439083 -0.028311446 -0.037447065 0.035824306
0000f0 58 68 83 bc ac 38 24 bd 6c b2 a3 3c 88 71 25 3c
       -0.016040966 -0.04009311 0.01998254 0.010097869
000100 7e 17 26 3d 86 2d 02 3d 56 0c 75 3d 28 35 53 bc
       0.040549748 0.031781696 0.059826218 -0.012891091
000110 f8 26 e1 bc 40 41 03 bd d6 42 20 3d 60 14 59 bd
       -0.027484402 -0.03204465 0.03912624 -0.052997947
000120 30 12 07 3d e6 89 77 bd 64 07 e5 bc 9c 8b f9 3c
       0.03297633 -0.060434245 -0.027957626 0.030462079
000130 5c 78 3a 3d a8 c2 4e 3d 00 5d 4b bc da b5 23 bd
       0.04552494 0.050478607 -0.01241231 -0.03996835
000140 c0 22 f4 bb ec 7f b9 3c d0 c2 43 3d a2 c5 0d 3d
       -0.0074504316 0.022644006 0.04779321 0.034612305
000150 40 40 08 bd e0 4e 27 bb 44 71 4b 3d 04 74 59 bd
       -0.0332644 -0.002552919 0.049668565 -0.053089157
000160 2c 75 37 3d 20 26 2e 3c c0 20 b9 3a ba ae 19 bd
       0.04478948 0.010629207 0.001412414 -0.037520148
000170 7c fe 8d 3c d4 b9 ea 3c 00 e7 6d 3d 96 22 1b bd
       0.017333262 0.028653063 0.058081627 -0.03787478
000180 98 d1 bb bc 26 7e 2d bd 7c 63 92 3c e8 d4 63 bd
       -0.02292709 -0.042356633 0.017869703 -0.055622965
000190 c6 bb 57 bd 0e b7 1b 3d 92 7a 23 bd 22 fc 2b bd
       -0.05266931 0.03801637 -0.039911814 -0.0419885
0001a0 54 75 1e 3d c0 69 8d 3a fc 11 39 3d 1c fe ea 3c
       0.03868611 0.0010788962 0.045183167 0.028685622
0001b0 b0 82 1e 3c 16 5c 02 bd 28 63 d3 3c 64 48 3a 3d
       0.009674713 -0.0318261 0.025804117 0.045479193
0001c0 96 7e 39 3d 44 4b 40 bd cc 01 a6 3c b0 f7 21 3d
       0.045286737 -0.04694678 0.020264529 0.039542854
0001d0 8c 20 fd 3c a4 18 47 bd d0 dc b2 3b 60 d5 90 bb
       0.030899309 -0.048607484 0.005458452 -0.0044199675
0001e0 94 6a 85 3c 48 05 88 bc 9a 22 58 3d 80 7d f6 3a
       0.016286172 -0.01660408 0.052767374 0.0018805712
0001f0 74 e4 28 3d b2 c5 35 bd c4 39 ad bc 48 4d d6 3c
       0.041233495 -0.04437799 -0.021145709 0.026159897
000200 e0 bf 42 bd 5e 46 28 bd 80 e0 d7 3b 6a e0 65 bd
       -0.047546268 -0.041082732 0.006588042 -0.05612222
000210 60 a2 9b bc 28 ab 0c bc ec 19 bf 3c 54 d2 0c bd
       -0.018998325 -0.008585729 0.02332779 -0.034380272
000220 f0 f6 b3 3b a2 8a 01 3d 60 99 9c 3b 00 bd e1 3b
       0.0054920837 0.03162635 0.004779026 0.0068889856
000230 1a 99 4b bd 70 f7 75 3d c4 81 e7 bc 20 5f d0 bc
       -0.049706556 0.060050428 -0.02826012 -0.025435984
000240 80 74 2b bd 6e ab 12 bd c0 2b c8 3a 40 c9 d2 3c
       -0.04185915 -0.03580802 0.0015271828 0.02573073
000250 0c 36 03 3d d8 4d 41 3d a0 3e 7f bc d8 1e f7 3c
       0.032033965 0.04719338 -0.015578896 0.030166075
000260 50 90 52 3c 00 ff 40 bd 9a 09 32 bd 54 44 74 bd
       0.01285179 -0.047118187 -0.043466188 -0.059635475
000270 30 8c b2 3b a4 b8 5b bd 6a 26 6d bd 82 63 3e 3d
       0.0054488406 -0.053642884 -0.057897963 0.046481617
000280 20 be 93 3b 06 db 34 3d 34 36 bc 3c 0c ee 0b bd
       0.0045087487 0.04415419 0.022975065 -0.034162566
000290 60 0e a2 3b d0 21 84 bc 48 fc 2c 3c 00 ef 94 bc
       0.0049455613 -0.016129404 0.010558195 -0.01818037
0002a0 80 67 62 bb 88 ff 6e 3c b0 6b c3 bc 98 e4 5d 3c
       -0.0034546554 0.014587291 -0.02385506 0.0135432705
0002b0 c6 6f 3e 3d 88 0a 7b bd 08 b4 24 3c 2e 59 37 3d
       0.046493314 -0.06128934 0.010052688 0.044762783
0002c0 60 c5 6f 3c 04 7e 13 bd 8c 1b ee 3c 30 0b da bc
       0.01463446 -0.03600885 0.02906587 -0.026616663
0002d0 80 2a 64 3a 84 a0 36 bd 24 11 49 3d b2 d4 7f bd
       0.0008703843 -0.044586673 0.049088612 -0.0624587
0002e0 a0 cc 5f 3c 1e 6f 40 3d 24 bf 3b bd d6 07 74 bd
       0.013659626 0.04698097 -0.045836583 -0.059577785
0002f0 7c 42 e4 bc 20 6f cf bb 96 2f 0d bd c0 cc c1 bb
       -0.027863733 -0.006330386 -0.03446921 -0.0059143007
000300 ec f3 ec bc 10 81 d5 3b 20 59 d7 3b 30 35 41 bd
       -0.028924905 0.0065156296 0.006571904 -0.047169864
000310 80 32 5f bb cc 19 24 bd 22 90 5f bd 20 27 cc bb
       -0.00340572 -0.040063664 -0.054580815 -0.00623025
000320 e0 c8 de 3c c0 87 57 3c e6 fb 79 3d b0 c9 af bc
       0.027195394 0.013154924 0.061031245 -0.021458477
000330 40 de 8a bb c2 26 7b 3d 00 6e 7b bb 44 fc 32 3d
       -0.00423792 0.06131626 -0.0038365126 0.04369761
000340 0a 95 69 bd b0 ca 34 3d 18 1d e5 bc 1a 08 0a bd
       -0.0570269 0.04413861 -0.027967975 -0.033699133
000350 88 75 8d bc e8 3e 11 bd ec 55 dd 3c be ae 47 bd
       -0.017267957 -0.035460383 0.02701851 -0.04875063
000360 08 40 38 3c 78 34 89 bc 28 12 4c bd 1e 9a 1c bd
       0.011245735 -0.016748652 -0.049822003 -0.038232915
000370 9e a2 5a bd ea 73 60 3d 28 f1 e1 bc c8 32 85 3c
       -0.05337774 0.054798044 -0.027580813 0.016259566
000380 c0 4f 0e 3d dc ef 4a bd 8c 9a 1d 3d 28 81 45 bd
       0.034744024 -0.049545154 0.038477466 -0.048218876
000390 d4 83 75 bd 64 d8 26 3d ea 0b 6c 3d 8c 24 4f 3d
       -0.059940174 0.04073371 0.05762855 0.050571963
0003a0 42 d6 4b 3d 60 5f 2c bd 86 62 7e bd 9c f1 eb bc
       0.04976488 -0.042083144 -0.062105678 -0.028801732
0003b0 48 86 27 3c 88 45 51 3c 44 bc 70 bd d0 d5 f7 3c
       0.010224886 0.012772925 -0.058773294 0.030253321
0003c0 a4 d9 a9 bc 5e 15 42 bd a8 42 76 bc 76 52 13 3d
       -0.020733662 -0.04738366 -0.0150305405 0.035967313
0003d0 be 59 31 bd c8 31 50 bd 10 a7 bb bb 1e 5c 23 bd
       -0.043298475 -0.050828725 -0.0057267025 -0.03988277
0003e0 d6 2b 62 3d 20 bf 66 bd 26 eb 55 bd 00 68 1c 3b
       0.055217586 -0.056334615 -0.05222621 0.00238657
0003f0 a6 08 36 bd f0 c6 61 3c 5c 6b bc 3c 3c 91 4a bd
       -0.04444184 0.013780341 0.023000412 -0.049454913

fc_mu.bias f4 [2]
000000 3e 51 17 3d ca 3a 04 3d
       0.036942713 0.032282628

fc_var.weight f4 [2, 256]
000000 50 ff 0e bc c6 70 36 3d 78 53 79 bc 14 fe e7 bc
       -0.008727863 0.044541143 -0.015217654 -0.028319396
000010 68 01 4c 3d 0c 0f ce bc 90 4e 84 3c 12 f6 48 bd
       0.04980603 -0.02515366 0.016150743 -0.049062796
000020 2a 73 68 bd c0 2a 79 bc 58 2f 6d 3d 80 49 41 3d
       -0.056750454 -0.015207946 0.05790648 0.047189236
000030 62 54 71 bd bc 98 d5 3c c6 3e 7b 3d ac f6 96 3c
       -0.058918364 0.026073806 0.061339162 0.01842817
000040 30 6d c6 3c 38 fe c2 3c c0 c9 81 bb 74 63 82 bc
       0.024221987 0.023802862 -0.003960818 -0.015916564
000050 9a d6 34 bd 58 a3 04 bc 94 34 79 bd 7a 8f 61 3d
       -0.044149972 -0.008095585 -0.060841158 0.05506847
000060 28 b4 79 bc 20 d0 bb bb 70 09 3b bd 5e 28 1c 3d
       -0.0152407065 -0.0057315975 -0.045663297 0.038124435
000070 00 9e 2f bb 34 35 41 bd 68 b3 18 3d 02 a6 23 bd
       -0.0026797056 -0.04716988 0.03728047 -0.03995324
000080 ac 8d d7 bc 74 94 e6 3c fa d2 14 bd 60 0e 70 bd
       -0.026312672 0.02814696 -0.036334015 -0.05860746
000090 d8 1f fd 3c 00 87 ac b9 f6 88 23 3d e0 2e ba 3c
       0.030898973 -0.0003290698 0.039925538 0.02272743
0000a0 f0 68 c0 bc bc a0 de bc a6 16 2f 3d 32 00 73 bd
       -0.023487538 -0.027176253 0.04274621 -0.05932636
0000b0 78 97 58 bd d0 f9 e7 bc 3c d5 82 3c b0 ba 16 3d
       -0.052878827 -0.028317362 0.015970819 0.036799133
0000c0 18 e9 1f 3d a0 14 b4 3c 40 34 86 bc 70 34 5d bd
       0.039040655 0.021982491 -0.016382337 -0.054005086
0000d0 98 ca 42 3c e4 87 f6 3c e0 d7 7b bb ae d3 15 3d
       0.011889122 0.030094095 -0.0038428232 0.036578827
0000e0 38 c2 48 3d fc 90 ad 3c e0 67 96 bc ce ad 30 3d
       0.049013346 0.021187298 -0.018360078 0.043134503
0000f0 08 57 06 bd 80 d8 5a 3d 98 95 d6 bc 00 ce f1 3a
       -0.032797843 0.053429127 -0.026194379 0.0018448234
000100 96 9a 50 3d 30 bc 92 bc 90 dc fc 3b f2 0c 37 3d
       0.050928675 -0.017912 0.007716723 0.04469008
000110 9a 9b 4b bd 9e 78 73 bd ee 15 5b 3d a0 b7 5e 3d
       -0.04970894 -0.0594412 0.05348771 0.054374337
000120 9c 93 3d 3d bc 94 0f 3d 9e aa 6a bd f8 c8 5b bc
       0.04628335 0.035053954 -0.05729162 -0.013414614
000130 d4 09 f4 bc 68 32 49 bd b8 02 b4 3c 50 61 b8 bc
       -0.029789843 -0.049120337 0.021973953 -0.02250734
000140 00 95 aa bb 2c 6e 9f bc c0 f2 99 ba 14 fe ed 3c
       -0.0052057505 -0.019461714 -0.0011745319 0.029051818
000150 fe 0a 76 3d c0 dd 6f bd 22 bf 2d bd a8 02 62 3c
       0.060069077 -0.058561087 -0.042418607 0.013794579
000160 5c 76 9c 3c 38 a8 e5 3c 16 11 3a 3d 5e 55 11 bd
       0.019099407 0.028034315 0.04542645 -0.035481803
000170 c4 26 60 bd 80 9d f6 3b d2 b9 11 bd c2 1a 5e bd
       -0.05472447 0.0075260997 -0.035577603 -0.054224737
000180 68 02 61 3d b8 74 b1 3c 8c 2a 15 3d e4 e2 44 3d
       0.054933935 0.021662101 0.03641753 0.048067942
000190 80 74 d6 bc 40 75 b0 3a 52 a6 47 bd e0 a8 95 bc
       -0.026178598 0.0013462678 -0.0487426 -0.018269002
0001a0 de 01 72 3d a8 40 5a 3d 30 80 ea bb b6 7a 63 bd
       0.059083812 0.053284317 -0.0071563944 -0.05553695
0001b0 46 3d 11 bd 52 86 5f 3d 84 92 98 bc ce 79 36 bd
       -0.035458826 0.054571457 -0.018624552 -0.044549756
0001c0 6c 8d 0b bd 38 cb 72 bc 52 bd 74 3d 70 d8 58 3c
       -0.034070417 -0.014818959 0.059750862 0.0132351965
0001d0 50 71 a2 3c 7c 9a 83 bc f8 82 89 3c 4e c1 42 3d
       0.019829422 -0.016064875 0.016786084 0.04754763
0001e0 da 11 09 3d 90 52 fd 3b fa d9 48 bd 40 fc ed 3a
       0.03346429 0.0077307895 -0.049036004 0.0018156841
0001f0 f0 79 d4 bb 7c 45 84 bc 52 37 3e 3d 00 cf 81 3a
       -0.0064842626 -0.016146414 0.046439476 0.000990361
000200 20 40 cd 3c 60 8e 37 3b 1c bf bb 3c e4 93 7b bd
       0.025054991 0.0028008446 0.022918276 -0.061420336
000210 d4 8b bf bc 70 f7 03 bc c0 38 c7 3b 38 f6 13 bc
       -0.023382105 -0.008054599 0.006079763 -0.009030871
000220 c0 8e c3 3b 20 a0 24 bb 44 9b 18 3d 74 3b c2 3c
       0.005967945 -0.0025119856 0.037257448 0.02370999
000230 2c da 72 3d e0 85 36 3d b8 61 6b bc 50 cd c5 bc
       0.059290096 0.044561267 -0.01436656 -0.024145752
000240 80 9a ad 3c 2e 66 4e bd b8 fa 76 3d f8 2c 76 bd
       0.021191835 -0.050390415 0.060297698 -0.06010148
000250 50 02 bc 3b 20 2c 85 3b 12 62 43 3d 38 5a 52 bc
       0.0057375804 0.004064098 0.04770095 -0.012838893
000260 ac ed c4 bc 00 36 08 3d b0 31 2d 3c 08 b2 cc bc
       -0.024039112 0.033254623 0.010570928 -0.024987236
000270 22 ae 39 3d 6c 4b 5e bd 40 ea 4c bb 40 c8 b0 3b
       0.04533208 -0.054271147 -0.0031267554 0.0053949654
000280 9c 3b 48 bd 6c 94 84 bc 00 35 ac bb 22 69 6c bd
       -0.048884973 -0.016184054 -0.0052553415 -0.05771745
000290 a0 9b 37 bc 70 c9 6a 3c 94 41 f8 3c 2e ba 54 bd
       -0.0112065375 0.014330253 0.030304708 -0.051935367
0002a0 e6 20 24 3d 0e 43 17 bd a4 02 4c 3d 40 50 c5 3c
       0.040070437 -0.036929183 0.049807206 0.024086118
0002b0 3a 91 45 3d e8 c6 2a bd 20 d2 3c 3d 48 81 31 3d
       0.048234202 -0.041693598 0.04609883 0.043336183
0002c0 76 54 3a bd 20 3d 58 bc 64 2b dc bc 8e 81 57 bd
       -0.045490704 -0.013198167 -0.026876159 -0.052613787
0002d0 3a 95 72 3d a0 5f 4b bd 0c 43 4e bd 20 cd 1d 3b
       0.059224345 -0.049651742 -0.05035691 0.0024078563
0002e0 58 8e 80 3c 10 c9 0d bc 60 70 ea 3c 5a 53 7c bd
       0.015692875 -0.008653894 0.028618038 -0.061602928
0002f0 30 f3 46 bd 00 b3 06 3a 5e ab 76 3d 92 b4 02 3d
       -0.048571765 0.00051383674 0.060222022 0.031910487
000300 e6 a2 62 bd 1c 7e a1 bc d0 22 8c 3c 80 0c 82 3a
       -0.055331133 -0.019713454 0.017106444 0.0009921938
000310 e8 e7 51 bc 2a 60 5c bd 5c a9 09 3d c2 69 3d 3d
       -0.012811638 -0.053802647 0.03360878 0.046243437
000320 78 f5 e0 3c 62 8c 70 bd 80 3c fd bb 20 58 18 3c
       0.027460799 -0.05872763 -0.0077281594 0.009298354
000330 90 d8 34 bd fc 8a 4b bd 80 72 42 bb 74 b4 f5 3c
       -0.044151843 -0.049693093 -0.0029670298 0.029993273
000340 74 37 84 bc 36 e7 03 3d 6c ca 09 bd 6c c7 bb bc
       -0.016139723 0.03220292 -0.03364031 -0.02292224
000350 40 a7 ae 3a a0 58 42 3b e0 89 2a 3b 94 94 7f bd
       0.0013324991 0.0029654875 0.0026022121 -0.062397555
000360 44 dd ce bc 70 b6 87 bc 78 f4 a2 3c 54 ce 7a bd
       -0.025251992 -0.016566485 0.019891962 -0.061231926
000370 00 8c bf 38 c4 53 9a bc a4 66 3c 3d 3e 66 1b 3d
       9.133667e-05 -0.01883877 0.045996323 0.037939303
000380 10 cb ad bc b0 e9 65 bd a0 c9 43 3d c8 a7 3e 3d
       -0.021214992 -0.056131065 0.047799706 0.046546727
000390 bc cf 8a 3c 62 4b 7d bd 0e 5b 46 3d c2 9e 71 3d
       0.016944759 -0.06183947 0.04842668 0.058989294
0003a0 9c cd a2 bc 38 12 3f 3c 00 59 3d bb ee 5d 1f 3d
       -0.019873433 0.0116620585 -0.002889216 0.038907938
0003b0 10 f8 68 bc 16 3c 49 bd c6 90 3d bd 8e eb 27 bd
       -0.014219299 -0.049129568 -0.046280645 -0.040996127
0003c0 6c 5c 18 bd 78 c2 43 bd bc c0 31 bd a0 df 40 3d
       -0.037197515 -0.04779288 -0.043396696 0.047088265
0003d0 fc ab 54 bd 64 da f2 3c 40 9b a7 3a 24 54 8e bc
       -0.05192183 0.029645152 0.0012787357 -0.017374106
0003e0 60 57 9a bb 98 7b ac 3c 66 e7 46 3d 0c 88 fb 3c
       -0.004710123 0.021055028 0.048560522 0.03070452
0003f0 e0 38 4c bd 10 75 fd bc 02 ec 37 3d 66 43 50 3d
       -0.049858928 -0.030939609 0.04490281 0.050845526

fc_var.bias f4 [2]
000000 18 74 4f bd 44 62 56 bd
       -0.050647825 -0.052339807

decoder.layer0.weight f4 [2, 2]
000000 cd 10 7f 3e 17 85 b3 3e b3 3b b2 3d a2 14 64 3c
       0.24908753 0.35062477 0.08702793 0.013920935

decoder.layer0.bias f4 [2]
000000 0f 79 ec be 9b 8d ff 3e
       -0.4618611 0.49912724

decoder.layer2.weight f4 [100, 2]
000000 a1 b4 ea 3c bf 6d 50 3e dd 33 39 bc 87 bc 32 be
       0.028650584 0.20354365 -0.011303869 -0.1745473
000010 d7 83 e8 be 7b 24 f0 3e d8 60 0c 3e 81 4f f4 3d
       -0.45413086 0.46902832 0.13708818 0.11929227
000020 b6 d8 8c 3e a1 f9 c0 be be ee 62 3d a6 5d 12 bf
       0.27509087 -0.37690452 0.055403464 -0.57174146
000030 6a e6 af be 36 0c 08 3f 59 35 1e bf 51 4d 18 be
       -0.3435548 0.5314363 -0.6180015 -0.14873244
000040 d5 6c eb 3e bb c1 b0 3e 2b 78 ac 3e 55 34 62 be
       0.4598147 0.34522805 0.3368543 -0.22090276
000050 42 8e c2 bd 9a cf 39 3d 0d 90 07 be 73 32 24 3e
       -0.0949979 0.045364 -0.13238545 0.1603487
000060 d0 34 33 3f d9 d4 d3 3e 65 e9 8c 3e 05 30 d6 be
       0.7000246 0.41373327 0.27521816 -0.4183351
000070 1d 24 cd bc 11 c0 2e 3f 52 0b ab 3e 73 78 2b bf
       -0.025041634 0.6826182 0.33407074 -0.66980666
000080 33 ed 8d 3e 2f 40 d0 3e f9 85 03 3f cf ba 31 3f
       0.2772003 0.40673968 0.513763 0.6942567
000090 91 45 b0 3e ad 9c 44 3e de f7 5a 3e a1 c7 16 3f
       0.34428075 0.19200392 0.21383616 0.5889836
0000a0 d5 86 e8 be 0b a3 bb be 14 3e 13 bf db 24 07 3f
       -0.4541537 -0.3664783 -0.575166 0.5279061
0000b0 20 b5 fb be cb 65 50 bc 79 08 16 bf e9 8c d7 3e
       -0.49161625 -0.012719582 -0.5860668 0.42099693
0000c0 e2 c5 6f be 8d 70 0d 3d 73 89 07 bf 30 16 18 bf
       -0.2341533 0.034531165 -0.52944106 -0.59408855
0000d0 39 80 b0 3e 4b 49 15 3f af 29 2c bf 5a 62 31 3f
       0.34472826 0.5831496 -0.67251104 0.692907
0000e0 e2 c0 1e bf e9 13 97 bc 1b 7f fc be 8d de dd be
       -0.62013066 -0.018442111 -0.49315724 -0.43333855
0000f0 97 ec 53 be f4 26 d3 be ca ad e8 3d 7b b3 92 be
       -0.2069572 -0.41240656 0.11361273 -0.28652558
000100 33 ce 09 bf 57 32 9f be ad 39 d4 3e 73 87 a1 3e
       -0.5383026 -0.31093094 0.41450253 0.31548652
000110 fc ec 88 3e f3 b3 d4 3e fc 71 30 3f 34 02 88 3d
       0.26743305 0.4154354 0.68923926 0.06641045
000120 ec df f6 bd 0a 3b 25 be ff 63 c0 3e ff 5d e2 be
       -0.120544285 -0.16135803 0.3757629 -0.44212338
000130 63 3b b5 be 6b 2a 11 be f0 3f cc 3d 77 a7 a6 3e
       -0.3539687 -0.14176337 0.099731326 0.3254964
000140 71 d4 11 bf bd c9 1e bf 9c 3a 15 bf c9 60 52 be
       -0.56964785 -0.6202658 -0.58292556 -0.20544733
000150 3f 3c 2e bf 1a 8d 2b 3f 71 52 c4 3e 35 88 0b bc
       -0.6806068 0.6701218 0.38344148 -0.008516361
000160 8c d1 70 bd 8a 07 fc be 12 ec c2 be c2 e1 d8 be
       -0.05879359 -0.49224502 -0.38070732 -0.4235974
000170 11 2a a5 bd 47 4f c3 be f9 d2 8b 3e 67 b7 ff 3e
       -0.08064664 -0.3814642 0.27309397 0.49944612
000180 45 3c c6 be 87 90 7a be bf 89 1b bf e9 f3 c7 be
       -0.38717857 -0.24469195 -0.6075706 -0.39053276
000190 fd 0d f4 3e 0b 73 23 3c 64 03 0b bf e6 d7 f2 be
       0.47666922 0.009976159 -0.5430205 -0.47430342
0001a0 da 1f af be 39 0b 83 bd 61 0d 05 3e 97 a6 b1 3d
       -0.34203988 -0.06398625 0.12993385 0.086743526
0001b0 b6 31 2a bf 8c 1d fe be 60 70 5d 3e ad 5d 90 be
       -0.664821 -0.49631917 0.21624899 -0.2819647
0001c0 91 d8 1b 3f 81 6b ac 3e 13 fb cd bb 5c d5 b9 3e
       0.6087733 0.3367577 -0.006286034 0.36295593
0001d0 55 a2 66 3e 29 25 6d be a6 12 8b bc 6e f5 18 be
       0.22522862 -0.23158707 -0.016976666 -0.14937374
0001e0 c8 15 da 3e 20 c4 bf 3e 7e 56 f5 3e 39 50 e1 3e
       0.42594743 0.3745432 0.4791755 0.44006518
0001f0 e7 97 ab 3d ff 6c e1 3e 4a 94 2d 3e 8d 24 17 bf
       0.083785824 0.4402847 0.16951099 -0.5904015
000200 36 15 9e be 41 00 91 3e 8b 12 d4 be 05 ea 7a be
       -0.30875558 0.28320506 -0.41420397 -0.24503334
000210 c5 e9 9b be 15 35 f7 3d cc 58 07 3f 24 9a e9 3d
       -0.3045179 0.120706715 0.5286987 0.11406353
000220 66 64 a0 3e ff d2 da 3e 72 8d b7 be 35 4a 1b be
       0.31326598 0.42739102 -0.35850102 -0.15165026
000230 01 ab 33 3f 02 fe 56 be 26 a5 2a bf 7c c8 c6 3e
       0.70182806 -0.20995334 -0.66658247 0.38824832
000240 c6 bc db 3d f2 9d 98 3c bd e4 f6 bd e1 99 29 3f
       0.10729365 0.018630002 -0.12055347 0.66250426
000250 b9 d1 20 3f 23 e9 29 bf 3d cd df 3e 54 48 0d bf
       0.6282001 -0.66371363 0.43711272 -0.5518849
000260 65 6d 1a bf 9a 44 04 bd 24 c8 2f 3e 63 1e e5 3e
       -0.6032317 -0.032291986 0.17166191 0.44749746
000270 98 b0 90 3e 3b 01 eb be 44 0d 62 bc 08 60 cf be
       0.2825973 -0.45899376 -0.013797108 -0.40502954
000280 8b 30 0c be 7c 8d 64 3e b4 31 27 3f 8a 83 2b bf
       -0.13690393 0.22319597 0.65310216 -0.6699759
000290 9a 50 0a 3f 10 3f fd be 5e 4b 8a 3e 14 f9 07 3e
       0.5402924 -0.49462175 0.27010626 0.1327861
0002a0 69 ef 9e 3e 22 19 b1 be f8 af 03 3f 2b 0d 1d bf
       0.3104203 -0.34589487 0.5144038 -0.6134822
0002b0 ca e1 17 bf cd 28 05 bf 9e ed 22 3f 0e 41 fc 3e
       -0.593289 -0.5201538 0.63643825 0.49268383
0002c0 72 92 9e 3e 1e 31 4b 3e a4 c2 02 bf 79 6d aa be
       0.30971104 0.19842955 -0.5107825 -0.33286646
0002d0 97 e4 f5 3e cf 3b b4 be c9 7d 2c bf ce 21 d7 3d
       0.48025963 -0.3520188 -0.6737943 0.105044946
0002e0 90 a8 27 be 54 ac c1 3e 33 84 69 3e 45 9f 0f 3f
       -0.16372895 0.37826788 0.22804336 0.561024
0002f0 4f 47 f4 3e 1d b3 a1 3e 73 19 dc 3c 17 3f aa be
       0.47710654 0.31581965 0.026867604 -0.3325126
000300 ea 0e 34 3f 41 ed c6 3e cf d6 e3 3d 30 48 e8 be
       0.7033526 0.38852885 0.11124956 -0.45367575
000310 48 65 af ba 1b 77 1d 3f 99 19 30 3f 8a 44 3a bd
       -0.0013381625 0.61509866 0.6878906 -0.04547552

decoder.layer2.bias f4 [100]
000000 3a 49 83 bd d4 8d 40 be ba ff 08 bf 31 fa 07 3f
       -0.06410451 -0.18804103 -0.5351521 0.53116137
000010 8c 56 0a bf 4b 87 1e 3f 17 fb c8 3e fd a4 15 3f
       -0.5403831 0.6192519 0.39254066 0.5845488
000020 35 20 28 3f ff 56 a4 be 04 1f 01 bf b1 04 92 3e
       0.65674144 -0.32097623 -0.5043795 0.28519204
000030 f3 2c 95 3e 73 fa b7 be dd e5 1f 3f f7 dc dc be
       0.29135856 -0.35933265 0.6246012 -0.43137333
000040 b8 dd 9a be 0f b7 83 be c5 fb 29 be 6d 53 be be
       -0.30247283 -0.257256 -0.16599949 -0.37173024
000050 92 8b 24 3f 4f c1 a8 3d 8d 18 80 3e fa b7 ad be
       0.6427547 0.08239996 0.2501873 -0.33929425
000060 be ee 38 3e ab 42 17 3e 9e e5 55 3e 86 f0 17 bf
       0.18059823 0.14771526 0.20888373 -0.59351385
000070 ed fe eb 3e 20 4e 0d be 6c 48 2b 3e 15 62 ae bd
       0.4609293 -0.13799334 0.16726846 -0.085148014
000080 72 48 cc 3e 4e df fc 3e 00 8e 9d be 73 25 53 bd
       0.3989902 0.49389118 -0.307724 -0.051549386
000090 b7 4d f4 be 52 73 bc be 29 8d fe 3e c0 37 8f bd
       -0.47715542 -0.36806732 0.49717072 -0.06993055
0000a0 3d 1f 8a be 70 93 0a be 9d ed 2c 3e b1 c0 ae 3e
       -0.26976958 -0.13532805 0.16887517 0.34131387
0000b0 3a 9d 5e 3e c0 f0 2f bf 88 99 9e 3e 61 74 5c be
       0.21739665 -0.6872673 0.3097651 -0.2152877
0000c0 8b 6b 9c be 7a 92 4b bc 35 35 94 3e 34 b8 a4 be
       -0.305508 -0.012425059 0.28946844 -0.32171786
0000d0 9c c0 91 3c 36 5c a0 be ed 54 25 bf 24 a1 33 bf
       0.017792039 -0.3132035 -0.6458271 -0.70167756
0000e0 a6 a2 2c bf e6 2b a6 3e 42 25 d8 be f0 08 26 3e
       -0.6743568 0.32455367 -0.42215925 0.16214347
0000f0 4c a7 25 bf ed f1 55 be 22 d1 1f 3f 27 32 1d 3d
       -0.647084 -0.20893069 0.62428486 0.038377907
000100 60 04 13 be 63 0a b7 be 60 63 5e be a5 81 bf 3e
       -0.14357138 -0.35750112 -0.21717596 0.37403598
000110 3b 20 2b 3f e8 a0 33 bf 81 4b c6 3e 82 3a e0 be
       0.66846055 -0.701674 0.3872948 -0.43794638
000120 61 9f 9b be e2 5f 0e 3e 20 d3 5d 3d 6e d9 9d 3d
       -0.30395034 0.13903764 0.054156423 0.07707487
000130 28 04 2d 3f 90 64 6c 3e 2c 1d d6 be 1b ea c8 3d
       0.67584467 0.23085237 -0.4181913 0.09810277
000140 c1 58 ce 3e 07 cb 39 3e f1 01 cd 3e f2 94 91 3e
       0.4030209 0.18143855 0.40040544 0.2843395
000150 d5 2b 80 3d af cf fe be 96 7e 6d be b4 b2 56 bc
       0.0625836 -0.49767825 -0.2319282 -0.01310413
000160 fd ca 09 bf 63 b5 8a 3e a6 9e bf 3d 24 46 32 3f
       -0.5382536 0.27091512 0.09356432 0.69638276
000170 56 f7 2f 3f dc 5a 85 3e 51 a2 12 3f fe 66 05 3f
       0.6873678 0.26045883 0.57278925 0.5211028
000180 26 e1 93 be bb fb 13 3e ab 07 b9 3b 1b d4 e8 3d
       -0.28882712 0.14451496 0.005646666 0.11368581
