nero/collections/planning/models/outputs/2020-11-10/17-37-42/checkpoints/epoch=3.ckpt (torch, 155812 bytes, 12 tensors)

encoder.layer0.weight f4 [100, 100]
000000 10 47 c9 bd ad 52 16 3d cd 04 dc bb 8a 4d be 3d
       -0.09828007 0.03669994 -0.0067144395 0.09292133
000010 27 4d 6f 3c 07 95 3c bd 00 c0 7a 38 43 0f 5a 3d
       0.014605797 -0.04604056 5.978346e-05 0.05323721
000020 83 be 1b bd 4d 42 d4 bb cd 1c 26 bd c0 39 9e bd
       -0.038023483 -0.00647763 -0.04055481 -0.07725859
000030 1a fa 26 bd a7 42 8b bd 6b 9a 93 bd 1b f7 90 3d
       -0.04076586 -0.06799822 -0.07207187 0.07078382
000040 f0 0e b0 3d cd 19 71 bc 60 cc 77 3d 40 89 94 3c
       0.08596599 -0.014715624 0.06049764 0.018131852
000050 5a 6d 84 bd 15 4f ad 3d 0d cb 79 bd 07 d2 cb 3d
       -0.0646617 0.08462349 -0.06098466 0.09952169
000060 ba 6f 88 bc 07 4b 11 3d 17 f2 63 3d e7 51 ab bc
       -0.016654838 0.035471942 0.055650797 -0.020913078
000070 42 7f c1 bd 33 24 0f bb 13 e8 ae bc 17 7f a1 3d
       -0.094481006 -0.0021841645 -0.021350896 0.078855686
000080 4d 54 c5 3b 37 e1 94 3d 9a 19 72 bd dd 5b 8d bd
       0.0060220123 0.07269519 -0.059106447 -0.06902287
000090 1a 85 3d 3d 00 94 16 ba 53 fe fa bc 2b 75 9b bd
       0.046269514 -0.00057440996 -0.03063885 -0.075907074
0000a0 67 84 65 bc a7 d4 35 bd b3 fd 54 3d e7 fe 83 bc
       -0.014008618 -0.044392254 0.05199976 -0.016112758
0000b0 b8 22 83 bd 4d e6 35 3c 9a b7 4e bd 0d 4c 33 3d
       -0.064031065 0.011102271 -0.050468065 0.0437737
0000c0 9a 3f 5a bb 87 76 a5 3c c7 3a cb 3d 80 44 2f bc
       -0.003330207 0.02019812 0.0992332 -0.010697484
0000d0 00 83 70 bb 33 78 6a bb cd 26 d1 3a 52 aa b2 3d
       -0.0036699176 -0.003577721 0.0015956998 0.08723892
0000e0 3d e8 85 3d 72 94 ab bd 00 c1 f1 bc 0a 36 ad 3d
       0.065384366 -0.08377923 -0.029510975 0.08457573
0000f0 2a e8 b2 3d fa 6f 45 bd c7 71 dd bc 3f 27 c6 3d
       0.08735688 -0.048202492 -0.027031792 0.09675454
000100 8d 0d 3b bc 47 5f a8 bd e3 58 79 3d 47 b0 9a bd
       -0.011416805 -0.08221298 0.060875785 -0.075531535
000110 fd a7 4a bd cb 6f c0 3d e7 6b bd bc fd a5 72 bd
       -0.049476612 0.09396323 -0.02312274 -0.05924033
000120 67 ce 3d 3b 5a 7b cf bc 6f d5 b7 3d 73 7f c1 3d
       0.0028962137 -0.025327373 0.08976256 0.09448137
000130 ca f9 9d bd 20 5c 42 3d 9b 33 86 3d 6d 09 d0 bc
       -0.07713659 0.04745114 0.06552812 -0.02539512
000140 15 d6 b1 3d e7 ec df bb b7 b4 8b bd 77 19 85 bd
       0.08683411 -0.006833661 -0.06821578 -0.06498998
000150 70 81 82 bd d0 e7 4d bd 90 43 71 bd a7 6e 3f 3c
       -0.063723445 -0.0502699 -0.058902323 0.011684096
000160 b0 26 11 bd ed e6 8a 3d 47 ad 1f 3d 6a 04 35 bd
       -0.035437286 0.06782327 0.03898361 -0.044193663
000170 32 2c 89 3d ad 16 1b bd 0d 62 4c 3c 97 70 5b 3d
       0.06697883 -0.037863422 0.012474549 0.05357417
000180 e8 22 ae bd 40 1d 80 3d 0a 9a 99 3d 00 1b 3f 3c
       -0.085027516 0.06255579 0.07500084 0.011664152
000190 9a 69 df 3c 73 f6 21 3d 8d fa cc bc 1a a6 cd 3c
       0.027272034 0.039541673 -0.025021816 0.025103617
0001a0 d8 84 93 3d e7 a8 a9 3b b3 b1 78 3c c7 20 32 3d
       0.07203072 0.0051776054 0.015179086 0.04348829
0001b0 fd 62 a5 3d cd 9d 3e bd d0 f9 b3 3d 8d 44 15 3c
       0.08075521 -0.04653721 0.08787882 0.009110582
0001c0 53 fa 69 3d 4a c7 95 3d cd 33 a8 3d 32 da 81 bd
       0.057123493 0.07313402 0.08213005 -0.063404456
0001d0 4d 54 ff bb 73 18 2a bd ab 49 b0 bd cd c5 41 3d
       -0.007792032 -0.041527223 -0.08607801 0.04730778
0001e0 80 90 3e 3d 3b 44 9f bd 9a fb d2 3b 4f f4 a7 bd
       0.046524525 -0.07776686 0.0064386846 -0.08200895
0001f0 90 35 86 bd 68 bb 9c bd 47 7b ea bc 42 21 a3 3d
       -0.06553185 -0.076529324 -0.028623236 0.07965328
000200 80 6e 96 3c 93 20 0f 3d 37 a2 6d 3d 5d 17 7a bd
       0.018363237 0.034943175 0.05801603 -0.061057437
000210 47 b3 84 3d 9a d4 8b bc da ce 01 bd 67 45 5b bb
       0.06479507 -0.01706915 -0.03169141 -0.0033458115
000220 ad 43 59 bd 27 57 e9 3c 67 ef 26 3c 3a 99 d0 bc
       -0.053043056 0.02848394 0.010188914 -0.02546369
000230 7d 6a b7 bd f7 8f 05 3d 53 f9 ca 3c e7 c1 98 3d
       -0.08955858 0.032608 0.02477709 0.07458859
000240 3b da 80 3d ad 4f 94 bd 2d d0 03 bd 30 75 54 3d
       0.06291624 -0.072417594 -0.032180954 0.05186957
000250 1f f2 c0 3d c7 e0 42 3d 4d 8d 54 bd 7a 6e cb bd
       0.09421181 0.047577646 -0.051892567 -0.09933181
000260 cd c1 5f 3c cd 36 d7 3c 4d bf a2 3d c0 8f b2 bd
       0.013657046 0.026271248 0.07946644 -0.087188244
000270 0f f6 a5 bd 98 3e b7 3d 80 0b ba bd 77 17 bb 3d
       -0.081035726 0.08947486 -0.09084225 0.09135335
000280 ba 2b b1 bd fd 99 cc 3d 27 5c 33 3c f2 cf a3 3d
       -0.08650918 0.099903084 0.010947264 0.07998647
000290 27 9e 20 3d 5a 5d 7c bd 67 80 40 bb 67 86 58 bd
       0.039213326 -0.061612464 -0.0029373409 -0.05286255
0002a0 2d 2a cf bc cd 6e b1 ba 65 0c aa 3d 90 f0 50 3d
       -0.025288666 -0.001353705 0.08303145 0.05101067
0002b0 ff bd a4 bd c7 fd b4 3c 42 87 a2 3d 13 70 ae 3c
       -0.080440514 0.022093667 0.07935955 0.021293676
0002c0 33 d5 0a 3d 17 26 54 bd 20 d0 27 bd b2 dc 80 bd
       0.03389473 -0.051794138 -0.040969968 -0.06292094
0002d0 b3 a9 f0 3c c0 cc 00 3d 4d c7 eb 3b d3 a7 f4 bc
       0.029377794 0.031445265 0.0071953894 -0.029865181
0002e0 28 a4 b0 bd 40 c7 27 3c 5f 14 ab bd cd f5 e5 bb
       -0.0862506 0.010240376 -0.08353495 -0.007017827
0002f0 00 d3 6c 3b 27 77 3d 3c 0a c2 60 3d e0 2b 9a 3d
       0.0036136508 0.011564053 0.05487255 0.075279
000300 43 20 4d 3d a3 a6 8f 3d 10 c8 52 3d 1a be a7 bb
       0.050079595 0.07014205 0.051460326 -0.0051190974
000310 da 8d 16 3d 98 c6 c9 bd d0 35 4a 3d 07 cd a6 3d
       0.036756374 -0.09852332 0.049367726 0.081445746
000320 b5 72 c6 bd fa 0f af bd 80 52 f6 3c cd 92 35 3d
       -0.096898474 -0.08547969 0.030068636 0.044329453
000330 70 35 26 3d a7 db a4 bd 57 6c 3d bd 03 61 0c bd
       0.040578306 -0.08049708 -0.0462459 -0.034272205
000340 e7 74 28 3d 55 11 aa 3d ca b9 b4 3d bd f1 0b bd
       0.04112711 0.08304087 0.08824499 -0.034166086
000350 7d 25 c9 bd f3 b5 e7 3c f7 48 98 3d a7 d6 df 3c
       -0.098216034 0.028285002 0.07435792 0.027324034
000360 5a 07 18 3d cd bc 3f bd e7 f7 ba 3b 30 c5 0e bd
       0.037116386 -0.046810914 0.005705822 -0.03485602
000370 7a 5c c7 3d 55 0d 87 3d 13 63 a5 3d cd 6a b9 bc
       0.097344354 0.0659434 0.080755375 -0.022633934
000380 f3 0d 30 bd aa a8 3f 3d 73 b6 c3 3c a2 33 8f 3d
       -0.042982053 0.04679171 0.02389071 0.0699227
000390 f3 55 83 bd 7d 88 5b 3d 5d b3 82 bd 4d fa ea 3b
       -0.06412878 0.053596962 -0.06381867 0.0071709515
0003a0 aa 5d 90 3d 33 0f 04 bd 97 52 4f 3d 17 1d 87 bd
       0.07049115 -0.032241058 0.050615873 -0.06597345
0003b0 fb 8f c6 3d f3 5d 7d bc 83 ec 01 3d f3 7a 3f bd
       0.09695431 -0.015464294 0.031719696 -0.046748113
0003c0 ba 25 a3 3d 17 f6 16 3d a7 de 9a 3d d2 53 b5 3d
       0.0796618 0.036855783 0.07561999 0.08853878
0003d0 67 2b 6a 3c cd e4 93 39 33 3f a1 3c 00 99 9b 3c
       0.0142925745 0.00028208495 0.019683456 0.018993855
0003e0 07 d3 eb bc e0 dd 2d 3d 4d 2a c3 3d 5a 6b d0 bc
       -0.02878715 0.042447925 0.095295526 -0.025441814
0003f0 a0 7a f9 bc ba ce c4 bd 73 0b a1 bc f8 30 b8 3d
       -0.03045398 -0.096097425 -0.01965878 0.08993715

encoder.layer0.bias f4 [100]
000000 fd b0 b4 3d 3d e2 b0 bd fa 02 2a 3d dd 03 a4 3d
       0.0882282 -0.086369015 0.041506745 0.08008549
000010 0a 44 b0 3d dd 1e 51 bd ad 41 b5 3d 3d 62 ca 3d
       0.086067274 -0.051054824 0.08850417 0.09882019
000020 50 b5 55 3d cd 6f 3b 3d fd 2b 11 bd 2d 7d e4 bc
       0.052174866 0.04576092 -0.03544234 -0.02789172
000030 00 96 eb bc 60 07 e1 3c 20 82 c0 3c 57 8c 86 bd
       -0.028758049 0.027469337 0.023499548 -0.065697365
000040 e3 d9 82 3d 7d 08 23 3d a3 41 0a bd e7 32 c4 3c
       0.06389215 0.039803017 -0.033754002 0.023950053
000050 ed c9 c3 3c f2 36 a9 3d 67 1e 67 3d 3f 55 a0 3d
       0.023899997 0.08262433 0.05642548 0.078287594
000060 cd 14 2a bc a7 63 6b 3c d7 fd 61 3d c7 03 08 bd
       -0.010380936 0.014367021 0.05517372 -0.033206727
000070 0a a9 3d 3d 9b 94 c6 bd 18 60 85 bd e7 eb 49 bc
       0.046303786 -0.09696313 -0.06512469 -0.01232431
000080 35 5b ba bd d0 20 c7 bd eb af c7 bd da aa 5e 3c
       -0.090994276 -0.09723055 -0.097503506 0.013590539
000090 28 88 a7 3d 7d 8e 93 3d f3 b6 12 bc f7 0b 78 3d
       0.081802666 0.07204912 -0.008954751 0.060558286
0000a0 38 bc c1 3d 40 b2 43 bc 9a c0 83 bb 9a 7d 92 3d
       0.09459728 -0.011944354 -0.0040207626 0.07152863
0000b0 6d c7 d8 bc 43 93 93 bd 0d a5 bd bc 70 61 b1 3d
       -0.026462281 -0.07205822 -0.023149991 0.08661163
0000c0 2d 31 c8 bc 95 39 ac bd f3 b6 73 bc e7 e6 c1 3c
       -0.024437511 -0.084094204 -0.014875161 0.023669673
0000d0 a0 16 85 bc 00 60 32 bb a0 da 7d bd 8d 7f 69 bc
       -0.01624614 -0.0027217865 -0.061976075 -0.014251602
0000e0 93 f9 49 3d 77 34 ae bd 77 3a 2a bd fd f3 93 3d
       0.04931028 -0.085061006 -0.041559663 0.072242714
0000f0 4d 62 d1 bb 1a 8d c6 3c cd 9f c7 bd 6a d9 32 bd
       -0.006389892 0.024237204 -0.097472765 -0.043664373
000100 bd 76 81 3d a0 31 b5 bc 27 79 7d 3d a0 a9 98 3d
       0.06321476 -0.02211839 0.061883118 0.074542284
000110 3a cd be bc 6a c0 cc 3d e0 d2 c3 bc 5f ee a8 bd
       -0.023291219 0.099976376 -0.023904264 -0.08248591
000120 1a a2 ff 3b 00 95 fd bc d3 c3 67 bd e8 86 bc bd
       0.0078013064 -0.030954838 -0.056583237 -0.09205419
000130 ed 90 34 bd b3 57 a3 bd 67 8d c6 bc 0d 65 41 3c
       -0.044083524 -0.07975712 -0.024237348 0.011803878
000140 fa bd ca 3c 08 9b 9a bd 93 aa b9 3c c3 72 11 3d
       0.024748791 -0.07549101 0.022664344 0.035509836
000150 0f 09 a1 bd 67 30 fd bb ed d3 f1 bc 4d 50 8b bd
       -0.07863056 -0.0077267173 -0.02952 -0.068024255
000160 98 12 9d 3d 00 ae 02 3b e0 67 57 3d a8 18 9c bd
       0.07669562 0.0019940138 0.052589297 -0.0762189
000170 1f 41 b1 bd 4d ee dd 3c cd ac 82 ba b3 01 ab 3b
       -0.08654999 0.02709117 -0.0009969712 0.0052187084
000180 13 a5 7d 3d b3 e2 f4 3b f3 b1 13 bc 20 0c 93 3c
       0.061925005 0.0074733137 -0.009014594 0.017950118

encoder.layer2.weight f4 [256, 100]
000000 e5 5b a9 bd 67 90 3f 3c 27 87 44 3d b0 5f 8e bd
       -0.082694806 0.011692143 0.047980454 -0.06951845
000010 47 1a 82 bd 00 e0 b9 b9 50 6c b4 3d cd d4 b3 3d
       -0.06352668 -0.00035452843 0.088097215 0.08780823
000020 9f d8 af 3d 2d f6 b0 bc 67 2e 07 bd 3a ba c1 bd
       0.08586239 -0.02160176 -0.033003237 -0.09459348
000030 f3 b1 12 3d c3 3b 1d 3d 4d 50 2b bc 48 78 bb 3d
       0.035814237 0.03838707 -0.010456157 0.09153801
000040 35 80 cb bd 95 72 82 3d 88 67 95 3d cd ad b9 3d
       -0.09936563 0.06369511 0.07295138 0.09066353
000050 d0 d5 95 3d e7 1e 9a 3b ad e4 a7 3d 6a 81 44 bd
       0.07316172 0.004703391 0.08197913 -0.04797498
000060 4d 49 22 bc 80 fd c4 3c ca a3 64 bd 87 15 45 bd
       -0.009905172 0.02404666 -0.055820264 -0.048116233
000070 9a f4 33 3b a5 69 8a bd e7 f4 69 3d 12 97 87 3d
       0.0027459026 -0.06758431 0.057118323 0.06620611
000080 42 f4 ac 3d 9a 7a a8 3c 40 ae 8d 3d 33 4c 70 bd
       0.08445026 0.020566273 0.06918001 -0.05866642
000090 d5 ad cc 3d 6d b3 d9 bc cd 76 19 bb e7 c9 17 3c
       0.09994093 -0.026574815 -0.0023416758 0.009264446
0000a0 ca 00 79 bd 9a d6 3f bc 82 65 99 bd c3 3f 9a 3d
       -0.060791768 -0.01170888 -0.07490064 0.07531693
0000b0 a7 68 ac bc 1a ca bd 3b 13 06 0b bd 75 8d 9e 3d
       -0.021045996 0.0057919146 -0.03394134 0.077418245
0000c0 95 7c a8 bd 6a 00 6e bd e7 31 a0 3c 33 53 4e bc
       -0.08226887 -0.058105864 0.019555045 -0.012593078
0000d0 8d fb 25 3d 9a 25 50 ba a3 2e cb 3d 6a 73 16 bd
       0.0405231 -0.00079401734 0.099210046 -0.03673116
0000e0 00 94 7f 3b 5f 78 be bd 93 4f 60 3d d7 9c 3e 3d
       0.0038998127 -0.09300303 0.054763388 0.046536293
0000f0 1d d8 94 3d fd b4 7a 3d 4a 05 32 bd aa 71 06 bd
       0.07267783 0.06120776 -0.043462075 -0.032823242
000100 37 21 aa bd e3 b8 56 bd c0 4f 0b bc a7 94 8c 3d
       -0.083071165 -0.052422415 -0.008502901 0.06864291
000110 4d b3 41 3c 63 fc c4 bd d0 27 11 bd 40 52 d9 bc
       0.011822534 -0.096184514 -0.03543836 -0.026528478
000120 15 82 be bd a0 6b cb 3d fd 9a 76 3d 55 a2 a3 bd
       -0.09302155 0.09932637 0.060206402 -0.07989947
000130 8a 19 30 bd 3d 8e c1 3d 67 d3 76 bc 8d 78 4e 3c
       -0.042993106 0.09450958 -0.015065051 0.012601984
000140 c3 e0 26 bd cd b7 2c bc 07 58 83 3d 1f 01 9d bd
       -0.040741693 -0.010541868 0.06413274 -0.076662295
000150 a3 94 4b bd 80 d5 0b 3d c2 34 9f 3d 7a af 3c 3d
       -0.049702298 0.034139156 0.07773735 0.046065785
000160 f7 d9 5d 3d 52 ff b8 3d 33 b8 4f 3d 93 06 a2 3c
       0.054162946 0.090330735 0.050712775 0.019778525
000170 92 15 ab bd d2 a4 c4 3d 7b 32 83 bd 4d 08 89 bc
       -0.083537236 0.096017495 -0.06406113 -0.016727591
000180 2a 7a 44 3d 40 1e 9d 3c 48 7f b1 bd e3 95 2f 3d
       0.047968067 0.019179463 -0.08666855 0.042867552
000190 72 c2 8a 3d 50 c3 c6 3d cd 7c df 39 07 ac fc 3c
       0.06775369 0.09705222 0.00042626858 0.030843748
0001a0 48 d4 bf bd ab fb b8 bd da ce b1 3d bd 2b 9a 3d
       -0.09366661 -0.09032377 0.08682032 0.07527874
0001b0 43 cf 09 3d 3d f0 99 bd 80 fe 53 bd 00 0c 66 bd
       0.033644926 -0.07516525 -0.051756382 -0.056163788
0001c0 27 76 a3 bd e5 3b bf bd a5 e0 c5 bd 6f 7e a4 bd
       -0.0798152 -0.09337596 -0.09661988 -0.08031928
0001d0 80 6b 6f bd 35 f8 a8 bd 9a 61 7e 3b f3 9d 10 bd
       -0.05845213 -0.08250467 0.00388155 -0.035306882
0001e0 58 01 c8 bd a0 03 9e 3d df 1d bf 3d cd 39 ab bd
       -0.09765881 0.07715535 0.09331869 -0.08360634
0001f0 ed 3c c0 bd 37 e5 c3 3d 8f 06 c7 bd 2d f8 a9 3c
       -0.09386621 0.09565204 -0.09718048 0.020748222
000200 a0 44 fc 3c fa b6 bb bc 4d fe 5a bc 33 8b 3a bd
       0.030794442 -0.022914398 -0.013366294 -0.045542907
000210 d3 01 b1 3c 53 42 ff 3c 53 4e 40 bd 33 d0 f4 3c
       0.021607315 0.031159556 -0.046949696 0.029884433
000220 2d b8 bc bd c7 c4 c4 3c cd fc 68 b9 d3 e8 29 bd
       -0.09214816 0.024019612 -0.0002221942 -0.041481804
000230 80 c7 b5 3b d7 73 66 bd 3a 48 a5 bc 92 38 ad bd
       0.005547464 -0.056262817 -0.020176042 -0.084580556
000240 9d a5 93 3d 67 64 f2 bb 5a a6 a3 bc 27 30 76 3d
       0.072093226 -0.007397223 -0.019976784 0.060104515
000250 9a 33 67 bb b3 82 42 bc e5 ac 8f bd ad 28 2b 3d
       -0.003527856 -0.011871981 -0.07015399 0.04178684
000260 8d 77 d8 3c 53 93 6c bd c0 04 6b 3c 9a 97 b1 bd
       0.026424194 -0.057757687 0.014344394 -0.08671494
000270 73 22 44 3c 3a bd 35 3d 68 5f a2 bd 27 82 9d 3d
       0.011971104 0.044369914 -0.079283535 0.0769084
000280 4a 01 ca bd 4a 01 b2 3d a7 de 09 bc 70 b0 41 3d
       -0.09863527 0.08691652 -0.008414901 0.047287405
000290 e8 67 90 3d 1d 0b c1 bd da 5a d4 3c c0 d6 41 3c
       0.070510685 -0.09425948 0.025922228 0.011830986
0002a0 90 72 c5 3d fa 96 2b bd 6d 88 b6 bd ad e6 f6 bc
       0.09640992 -0.04189203 -0.0891274 -0.030139292
0002b0 90 73 0b bd a3 c9 2f 3d fa 3e c3 3c da 30 2a bc
       -0.034045756 0.042916905 0.02383374 -0.010387624
0002c0 4a 5a 9e 3d 23 b4 77 bd 20 ae 85 3d c0 0d e3 bc
       0.07732065 -0.060474526 0.06527352 -0.027716517
0002d0 83 b2 99 3d aa 9e 48 3d 33 13 95 3a 75 b9 87 3d
       0.075047515 0.04897944 0.001137352 0.0662717
0002e0 d0 de ca bd 5d d5 97 3d ca e8 7f 3d 9a 85 fe bb
       -0.09905779 0.07413743 0.062477864 -0.0077673914
0002f0 a0 94 05 3d 53 b8 d3 bc 97 c0 20 3d 6d 3f 8f 3d
       0.032612443 -0.025844729 0.039246168 0.069945194
000300 e0 03 51 bd 6a 2f 17 bd 3a 4d f0 bc f3 49 66 3c
       -0.051029086 -0.036910452 -0.0293337 0.014055717
000310 37 7e 49 bd a0 7c f2 3c e7 32 6c 3c e0 e8 b2 bd
       -0.049192633 0.029600441 0.014416433 -0.08735824
000320 23 f4 13 3d e7 6e 2f bd 9a cd 27 3b 60 98 e6 3c
       0.0361215 -0.042830374 0.0025604726 0.02814883
000330 67 e8 62 bb 00 e1 9e 3c d3 b3 7c 3d 00 20 c0 bb
       -0.0034623386 0.019394398 0.06169493 -0.0058631897
000340 50 ee 59 bd 67 35 26 bb c3 86 a8 3d 80 ac c5 bd
       -0.053205788 -0.002536142 0.08228829 -0.096520424
000350 40 5c 0c 3d 17 d0 50 bd 73 72 15 3c 43 c9 4a 3d
       0.034267664 -0.0509797 0.009121525 0.049508344
000360 cd 48 3c 3c 00 e8 20 3d 7a 2c 19 3d 9a 38 9a bd
       0.011491966 0.039283752 0.03739593 -0.07530327
000370 00 b6 df bc 00 63 fa 3b 08 93 b1 3d cd 68 2d bc
       -0.027308464 0.0076411963 0.08670622 -0.0105840685
000380 b3 8b 07 3d c0 7e 2b 3c 0d 9f 23 bd 4d 3e c5 bb
       0.033092212 0.010467231 -0.039946605 -0.0060193897
000390 3a 10 9e bd 73 0f 75 3d 0d 68 81 3c 47 20 8b 3c
       -0.07717939 0.059829187 0.015796686 0.016983164
0003a0 58 1f a6 bd 33 f6 12 3d 63 1b b5 bd 55 c4 8f bd
       -0.08111447 0.035879325 -0.08843114 -0.07019869
0003b0 93 e9 25 3d d2 c8 98 bd 82 f2 b3 3d ea fe 53 bd
       0.040505957 -0.074601784 0.08786489 -0.051756777
0003c0 cd ce fe 3a cd 63 b2 3c 33 a3 d8 3c 1b 77 97 3d
       0.0019440294 0.021776104 0.026445007 0.073957644
0003d0 1b 74 aa bd 37 7e 26 bd 2a 7f 3d 3d 77 8a 26 3d
       -0.083229266 -0.04064771 0.04626385 0.040659394
0003e0 33 d3 32 bd fa af 07 bd 02 67 a8 3d a7 c2 79 3d
       -0.043658447 -0.03312681 0.08222772 0.06097665
0003f0 f8 99 cc bd 4b 64 b6 bd 5d de 2a 3d 47 8a fd bc
       -0.09990305 -0.08905848 0.04171597 -0.030949725

encoder.layer2.bias f4 [256]
000000 13 47 87 3c c5 ca c6 3d 4a 7c a5 3d 58 7b 9b bd
       0.016513383 0.09706644 0.08080347 -0.07591885
000010 80 ed 72 bc 00 c2 55 bc 80 4c c4 3d 60 bd 8c 3c
       -0.014827132 -0.0130467415 0.09584904 0.017180145
000020 33 e1 71 bb 38 68 b6 3d 27 46 23 3c 03 b3 19 bd
       -0.003690791 0.08906597 0.009965456 -0.037524235
000030 d2 a8 c5 3d fa a5 bd bd d0 d1 90 3d ff 23 ae bd
       0.096513405 -0.09260173 0.070712686 -0.085029595
000040 d0 23 34 bd 67 5e 86 39 9a dd 31 bc 8d 1e f4 bc
       -0.043979466 0.00025628807 -0.010856057 -0.029799724
000050 cd ac f4 bc 2d a5 37 bd cf 43 a6 3d bd 4c 82 bd
       -0.029867554 -0.04483526 0.08118402 -0.06362293
000060 1a 63 bc bb ad 95 33 3d a7 bd 1b 3c 67 fb 69 3c
       -0.0057491185 0.043843914 0.009505666 0.01428113
000070 ed e8 b2 bc e7 17 88 3c df 3d 8c 3d 00 80 a3 3b
       -0.021839583 0.01661296 0.068477385 0.004989624
000080 07 1f c0 3d 7d c1 11 bd 2a 80 71 bd 5a 3e a0 bd
       0.09380918 -0.035584915 -0.058960117 -0.078243926
000090 bb 78 a9 3d 42 7d 8d 3d 2a 37 a5 3d 80 69 1e 3d
       0.08274981 0.06908657 0.08067162 0.03867483
0000a0 30 38 6c 3d e7 17 d6 bb 47 d2 a5 bc 87 31 bd bc
       0.057670772 -0.006533611 -0.02024187 -0.023094906
0000b0 f7 f2 7e bd 80 fc 61 bc cd b5 30 3c 00 fc 86 3a
       -0.062243428 -0.013793111 0.010785532 0.001029849
0000c0 1a c4 63 bc 38 1e cc bd 03 c5 16 bd 1a 27 70 3d
       -0.013901735 -0.09966701 -0.03680898 0.05863104
0000d0 05 42 a1 3d 7d 72 3a bd ad a4 8e bd 63 65 a3 3d
       0.0787392 -0.04551934 -0.06965003 0.07978322
0000e0 b2 e0 87 3d ef 11 a7 bd 60 42 0f 3d 4a 5a c9 bd
       0.06634654 -0.081577174 0.03497541 -0.098316744
0000f0 ad ee a2 bd e7 25 fe bb 50 3e 24 bd 83 b3 6b 3d
       -0.0795568 -0.007755983 -0.04009849 0.057544243
000100 27 d6 8e 3d 13 4c f9 3c 25 3d b4 3d 93 0e 9f 3d
       0.0697444 0.030431783 0.08800725 0.07766452
000110 ba 46 d9 3c a0 f5 87 bc 57 9a 53 bd 35 18 a7 bd
       0.026522983 -0.016596615 -0.05166086 -0.08158914
000120 b3 c3 bd bc 07 2a ed bc f3 12 e2 3c ef a3 85 bd
       -0.023164606 -0.028950704 0.027596926 -0.065254085
000130 ef bb ae 3d 5a 10 c7 bc 47 0e d4 3c cd 0a 1e bc
       0.08531939 -0.02429979 0.025885714 -0.00964613
000140 f8 9a 9c bd 33 33 99 3b 4d 3a 59 bd 50 98 a3 3d
       -0.076467454 0.004675293 -0.053034116 0.07988036
000150 c7 05 1d 3d c0 c1 45 3c c0 42 47 bd 70 fe 18 bd
       0.038335588 0.012070119 -0.048647642 -0.037352026
000160 4d cf 94 3d 57 07 2e bd 13 a3 49 3d 57 52 a4 3d
       0.07266102 -0.04248747 0.049227785 0.080235176
000170 4a 33 44 3d 3a ac 31 3d c0 8d 11 bc 1a 85 d1 3c
       0.047900476 0.04337714 -0.0088838935 0.025576163
000180 77 a6 ad 3d bd d4 43 3d 27 a8 66 bd 33 73 51 3b
       0.08479016 0.047810305 -0.056312706 0.0031959533
000190 ff 5d 88 bd c2 ee ae 3d 80 d5 e6 bc b3 48 4d 3c
       -0.06658553 0.08541633 -0.028177977 0.01252954
0001a0 57 31 b0 bd 33 f3 bf 38 80 71 bb bd e0 0f b7 3d
       -0.08603161 9.152889e-05 -0.09152508 0.08938575
0001b0 8d 7a 67 bd e0 a9 73 bd 67 26 31 b8 00 36 90 bc
       -0.056513358 -0.059488177 -4.2235853e-05 -0.017603874
0001c0 13 d0 43 bd 07 77 c8 bc 75 e6 ae 3d 27 2c 7a 3c
       -0.047805857 -0.02447082 0.0854005 0.015269316
0001d0 f0 2a 19 bd ca f1 a5 bd ed 91 c0 3d 90 1a 32 3d
       -0.037394464 -0.08102758 0.09402833 0.043482363
0001e0 c3 b7 97 3d a3 b0 18 bd 2f 3d c1 bd cb 95 b0 bd
       0.07408097 -0.03727783 -0.09435498 -0.08622321
0001f0 c7 be 3a bd 0a 22 a8 3d 12 4f ac bd ba 58 bf bc
       -0.045592096 0.082096174 -0.08413519 -0.023357738
000200 cd 01 64 3d 2d 14 26 3d a7 43 c6 bc 2d 3c ee 3c
       0.05566578 0.040546585 -0.024202181 0.029081428
000210 6f e1 b7 3d ed 70 91 bc f3 b6 3d 3c ea 0c 6a 3d
       0.08978545 -0.017754043 0.011579263 0.057141222
000220 45 13 ac bd 6a 26 74 3d ba ee 62 3d 87 6d 83 3c
       -0.08402113 0.059606947 0.05540345 0.016043438
000230 2d b3 18 bd d8 53 b1 3d b3 0c 7a bc 67 91 7a 3d
       -0.03728025 0.0865857 -0.015261817 0.061173823
000240 5d 54 38 3d 45 08 b4 3d 02 f6 8e bd 03 82 4c bd
       0.04500233 0.0879064 -0.06980516 -0.049928676
000250 33 1a 96 bb cd 62 cb 3d 9a 29 1c ba f7 56 af 3d
       -0.00458076 0.09930954 -0.0005957127 0.08561509
000260 f3 1b 40 3d fd 8e c5 bd 67 e7 93 bd 78 91 80 bd
       0.046901654 -0.096464135 -0.07221871 -0.06277746
000270 cd 6d 97 bd 50 1d 1c bd bf 17 a5 bd 3a 59 25 3d
       -0.0739399 -0.038113892 -0.0806117 0.040368296
000280 3a 95 b5 bd 07 a8 d4 3c 70 48 15 bd f7 ad 21 3d
       -0.08866353 0.025959028 -0.036446035 0.039472546
000290 5b c4 b1 bd 7d 7a 4c bd 9d 6a 44 bd c7 9d df 3c
       -0.0868003 -0.0499215 -0.047953237 0.027296914
0002a0 65 b2 89 bd 33 06 9b 3d 73 79 35 bc b3 5e 10 3c
       -0.06723479 0.07569542 -0.011076319 0.008811641
0002b0 ad 03 ac bd 40 c5 df 3c 30 3f be 3d cd 1b c2 3c
       -0.083991386 0.027315736 0.09289396 0.023694897
0002c0 a3 48 45 bd 3a 4a 66 bd 80 f9 9c bc 88 60 c6 3d
       -0.048164975 -0.05622313 -0.01916194 0.096863806
0002d0 6a 29 3c bd 2a 62 46 bd 10 9f 92 3d 28 d8 9d bd
       -0.045937933 -0.04843346 0.07159245 -0.07707244
0002e0 4f ab bc 3d dd d8 08 bd ba f5 cd 3c 57 a2 4b 3d
       0.09212362 -0.033409942 0.025141586 0.049715366
0002f0 93 a7 b6 3c 4d 6b dd 3c d5 f0 91 3d 80 1e 9e bc
       0.022296702 0.027028704 0.07126013 -0.019301653
000300 82 91 82 3d c7 53 df bc ed fd 08 bd 78 5d 9f 3d
       0.0637541 -0.027261628 -0.033445287 0.077814996
000310 ed cb a8 3d 2a 3e 66 bd 38 e6 bf 3d 23 b7 5f 3d
       0.08242021 -0.056211628 0.093700826 0.054618012
000320 5a 06 8a bd c5 e8 c2 3d fa df 3a bd 4f 5e bd bd
       -0.06739493 0.095170535 -0.045623757 -0.092465036
000330 f7 08 33 bd 1b 7c 9e bd 83 b9 78 3d aa 3e 35 bd
       -0.04370972 -0.07738515 0.060723793 -0.044249214
000340 a7 4c 9d 3d 20 ba ef 3c 48 61 cc 3d 4b 4c 9f bd
       0.07680636 0.029263556 0.099794924 -0.077782236
000350 c7 80 d7 3c 8d 0f 47 3d 03 75 92 3d 1a 7a 92 3d
       0.026306523 0.048598815 0.071512245 0.07152195
000360 ed 51 48 bd 3d f9 73 3d b7 84 48 bd 70 84 bd bd
       -0.048906256 0.059563864 -0.04895469 -0.09253776
000370 ea 85 0c 3d b3 80 72 3c 33 37 7d 3b f3 f5 78 3c
       0.034307398 0.014801192 0.0038637638 0.015195358
000380 80 67 93 bd c0 e9 3b 3c 87 04 c7 bd 4d 8c 6f 3d
       -0.071974754 0.011469305 -0.097176604 0.05848341
000390 d5 27 c5 3d 4a ea 5d 3d 0d 38 65 3c a0 fd b6 3d
       0.09626738 0.054178514 0.013990414 0.08935094
0003a0 a3 63 8e bd 4d 05 ea bc 63 fa 7f 3d 1f 38 a2 bd
       -0.06952598 -0.02856698 0.062494647 -0.079208605
0003b0 58 ef 90 3d fd 92 15 bd 67 15 4e bd 47 aa 23 3d
       0.07076901 -0.036517132 -0.05031338 0.03995731
0003c0 f2 6b b7 3d 3a 69 f6 3c 00 82 1a 3c e7 ff 5d 3d
       0.08956136 0.030079473 0.0094304085 0.054199126
0003d0 c7 76 68 bd 73 00 84 3c 67 6e d8 3c d7 5c 08 3d
       -0.0567539 0.016113495 0.026419831 0.033291664
0003e0 7a e1 62 bd 9a 39 13 b9 cd ac 6e b9 ef 63 94 bd
       -0.055390812 -0.0001404047 -0.00022761822 -0.07245623
0003f0 73 d9 c2 bd 35 51 82 3d 18 d7 9b bd b0 26 82 bd
       -0.095141314 0.06363145 -0.07609385 -0.06355035

fc_mu.weight f4 [2, 256]
000000 fe be 00 bd 68 1d 60 bc e4 c5 6f 3d f4 d8 b0 bc
       -0.031432144 -0.013678886 0.058538333 -0.021587826
000010 86 2d 59 bd 52 cb 2b bd ce 62 02 bd 9c 62 e0 3c
       -0.05302193 -0.04194195 -0.03183251 0.02739077
000020 96 26 4a 3d 90 db 19 3c 90 99 1c 3c e0 d5 05 3b
       0.049353205 0.009390727 0.0095580965 0.002042167
000030 f4 e4 da bc fe 36 3a 3d cc 14 60 3d 08 8c 0f 3d
       -0.026720501 0.0454626 0.054707333 0.035045654
000040 e0 a7 f9 bc 04 66 12 3d a4 9b 45 bd 0a 8b 06 3d
       -0.030475557 0.03574182 -0.048244134 0.03284744
000050 fc 5f a2 3c 68 b3 b1 bc c0 ac e8 bc f8 54 a3 bc
       0.01982116 -0.021691993 -0.028402686 -0.019937977
000060 bc ba 76 bd 20 c2 71 3d 08 0b a2 bc e0 0c 32 3c
       -0.060236678 0.059023023 -0.01978065 0.010867327
000070 e0 29 5e bc f6 bc 7b bd 40 f0 ad bc 4c 65 4d bd
       -0.013559788 -0.061459504 -0.021232724 -0.050145432
000080 20 77 5d 3c f0 00 bb bc ac 3a 87 bc 90 22 12 3c
       0.013517171 -0.022827595 -0.01650747 0.008919373
000090 40 c7 0d 3d 38 17 46 bd 08 96 a8 3c e6 d3 1b 3d
       0.034613848 -0.048361987 0.020579353 0.03804388
0000a0 d0 f3 d1 bc 00 87 b1 bb 64 03 17 bd 7e 38 4c bd
       -0.025628954 -0.0054177046 -0.036868468 -0.049858563
0000b0 56 bb 47 bd f0 3d 40 bd e6 05 29 bd 08 b9 50 bd
       -0.04876264 -0.04693407 -0.04126539 -0.05095771
0000c0 f4 04 07 3d 48 2f 6b bc be 7a 0a bd 30 b0 0e 3d
       0.032963708 -0.014354534 -0.033808462 0.034835994
0000d0 70 6e 60 bc 8e b6 40 3d fe 44 5e bd b8 72 7c 3c
       -0.013698205 0.047049098 -0.054265015 0.01540821
0000e0 20 a9 42 3b b6 a5 16 bd b8 f0 3d bd 00 9c 33 b9
       0.0029702857 -0.036779128 -0.046372145 -0.00017128885
0000f0 e0 a2 32 bd f4 8c 40 3d c6 7d 33 bd 8c 2b 73 bd
       -0.04361236 0.047009423 -0.04382112 -0.0593677
000100 e2 fa 21 3d c0 31 b3 3c 00 cc 85 3c 48 80 75 3c
       0.0395459 0.021874309 0.016332626 0.014984198
000110 00 6b b4 3b c8 2a 5a bd 80 ef 49 3c de 5f 4a bd
       0.0055059195 -0.053263456 0.012325168 -0.049407832
000120 46 db 6c bd 44 12 df 3c 5a b8 65 bd fa 23 31 3d
       -0.057826303 0.02723039 -0.056084014 0.0432472
000130 84 6b 61 bd fc 7b f7 3c 8c 09 f0 bc 5c 02 25 bd
       -0.055034176 0.030210488 -0.029301427 -0.040285453
000140 9c a9 71 bd 3c a5 35 bd b4 56 35 bd ec 99 91 3c
       -0.058999643 -0.044347033 -0.04427214 0.017773591
000150 de 39 76 bd 60 82 a2 3b e0 94 20 bb 9c bb 4c 3d
       -0.06011378 0.0049593896 -0.00245028 0.049983606
000160 d4 ec 2d 3d b4 a6 15 bd bc 81 2a bd a0 07 63 bc
       0.042462185 -0.036535934 -0.04162763 -0.013856798
000170 00 4f 1d 3a 40 f7 16 bd e6 3d 1d 3d fe 9e 28 bd
       0.00060008466 -0.03685689 0.03838911 -0.04116725
000180 e4 c2 1c bd 08 81 e9 bc 78 5e 03 bd 58 7d 21 bd
       -0.0382718 -0.02850391 -0.032072514 -0.039426178
000190 f6 64 54 bd 92 45 57 bd 54 f3 44 bd 52 dd 4c 3d
       -0.051854096 -0.05255658 -0.04808362 0.050015755
0001a0 f0 56 63 3c 88 c6 64 3d 88 f3 5f 3c 94 cf d0 bc
       0.013875708 0.055853397 0.013668902 -0.025489606
0001b0 48 b4 c0 3c 00 05 46 bb 70 70 e7 bb 00 fd dd 39
       0.023523465 -0.0030215383 -0.007062964 0.00042340904
0001c0 70 01 54 bd e0 87 41 bd a0 aa fb bc 3e c1 5f bd
       -0.051759183 -0.04724872 -0.030721009 -0.05462765
0001d0 b4 69 8f bc c4 c0 87 3c 78 08 53 3d 48 7d 14 bd
       -0.017506458 0.01657141 0.05152175 -0.03625229
0001e0 56 22 1f 3d 6e 51 61 bd f8 9c 80 bc 3c f8 f7 bc
       0.038851105 -0.055009298 -0.015699849 -0.030269735
0001f0 88 97 25 3c 68 9d db bc ec 19 eb 3c 80 e4 15 bb
       0.010106929 -0.026808456 0.028698884 -0.0022871792
000200 90 e8 f6 3b c0 a8 b1 3b f0 1d 7b 3d 74 8e c5 bc
       0.007535048 0.005421728 0.061307847 -0.024115779
000210 48 e8 ac bc 9c 2b 31 bd 2e 38 56 3d 8e a1 3e bd
       -0.021106854 -0.04325448 0.05229967 -0.04654079
000220 b8 cb 93 bc 38 38 3a 3c 40 5b 09 bd 7e eb 7e bd
       -0.018041477 0.011365943 -0.03353429 -0.0622363
000230 24 ac c7 3c b8 17 51 3c c4 22 65 bd c0 0a 35 3c
       0.024374075 0.012762003 -0.05594136 0.011049926
000240 00 e7 4e 3b c2 d7 49 3d f4 09 fc 3c 74 86 79 bd
       0.0031570792 0.04927803 0.030766465 -0.06091924
000250 e8 c3 bc bc 48 b1 8d 3c 9c 03 32 bd 1c 96 ab 3c
       -0.023042634 0.017296448 -0.043460473 0.020945601
000260 48 c4 49 3c a8 03 11 3c c2 39 12 bd 80 ba ba ba
       0.0123148635 0.008850969 -0.035699613 -0.0014246255
000270 68 09 e7 bc 4c b3 37 3d ce 71 46 bd e8 b7 7f 3c
       -0.028202727 0.044848725 -0.048448376 0.0156078115
000280 44 87 36 bd cc cf c2 3c 52 05 0f bd d8 59 32 3c
       -0.044562593 0.023780726 -0.034917183 0.010885678
000290 b4 9e 96 bc b2 47 2d 3d 98 c7 73 bd 50 1c 49 3c
       -0.018386222 0.042304702 -0.05951652 0.012274817
0002a0 2a ff 11 bd 10 88 5a bd 10 a9 6f 3d f2 75 4c 3d
       -0.035643734 -0.053352416 0.05851084 0.04991717
0002b0 88 e7 3f 3d 50 85 ca 3b 42 65 21 3d 26 94 40 bd
       0.046851665 0.006180443 0.039403208 -0.047016285
0002c0 1c 1e bd 3c 1a 6b 7d bd 40 33 e4 3a 92 be 2d 3d
       0.023085646 -0.061869718 0.0017410293 0.04241807
0002d0 c6 49 63 3d a8 01 72 3d 90 1e c0 3b 00 90 20 bb
       0.055490278 0.05908361 0.0058630183 -0.0024499893
0002e0 1a 0b 7e bd 38 48 75 3c b4 f2 71 bd 62 4e 22 3d
       -0.062022306 0.014970832 -0.05906935 0.039625533
0002f0 80 81 7f ba 88 91 b4 bc 80 a3 e7 3c b2 57 4a 3d
       -0.0009746775 -0.022042051 0.028276205 0.04940004
000300 16 d0 1c bd 00 c6 81 b9 c0 4a 18 3d 00 cf 1d 3c
       -0.038284384 -0.0002475232 0.037180662 0.009631872
000310 c0 39 c8 ba 88 84 7f 3c 58 d4 1f 3c 28 c4 a2 bc
       -0.0015276 0.015595563 0.009755217 -0.019868925
000320 9c f2 34 3d a0 a3 2c 3c 3c 85 60 3d 9a b1 40 3d
       0.044176683 0.010537058 0.054814562 0.047044374
000330 b0 9e ce bc ee 3c 30 bd 00 fb 34 3b fa a6 22 3d
       -0.025222152 -0.043026857 0.0027615428 0.039710023
000340 28 2f cb bc 6c 9e 18 bd 14 67 2d bd c4 e5 13 bd
       -0.02480276 -0.037260458 -0.04233463 -0.036107793
000350 ba 60 1e bd 6a 74 1f bd c6 80 5b 3d 72 0b 5a bd
       -0.038666464 -0.03892938 0.053589605 -0.05323357
000360 14 3e cf 3c b8 bd f9 bc f4 09 68 3d e4 18 6f 3d
       0.025298156 -0.030485973 0.056650117 0.058373347
000370 8c 20 a0 3c 10 9f e9 bc b0 00 a0 bc ac 0d 4a 3d
       0.01954677 -0.02851823 -0.019531578 0.049329445
000380 e0 a9 07 bb 0e a0 7d 3d 1a c6 20 3d cc 48 b8 3c
       -0.0020700619 0.06192022 0.039251424 0.02249565
000390 60 7e e5 bc 98 c8 0b 3c 08 dc 32 3d 30 df b8 3c
       -0.028014362 0.008531712 0.04366687 0.022567362
0003a0 b8 3c 63 bc f0 50 7e 3d 2a c5 54 bd f0 1c 62 3d
       -0.013869457 0.062088907 -0.051945843 0.05520338
0003b0 ba 06 2a 3d 80 ec 25 3d f8 54 25 bd 0e 58 05 bd
       0.04151032 0.040508747 -0.040364236 -0.03255468
0003c0 c2 8d 79 bd 76 bc 50 bd 44 f4 f8 bc c8 03 41 bc
       -0.060926206 -0.05096098 -0.030389912 -0.011780687
0003d0 30 5d 4a bc 72 c9 79 bd b6 26 13 3d 2c db 4d 3d
       -0.012351319 -0.06098313 0.03592559 0.050257847
0003e0 d0 37 5a bc 90 56 55 bd 34 23 d9 bc 22 e5 47 bd
       -0.013318971 -0.052084506 -0.026506044 -0.048802502
0003f0 2e 4a 14 3d 10 87 69 3d c0 7b f3 3b d0 c1 88 3b
       0.036203556 0.05701357 0.0074305236 0.004173495

fc_mu.bias f4 [2]
000000 b0 bb e1 bb 10 93 fb 3b
       -0.006888829 0.0076774433

fc_var.weight f4 [2, 256]
000000 c0 43 6a 3b 08 43 fd 3c ac 4e fb bc 62 77 35 bd
       0.0035745949 0.030915752 -0.030677162 -0.044303305
000010 82 f1 2e 3d d4 ff 8a bc 00 79 07 bd 3a 99 60 bd
       0.04271079 -0.016967691 -0.03307438 -0.05483363
000020 dc 04 d5 bc 1e c5 3e bd 6a c8 0e bd 00 ab 17 3d
       -0.026003294 -0.046574704 -0.0348591 0.037028313
000030 b8 4f 9b bc d4 8d 46 3d 7c ef f3 bc 40 57 67 3b
       -0.018958911 0.0484751 -0.029777281 0.0035299808
000040 20 34 2b 3d e6 45 25 3d 24 b6 e3 3c 9c c4 73 bd
       0.041797757 0.040349863 0.027796812 -0.059513673
000050 1a 5b 51 bd 00 63 bf 3a 8e 41 09 3d 60 64 b6 3c
       -0.05111227 0.0014601648 0.033509783 0.02226466
000060 14 26 d7 3c 20 37 44 bc dc 77 3f 3d 44 16 4a 3d
       0.026263274 -0.011976033 0.046745166 0.04933764
000070 80 0a df 3a 08 c8 26 bc 94 81 fe 3c b0 fc 91 3b
       0.0017016679 -0.010179527 0.031067647 0.0044551715
000080 3e ab 36 3d 34 25 18 bd aa 13 67 3d 3e 7e 18 bd
       0.044596903 -0.037144855 0.056415237 -0.03722977
000090 74 88 3a bd ac 1c 10 bd 04 a1 1c 3d ac e9 2d 3d
       -0.045540288 -0.035183594 0.038239494 0.042459175
0000a0 90 e5 2e 3d 7c 83 c0 bc c6 ea 31 bd 88 0c 38 bc
       0.042699397 -0.023500197 -0.043436788 -0.011233456
0000b0 66 d4 21 bd f4 ea 81 3c 2c e7 51 3d 86 b0 50 bd
       -0.0395092 0.015859105 0.051245853 -0.050949596
0000c0 d0 76 41 bd 1c ca b3 bc 5c df fe bc da 34 01 bd
       -0.04723245 -0.02194696 -0.031112365 -0.031544544
0000d0 be 90 7e bd 86 b6 0c 3d 18 24 d3 3c 98 c2 5d 3c
       -0.062149756 0.034353755 0.025774047 0.013535164
0000e0 3e 8e 0d 3d de bf 69 3d e8 65 f1 bc c4 7e eb bc
       0.03455948 0.057067744 -0.029467538 -0.02874697
0000f0 56 b5 10 3d ec 6a 55 bd 4c 03 8c bc 00 20 07 3b
       0.035329185 -0.05210392 -0.017091416 0.0020618439
000100 42 a2 33 bd 90 a9 d6 3b 42 d1 7d 3d dc b7 3a 3d
       -0.043855913 0.006550975 0.061967142 0.0455855
000110 50 73 ae bb 68 f7 22 bd 58 87 64 3d a0 7f 7b bc
       -0.005323805 -0.039786726 0.055793136 -0.015350252
000120 10 da 34 3d 00 d0 a0 3c e8 4e 4e 3d 86 14 69 3d
       0.044153273 0.019630432 0.05036822 0.05690434
000130 00 e9 22 bb 68 a2 07 bd 00 ac c6 39 a4 e6 16 3d
       -0.0024858117 -0.033113867 0.00037893653 0.03684105
000140 72 0a 3d bd 46 d5 69 3d e4 f8 c0 3c 70 9b 36 bd
       -0.04615254 0.05708816 0.02355618 -0.04458183
000150 d8 be 6b 3d 38 d9 58 bc dc 5d 7a 3d 1e 0d 79 3d
       0.05755505 -0.013235383 0.061124668 0.060803525
000160 72 a3 22 bd 08 8f 3e bc 54 52 35 3d a8 a2 c2 bc
       -0.039706655 -0.011630781 0.044267967 -0.023759201
000170 42 e6 23 3d 60 df b5 bb 50 e7 53 bd 20 c8 38 3d
       0.040014513 -0.00555031 -0.05173427 0.04511273
000180 80 c5 a4 bb aa 32 3a bd e4 95 a7 3c 58 1e 6a 3d
       -0.0050284266 -0.045458473 0.020457216 0.057157844
000190 e8 58 10 bd b0 9f 2b 3d e6 2c 7f 3d b0 86 53 bd
       -0.035241038 0.041900337 0.062298678 -0.05164212
0001a0 ca 07 75 3d 40 ff 9d 3a e0 f7 bf bb fa 9a 5f bd
       0.05982188 0.001205422 -0.0058584064 -0.054591157
0001b0 b8 99 f9 bc 82 b2 71 bd d4 4a aa 3c 0c a8 5b bd
       -0.030468807 -0.05900813 0.020787634 -0.05362706
0001c0 4c 4b f3 3c 66 8b 31 bd 22 ac 6b bd 40 d8 64 3c
       0.02969899 -0.04334583 -0.057537206 0.013967574
0001d0 3c ad 42 3d 84 c4 22 bd 6c 7b 16 bd 04 5a 2f bd
       0.04752849 -0.039738193 -0.036738798 -0.042810455
0001e0 b8 5d 6d bd b0 f5 fa bc 92 10 02 3d a0 7c 0c bd
       -0.057950705 -0.030634731 0.031754084 -0.03429854
0001f0 00 38 4d bd 20 2f a9 3c 4e c6 18 3d 78 6d e8 bc
       -0.050102234 0.020652354 0.037298493 -0.028372511
000200 a8 16 0e bd 8c 24 db 3c ec 71 30 bd 2a 31 00 3d
       -0.034689575 0.026750825 -0.043077394 0.031296887
000210 8c fe d3 bc bc ac f6 3c 90 7a 8a bb 00 63 8b ba
       -0.025878213 0.030111663 -0.0042260364 -0.0010634363
000220 90 1a 3d 3c 16 04 6b 3d 58 b5 17 bc 98 4c 19 bd
       0.0115419775 0.057376944 -0.009259544 -0.03742656
000230 74 6a b5 3c 98 15 44 3c b6 c0 14 3d 28 e6 0d 3c
       0.022145487 0.011968039 0.036316596 0.008660831
000240 b8 8c fe bc e2 fd 63 3d 6a bd 43 3d 50 0e 4a bc
       -0.03107296 0.055662043 0.04778806 -0.012332514
000250 d0 29 83 bb a4 90 4a 3d 88 74 5d 3d 42 96 33 bd
       -0.004002787 0.049454346 0.05406621 -0.04384447
000260 60 4f ec bb 78 fe fb bc 7c 46 ff 3c 78 2a 60 3d
       -0.0072116107 -0.030760989 0.03116154 0.054728
000270 e0 d0 60 3c 5c a9 30 bd a4 81 9c 3c 2e c5 25 bd
       0.013721675 -0.043130264 0.019104786 -0.04047125
000280 fa a8 4d bd fa c6 66 3d 98 36 7f bd 26 30 15 3d
       -0.050209977 0.056342103 -0.062307924 0.03642287
000290 38 51 21 bd 74 27 30 3d 50 81 d6 bc 60 c3 7e 3b
       -0.039384097 0.043006375 -0.026184708 0.0038873777
0002a0 00 f4 bc b8 24 2f 1c 3d c4 2e eb 3c 00 44 64 bd
       -9.009987e-05 0.038130894 0.028708823 -0.055728912
0002b0 84 23 50 3d 48 16 83 3c 56 43 43 bd fc 4d 2a 3d
       0.05081512 0.016001835 -0.04767164 0.041578278
0002c0 1c f7 92 3c 02 6d 75 bd 40 05 a1 3b 2c 6d 16 3d
       0.017940097 -0.05991841 0.004913956 0.03672521
0002d0 b0 f3 72 3c 78 8c 11 3d 4a 10 69 3d 94 46 05 3d
       0.014828607 0.035534352 0.0569003 0.03253801
0002e0 1e 42 79 bd ca ac 16 bd 80 0b 7c bc fa 22 22 bd
       -0.06085407 -0.03678588 -0.015383601 -0.039584137
0002f0 48 69 63 bc 88 d6 50 3c 0c 43 d8 bc 00 e9 cc 3b
       -0.0138800815 0.012746461 -0.026399158 0.0062533617
000300 dc 69 6a bd 10 f6 fe 3b b8 50 98 bc 88 e1 6e bc
       -0.05722986 0.007780798 -0.018593177 -0.014580138
000310 66 2b 05 bd fe 0f 44 bd 00 1b d6 b9 00 fb 8c bc
       -0.03251209 -0.047866814 -0.00040837377 -0.01720953
000320 00 9d a0 bc 7c 16 3b 3d 20 bb 40 3b b8 c2 a1 3c
       -0.019606113 0.04567574 0.002940841 0.01974617
000330 74 79 fc bc 06 6f 61 bd 80 e8 f8 3c d8 74 a8 3c
       -0.030819632 -0.05503752 0.030384302 0.020563528
000340 e8 94 39 bc 40 27 07 3c 46 ee 32 bd 6e 60 18 3d
       -0.011327006 0.008249104 -0.043684267 0.037201338
000350 00 d8 c4 39 90 5c 63 bd 64 56 b3 3c 48 97 55 3d
       0.00037544966 -0.055508196 0.02189178 0.052146226
000360 f8 ff e0 bc 80 19 54 bd 10 74 a6 bc 4a 5f 07 3d
       -0.027465805 -0.05178213 -0.020319015 0.03304986
000370 00 cb 7a 3a 48 28 36 3d a0 66 24 3c 3a f7 69 3d
       0.00095669925 0.04447201 0.010034233 0.05712054
000380 8a 89 30 3d 78 9b fb bc 9c a7 49 3d 80 de 22 3b
       0.043099917 -0.030713782 0.04923211 0.0024851859
000390 40 69 fa 3a 2c 47 bd 3c be 93 65 3d dc 11 88 bc
       0.0019104853 0.023105226 0.0560491 -0.016610079
0003a0 9c 7c a7 bc 18 28 76 bc c4 1b b0 3c cc f3 b5 3c
       -0.02044516 -0.0150242075 0.021497615 0.022210978
0003b0 4e 61 7a 3d 4a 07 6e bd 34 82 35 3d 40 84 84 bc
       0.061127953 -0.05811242 0.044313625 -0.016176343
0003c0 78 d8 30 3d 18 1d 45 3c e4 97 6a 3d 10 ff b3 3b
       0.04317519 0.012030862 0.05727376 0.0054930523
0003d0 90 f5 77 bc 40 42 53 bd 00 d6 35 39 f2 37 43 3d
       -0.01513423 -0.051576853 0.00017341226 0.047660775
0003e0 28 51 7a bd 6e dc 11 bd e0 1d cd bc 2c b3 d1 3c
       -0.061112553 -0.03561061 -0.02503866 0.025598131
0003f0 e8 bc 58 3c 98 92 55 3c c2 6c 3d bd 60 19 22 3b
       0.0132286325 0.013035439 -0.046246298 0.0024734363

fc_var.bias f4 [2]
000000 10 3a 61 3c 70 e6 d9 bb
       0.013746753 -0.0066497847

decoder.layer0.weight f4 [2, 2]
000000 a1 8b 70 3d 77 ec f1 3e 2c 40 88 be 1f d0 26 3e
       0.05872691 0.4725072 -0.2661146 0.1629033

decoder.layer0.bias f4 [2]
000000 c0 16 11 3f 6c e6 9d 3d
       0.5667534 0.07709965

decoder.layer2.weight f4 [100, 2]
000000 3c da e9 3e d7 36 21 3e c6 4d 29 3f d2 93 80 3b
       0.45674312 0.15743576 0.661343 0.0039238716
000010 c2 83 08 be 02 0b 1b be b9 13 f4 3e ea 46 1e 3f
       -0.13331512 -0.15140918 0.47671297 0.61826956
000020 da 9e 18 3e c8 4f 22 3e d4 60 83 3b d0 28 2d 3f
       0.14904347 0.15850747 0.0040093455 0.676404
000030 bf 7f d8 be a4 75 a5 3e 5d 46 23 be 7b 71 a2 bc
       -0.42284963 0.32316315 -0.1594481 -0.019829502
000040 1e ff 9f be 28 ef 8b 3e 97 bf 87 3e 46 fb c4 bd
       -0.31249326 0.273309 0.2651336 -0.09618239
000050 aa 70 86 3e fc 30 a1 3c 28 52 ec be ee 59 88 bd
       0.2625783 0.019676678 -0.4615643 -0.06657778
000060 f7 e0 4b 3c a0 02 23 bf 45 2a 1c 3f b4 b9 5f 3d
       0.0124437725 -0.6367588 0.61002 0.05462046
000070 df 12 e3 be 97 b2 20 bd 80 92 00 bf ff d5 ea 3d
       -0.44350335 -0.039232817 -0.5022354 0.11466598
000080 05 7a 87 3e 6e dc aa 3d bc a0 0f 3f fb 58 f7 be
       0.2646028 0.08342825 0.56104636 -0.48310074
000090 4f 0d 15 bf 49 a2 24 bf cc 35 99 3d 57 99 05 bc
       -0.5822343 -0.6431013 0.07480964 -0.008154235
0000a0 89 c0 88 be 3a 5c 5c 3e 80 32 2f be 63 57 2e 3e
       -0.26709393 0.21519557 -0.17109108 0.17025523
0000b0 ac b2 c7 be 73 2b 21 3f 73 79 34 3f d3 c4 92 3d
       -0.39003503 0.62956923 0.70497817 0.071664475
0000c0 d6 e8 c6 bd 70 b9 b7 be e9 df b5 3e 09 0c ed 3e
       -0.09712379 -0.35883665 0.35522392 0.46298245
0000d0 b9 51 85 be 92 98 80 3e 8c 4b 11 bf 5e 5f ec 3d
       -0.26038912 0.25116402 -0.567559 0.11541627
0000e0 6f 6d be be 4c 16 b9 bd fd 6f cc 3e e4 74 e4 bd
       -0.37192866 -0.09037456 0.3992919 -0.111551076
0000f0 f3 90 7e be 36 9e 92 be ce 65 02 bd 12 b7 24 bf
       -0.24859981 -0.2863633 -0.03183537 -0.64341843
000100 7f 12 67 3e 4f 9d 0f 3d f9 2b 39 be f2 54 1d bf
       0.2256565 0.03506213 -0.1808318 -0.6145774
000110 4e 0d d0 be a4 1b 2f 3f 42 c6 27 3f 11 8e d6 3e
       -0.4063515 0.6840155 0.6553689 0.41905263
000120 96 bd b6 3e 08 45 26 bf d7 5d 08 3f c1 4d b6 3e
       0.35691518 -0.64949083 0.5326819 0.35606197
000130 50 04 9b 3e f6 6c df be 37 ca 5e 3e 1e f1 88 3c
       0.30276728 -0.43637818 0.21756826 0.016716536
000140 4f 1e e9 bd 1f 1f d1 3e 7d 80 0c bf ef 96 27 3f
       -0.11382734 0.40844056 -0.5488356 0.6546468
000150 0f 27 26 be 7e 4c b4 be 74 f6 6b 3d 08 9e aa be
       -0.16225837 -0.3521461 0.057608083 -0.33323693
000160 99 21 11 3e b1 f0 4c 3e b9 34 b5 bd 30 06 e3 be
       0.14172973 0.20013691 -0.08847947 -0.44340658
000170 ae 80 2b bf 5e 8e 8c be ff e1 17 bf 2e f9 07 bf
       -0.66993225 -0.27452368 -0.5932922 -0.53114593
000180 d6 21 8a bd 2f c7 28 be 65 b2 38 be 4f 71 ba 3e
       -0.06744735 -0.16482233 -0.18036802 0.36414573
000190 ad 1b c4 3e 61 4a 8b bd 87 a5 30 3f c3 65 84 be
       0.38302365 -0.06801296 0.69002575 -0.25858888
0001a0 fc b1 da be 41 21 d7 3e 80 56 37 3e 4a 9f 3b 3d
       -0.42713916 0.42017558 0.17904091 0.045806207
0001b0 57 e9 32 3f 89 dd e5 3e 5c 7a 9a 3e 5b d7 29 3e
       0.698873 0.4489558 0.30171478 0.16586058
0001c0 4c 7b 22 bf f8 5f fc 3e e7 a7 9a 3e 03 55 c5 be
       -0.63469386 0.49291968 0.30206224 -0.3854142
0001d0 28 40 a9 be 77 e9 a2 3d 69 23 f0 be d3 57 f8 be
       -0.3305676 0.07954686 -0.46902016 -0.48504505
0001e0 fa ba 2d 3f 37 45 01 3f cf 1d 0c bf 0d 96 e5 3d
       0.6786343 0.5049624 -0.54732984 0.112102605
0001f0 c8 56 2b be 9c 82 c3 3e b7 c4 8c be ca 05 24 be
       -0.16732323 0.38185585 -0.27493832 -0.16017833
000200 4a 01 44 3e 3f 20 92 3c 3f 6f 4c be 9a dd ce be
       0.19141117 0.017837642 -0.19964312 -0.40403444
000210 1d 44 f2 3e 0f 4f ba bb e5 35 a6 be 44 66 31 3f
       0.4731759 -0.005685694 -0.32462993 0.6929667
000220 f2 64 5a 3e 32 79 1b 3f a9 20 00 3f 31 f5 9b be
       0.2132757 0.60731804 0.50049835 -0.30460504
000230 09 5e 24 bf 04 ba 31 3f 7f 50 04 3f 7f 78 f2 3e
       -0.64205986 0.6942446 0.5168533 0.47357556
000240 30 40 25 3e 28 48 2b 3e 8d 10 5b 3d 0d e4 1b bf
       0.16137767 0.16726744 0.05348258 -0.6089485
000250 78 58 1d 3f 39 5c c6 be f8 08 2d bd 92 78 d5 3d
       0.6146312 -0.38742235 -0.04224488 0.104233876
000260 2e c5 d9 bd 96 5f 9b 3e 81 db 95 3e 4e 5a 1c 3f
       -0.10633312 0.30346364 0.2926903 0.61075294
000270 60 bc 07 3d 41 1a 2f bf 94 44 28 3f bb 42 f9 bb
       0.033138633 -0.68399435 0.6572964 -0.007606832
000280 90 b6 0f 3f c4 d8 1d 3f 34 09 33 3f 7b 6f 24 bd
       0.56137943 0.61658883 0.6993592 -0.04014538
000290 61 37 c5 be f0 c4 27 3e 9f 97 4c be 95 f8 18 bf
       -0.38518813 0.1638372 -0.19979714 -0.59754306
0002a0 56 40 1e 3f 1d 93 e9 3d 3c 52 0b bf dd d0 67 3e
       0.6181692 0.11405013 -0.54422355 0.22638269
0002b0 23 64 c3 be 94 d7 35 be e1 bf d9 bd 6e ba 79 3e
       -0.38162336 -0.17758018 -0.10632301 0.24387524
0002c0 68 bf b5 bd 7f 09 92 3e 1f f8 69 be 91 5c a2 3e
       -0.088743985 0.2852287 -0.22848557 0.31711248
0002d0 64 77 b9 3d 75 ec cb 3c ab ec ea 3c ad f0 ed 3e
       0.09055975 0.024893025 0.028677305 0.46472684
0002e0 60 9e 5a 3e 53 e8 25 be 1c e9 2d bf 82 74 20 3f
       0.21349478 -0.16201906 -0.6793382 0.62677777
0002f0 ab 3c 24 3f 88 26 26 bf 0f be 13 be a9 e6 26 be
       0.6415507 -0.64902544 -0.1442797 -0.16298927
000300 87 d6 b1 be e1 f3 b4 3e 33 e3 28 bf 6e f3 15 bf
       -0.34733984 0.35342315 -0.6597168 -0.5857457
000310 4f 33 20 bf cf 49 38 3e ff d1 f9 3e ff cf 1b 3f
       -0.6257829 0.17996906 0.48793027 0.6086425

decoder.layer2.bias f4 [100]
000000 cb ca fb 3d a8 f1 7c 3c 8e bf b6 3e 8f 4f 31 3f
       0.12294539 0.015438475 0.3569302 0.6926202
000010 36 af d0 be 11 32 90 bd 90 02 e1 be 9f 89 32 3f
       -0.40758675 -0.070407994 -0.43947268 0.69741243
000020 bf 28 b9 be 9a e0 c9 be 47 d7 6a bc ae d6 40 be
       -0.361639 -0.3942917 -0.014333553 -0.18831894
000030 0a 88 b5 be 41 42 77 be 83 3b de be e9 f6 ad bd
       -0.35455352 -0.24146368 -0.4340478 -0.0849436
000040 96 eb a0 3e 36 71 3c be ab 94 0e 3f 7a f6 b8 3d
       0.31429738 -0.18402562 0.556956 0.09031387
000050 fb 2e 56 be a9 36 2f 3f a3 f8 46 be 26 50 07 bf
       -0.20916359 0.6844278 -0.19430785 -0.5285667
000060 68 1c 33 bf 4b 14 98 3e 54 f5 f3 3e b6 17 24 3d
       -0.6996522 0.29702982 0.47648108 0.040061675
000070 e6 b4 0d 3e e1 41 d9 3d da f8 dc 3e 91 75 ec be
       0.13838539 0.106082685 0.4315861 -0.46183446
000080 82 dd a1 be 51 f9 60 3e 1b 1c 15 bf 8f 49 02 3f
       -0.3161431 0.21970107 -0.5824601 0.5089349
000090 9c 09 29 be 1b 38 7c be 78 5e eb be 6b 90 f8 be
       -0.16507572 -0.24630778 -0.4597051 -0.48547682
0000a0 69 01 cf 39 31 6e c7 be 08 f3 2b 3f 80 36 0c 3f
       0.00039483167 -0.38951257 0.6716771 0.5477066
0000b0 75 74 d1 3e ab 4d 1a 3f c9 f8 92 3e 52 dd 12 3f
       0.40909162 0.6027476 0.28705433 0.5736896
0000c0 c3 99 e1 3e 2f 15 88 be a4 2c a3 3e c7 1f df 3e
       0.44062623 -0.26578662 0.31869996 0.43578932
0000d0 8a a5 23 bf 00 0c 21 3f 1e 77 d0 bd 60 ee 0a 3f
       -0.6392447 0.62908936 -0.1017897 0.5426998
0000e0 1c 27 83 3d 59 5a 01 3f 45 b7 75 be 36 47 b4 3e
       0.06403944 0.50528485 -0.23995693 0.3521058
0000f0 1d 12 f1 bd cc 0c b0 3e d8 ea 92 be ea 5c 90 3e
       -0.11771033 0.34384763 -0.28694797 0.28195888
000100 bb 11 13 3f 37 68 f1 be fb 80 23 bf fb 2e 13 3d
       0.5744893 -0.47149822 -0.63868684 0.035933476
000110 fd fc 1b 3f 1c 27 ab 3e 2e ff 67 3e 39 25 7a 3e
       0.60932904 0.33428276 0.22655937 0.24428262
000120 e6 4a 2b bf ac 4d 29 3f 7f 92 54 be e8 8c 58 3d
       -0.6691116 0.6613414 -0.20759009 0.052868754
000130 e6 68 d4 be b3 32 1a 3e 5e d8 09 3f 6a dc c0 3e
       -0.4148628 0.15058403 0.53845775 0.37668163
000140 8d 6e 2d 3f 30 5c c2 3d ea 98 41 be 0d ea e1 3e
       0.6774681 0.094902396 -0.18905988 0.4412388
000150 74 6c 17 be 6c 4f 32 bf 12 8f 19 bd 2e 63 96 bd
       -0.14787465 -0.6965244 -0.037489958 -0.07343136
000160 6a 3e a8 3e c6 63 f3 bd e2 e3 a1 3e 85 af 13 3f
       0.32860118 -0.11884265 0.31619173 0.57689697
000170 a2 7c 1f 3e fc e9 d3 3d 28 20 e0 be 79 4a 23 3d
       0.15574887 0.10347363 -0.43774533 0.039865945
000180 66 ce 1e be ba 00 01 3f 88 57 e2 be 1c 00 05 bf
       -0.15508422 0.50391734 -0.44207406 -0.5195329
