nero/collections/planning/models/outputs/2020-11-10/17-30-42/checkpoints/epoch=0.ckpt (torch, 155812 bytes, 12 tensors)

encoder.layer0.weight f4 [100, 100]
0	0xba45c19a	-0.00075438025
1	0xbd934755	-0.0719134
2	0xbcd6a6e0	-0.02620262
3	0xbd99f6dd	-0.075177886
4	0x3c9c1dcd	0.019057179
5	0x3d99f3db	0.07517215
6	0x3aadd99a	0.0013263703
7	0x3b19a19a	0.002344227
8	0x3d95dab5	0.07317106
9	0xbb55f39a	-0.0032646419
10	0xbd0e172a	-0.03469006
11	0xbda17070	-0.07882774
12	0xbd310efd	-0.043227185
13	0xbd6359bd	-0.055505503
14	0x3c9deada	0.019277025
15	0x3acc2867	0.0015576006
16	0x3d8b7e15	0.068111576
17	0xbdc403ba	-0.09571023
18	0x3cf4dac7	0.029889477
19	0x3a3c4a67	0.00071827177
20	0x3d9cf37f	0.07663631
21	0x3d1281fa	0.035768487
22	0xbdb0777f	-0.08616542
23	0x3cf2cd80	0.029639006
24	0xbd8815a0	-0.0664475
25	0x3ce821b3	0.028336382
26	0xbd3c642a	-0.04599396
27	0x3d13c45a	0.036075927
28	0xbdc37797	-0.09544294
29	0x3d59cc87	0.053173568
30	0xbd03fb5d	-0.03222214
31	0xbdaa5f32	-0.08318938
32	0x3d53fdf0	0.051755846
33	0xbcae26b3	-0.021258688
34	0xbdc3c66b	-0.095593296
35	0x3d6ae17d	0.05734395
36	0xbd3b7070	-0.045761526
37	0x3d934d42	0.0719247
38	0x3d2bc4f7	0.041935887
39	0xbd18e590	-0.037328303
40	0xbd452910	-0.048134863
41	0x3daf20db	0.085511886
42	0x3ccb7f3a	0.02484094
43	0xbc469b1a	-0.01212194
44	0xbd7b2eba	-0.06132386
45	0xbcb1e15a	-0.021713901
46	0xbd49a35d	-0.04922806
47	0xbb8a684d	-0.0042238594
48	0xbd061f97	-0.03274497
49	0xbdbadbe5	-0.09123973
50	0xbcc72e60	-0.024314106
51	0xbca4e75a	-0.020129848
52	0x3da8b755	0.08238093
53	0xbd8f6d0d	-0.07003222
54	0xbc86d78d	-0.016460204
55	0x3cf67a4d	0.030087614
56	0xbd326750	-0.043555558
57	0xbd1a0650	-0.037603676
58	0x3d43f4f3	0.047841024
59	0xbcde61da	-0.027146269
60	0x3c97b6ad	0.018519724
61	0x3dcad807	0.09904485
62	0x3dae11bf	0.084994785
63	0x3d3537ad	0.04424255
64	0x3d8a2010	0.06744397
65	0x3a34bccd	0.00068945886
66	0x3dc916c5	0.09818796
67	0x3c9eb147	0.019371642
68	0xbda23e07	-0.07921987
69	0xbd930cda	-0.071801856
70	0x3dcb7430	0.099342704
71	0x3ca1cecd	0.01975193
72	0x3d7326b7	0.059363093
73	0x3db63cf0	0.08898342
74	0xbb1fc19a	-0.002437687
75	0x3bf7d333	0.0075630187
76	0x3daca653	0.08430161
77	0x3c9e9ada	0.019360948
78	0xbc53485a	-0.012895668
79	0xbd81306a	-0.063080624
80	0x3c6b0d27	0.0143463975
81	0x3d30a8e7	0.043129828
82	0x3dca05d5	0.098643936
83	0x3d06a5c7	0.03287294
84	0xbd7cb407	-0.061695125
85	0x3c8e9533	0.017405128
86	0x3c080f1a	0.008304382
87	0xbd305370	-0.043048322
88	0x3d59c05d	0.053161968
89	0xbcde588d	-0.027141834
90	0x3c81dd6d	0.015852654
91	0xbd9f9bfd	-0.07793424
92	0x3c99e47a	0.018785704
93	0xbcc78347	-0.02435459
94	0xbda79baa	-0.081839874
95	0xbdc0f31f	-0.09421372
96	0xbda2ed38	-0.07955402
97	0x3d104f9d	0.035232175
98	0xbcc51f60	-0.024062812
99	0x3c8db00d	0.017295862
100	0x3d13e597	0.036107626
101	0x3d73e61a	0.059545614
102	0x3912399a	0.00013945103
103	0xbd2e0843	-0.042488348
104	0xbc4cb727	-0.012494839
105	0x3da2e390	0.0795356
106	0xbd8747ad	-0.06605468
107	0xbda8165a	-0.08207388
108	0x3dcabda3	0.098994516
109	0x3d99332b	0.07480463
110	0x3d9d960a	0.07694633
111	0xbd0da4c7	-0.034580972
112	0x3d491203	0.049089443
113	0x3d036d2d	0.03208654
114	0xbd0a284d	-0.03372984
115	0x3d9157ad	0.07096801
116	0x3c21ae67	0.009868241
117	0xbb984b67	-0.0046476605
118	0xbd4e1fd0	-0.050323308
119	0x3d7d9b73	0.061915826
120	0x3d9f6802	0.0778351
121	0xbdaf38a8	-0.08555728
122	0xbd69b01d	-0.05705272
123	0xbcb776c0	-0.022395492
124	0xbd5296ed	-0.051413465
125	0xbd3c8c1a	-0.04603205
126	0x3dcb1e0b	0.099178396
127	0xbc364f40	-0.011127293
128	0x3c57501a	0.013141656
129	0xbdacc39a	-0.084357455
130	0x3d5e6d53	0.05430348
131	0xbcd7a8f3	-0.026325678
132	0x3cf8d03a	0.030372728
133	0xbbf82f80	-0.007574022
134	0xbcee2653	-0.029071009
135	0x3c9fc9a7	0.019505335
136	0xbc2bd527	-0.010487831
137	0xbd86bd57	-0.065790825
138	0x3c9ffada	0.019528795
139	0xbd9b10b7	-0.075715475
140	0x3d90b7c5	0.07066301
141	0xbcdc484d	-0.026889944
142	0x3da02aef	0.07820689
143	0x3c8c301a	0.01711278
144	0x38d6399a	0.00010215044
145	0x3d80823f	0.062748425
146	0xbd881148	-0.06643921
147	0xbdac4c83	-0.08413031
148	0x3d717290	0.058947146
149	0x3c469980	0.012121558
150	0x3d421d90	0.047391474
151	0xbbbc6b33	-0.005750084
152	0x3d3720fa	0.044709183
153	0x3d0ab6f7	0.033865895
154	0xbd70a333	-0.05874939
155	0x3cfa7aad	0.030576074
156	0xbd99f082	-0.07516576
157	0xbd8fd99d	-0.07023928
158	0x3d431900	0.047631264
159	0x3c81adba	0.01582991
160	0x3dae17fb	0.08500668
161	0x3d93a3cf	0.072089784
162	0xbc0c7d1a	-0.008574748
163	0xbd971740	-0.073774815
164	0x3d844d52	0.0646006
165	0xbc7f86b3	-0.01559608
166	0xbd800a6a	-0.06251986
167	0xbdb56f3b	-0.08859106
168	0xbd66e0e7	-0.056366827
169	0xbdae73d2	-0.08518185
170	0xbd415a1a	-0.04720507
171	0xbd5075c7	-0.05089357
172	0x3da6eb5b	0.08150359
173	0xbcf27047	-0.029594554
174	0xbdb77cd2	-0.089593545
175	0x3c5d4233	0.013504553
176	0xbd402393	-0.046908926
177	0xbc3f461a	-0.011674428
178	0xbcbcccc7	-0.023046864
179	0xbd64a8e0	-0.055825114
180	0x3d8a3a45	0.06749395
181	0x3a135ccd	0.00056214334
182	0x3c81c62d	0.015841568
183	0xbdba00f3	-0.09082212
184	0x3d9c5352	0.076330796
185	0xbd8c5ca2	-0.06853606
186	0x3d8f8d47	0.070093684
187	0xbc55a9f3	-0.013041007
188	0x3d891783	0.06693938
189	0x3d9029b2	0.07039203
190	0x3d646673	0.055761766
191	0xbd04e487	-0.032444503
192	0x3d9e35a5	0.07725076
193	0x3c82a887	0.0159495
194	0xbdb8489d	-0.08998225
195	0xbd8a0322	-0.06738879
196	0xbd7684dd	-0.060185302
197	0x3b3c1400	0.0028698444
198	0x3c95d9a7	0.018292261
199	0x3d4ecdd7	0.050489273
200	0xbdae86b3	-0.085217856
201	0xbd777de7	-0.060422804
202	0xbd87e4cf	-0.06635439
203	0xbdc706cd	-0.09718094
204	0x3d47fdc3	0.04882599
205	0x3d55fa87	0.052240875
206	0xbda4ebb3	-0.080527686
207	0xbc829bda	-0.015943456
208	0x3dc902a2	0.09814955
209	0x3cb9b093	0.022667205
210	0x3d959b37	0.073049955
211	0xbdb3ae97	-0.08773535
212	0xbd59bd40	-0.053159
213	0xbc2ccc80	-0.0105468035
214	0x3dc935bb	0.098247014
215	0xbda24c2d	-0.079246856
216	0x39ef6e67	0.00045667888
217	0xbce5a15a	-0.02803104
218	0xbdb52882	-0.08845617
219	0x3d1a5cc0	0.03768611
220	0x3d916613	0.07099547
221	0x3cfa2093	0.03053311
222	0xbbf67333	-0.007521057
223	0xbc2ce833	-0.0105534075
224	0x3da09a05	0.07841877
225	0xbc999f20	-0.018752635
226	0x3d069c53	0.032863926
227	0xbc923f2d	-0.01785239
228	0x3c9d9ea7	0.01924069
229	0x3da95a3a	0.082691625
230	0xbd341983	-0.043969642
231	0x3d073aa7	0.03301492
232	0xbd86e930	-0.06587446
233	0xbd4814cd	-0.048847962
234	0x3dc8f333	0.098120116
235	0x3d737220	0.05943501
236	0xbb02ec67	-0.0019977333
237	0x3d2a4b63	0.0415758
238	0x3dcaff05	0.09911922
239	0xbd41efba	-0.04734776
240	0x3d9f317d	0.07773111
241	0x3da566c0	0.08076239
242	0x3c88f86d	0.016720021
243	0x3db6728a	0.08908565
244	0x3d3cc4d7	0.04608616
245	0x3d192823	0.037391793
246	0xbd3af08a	-0.045639552
247	0xbdca2922	-0.09871127
248	0xbb140900	-0.0022588372
249	0xbd80e9b2	-0.06294574
250	0xbd979ff8	-0.074035585
251	0xbda2529d	-0.079259135
252	0xbc919240	-0.017769933
253	0xbdcb34d0	-0.099221826
254	0x3c93de1a	0.018050242
255	0x3d215590	0.03938824

encoder.layer0.bias f4 [100]
0	0xbc0be840	-0.008539259
1	0xbcd88ee7	-0.026435329
2	0xbd359363	-0.044330012
3	0xbd4bd4aa	-0.04976336
4	0xbc1b3a5a	-0.009474361
5	0x3da6577b	0.08122154
6	0xbda4a233	-0.080387495
7	0xbcd5d4e0	-0.026102483
8	0xbc80a760	-0.01570481
9	0x3c9511c0	0.01819694
10	0x3d083820	0.03325665
11	0xbdbbfd93	-0.09179225
12	0xbd9f4157	-0.077761345
13	0xbdbb1a88	-0.0913592
14	0x3cdaf8f3	0.026730036
15	0xbd8de5bd	-0.06928585
16	0x3c57dd40	0.013175309
17	0xbd2684e0	-0.040654063
18	0x3dbc047b	0.09180542
19	0xbd7081f0	-0.058717668
20	0x3d05edfd	0.032697666
21	0xbd2073d0	-0.039172947
22	0x3ce6363a	0.02810203
23	0x3d422373	0.04739709
24	0xbd9805f7	-0.07423013
25	0x3d87026a	0.06592257
26	0x3da7a053	0.08184876
27	0x3d5aebb7	0.05344745
28	0xbd1a32d0	-0.037646115
29	0xbd484183	-0.0488906
30	0xbc96d5e7	-0.018412543
31	0x3d9b2368	0.075751126
32	0xbcf1e3a7	-0.029527498
33	0x3c7bd31a	0.015370155
34	0x3d2d055a	0.04224143
35	0xbd172dda	-0.03690896
36	0x3d71ce97	0.05903491
37	0xbb3a4467	-0.0028422119
38	0xbcc37260	-0.02385825
39	0x3d5c5d23	0.05379976
40	0xbb3ea433	-0.002908957
41	0x3dc28ae7	0.0949915
42	0xbc1c7e4d	-0.009551597
43	0xbc98c40d	-0.018648172
44	0xbc881eba	-0.016616214
45	0xbd195787	-0.03743699
46	0x3da30acf	0.07961046
47	0x3d35b5ed	0.04436295
48	0x3d3b3873	0.04570813
49	0x3b42f867	0.002975011
50	0xbcec80c7	-0.02887
51	0xbd2418b3	-0.040062618
52	0x3c938d80	0.018011808
53	0x3cf71313	0.030160462
54	0x3d891682	0.06693746
55	0x3d23d52d	0.039998222
56	0x3db1e622	0.086864725
57	0xbd8922da	-0.066961005
58	0x3dc68af0	0.09694469
59	0xbdab2d20	-0.08358216
60	0x3d932587	0.07184892
61	0xbd7f095d	-0.06226479
62	0xbd187cfd	-0.037228573
63	0x3ce81cc7	0.028334035
64	0xbd983cd0	-0.07433474
65	0xbbf98680	-0.0076149106
66	0x3c85178d	0.016246581
67	0x3d491ce3	0.049099814
68	0xbdc2800b	-0.094970785
69	0x3dcb2b25	0.099203385
70	0xbd26e767	-0.040748026
71	0xbdb216c5	-0.08695749
72	0x3d3e8047	0.046509054
73	0x3dcb5567	0.099283986
74	0x3d526583	0.05136634
75	0x3dc0ce4d	0.09414349
76	0xbd6f06b0	-0.058355987
77	0xbb8be567	-0.0042692902
78	0xbc81fb3a	-0.015866864
79	0x3d8b1470	0.067910075
80	0x3da9f6f7	0.08299058
81	0xbda590ef	-0.080842845
82	0x3d764c2d	0.06013124
83	0x3dbe6793	0.09297099
84	0xbc818b53	-0.015813505
85	0x3d1ca500	0.038243294
86	0x3da1f520	0.07908082
87	0x3c9f2953	0.019428885
88	0x3d81d5af	0.06339585
89	0x3cc5e7c7	0.024158372
90	0xbc5534c0	-0.013013065
91	0x3dbe7edb	0.093015395
92	0xbca6356d	-0.020289147
93	0x3c63879a	0.01388731
94	0xbccaae73	-0.024741387
95	0x3da09ca8	0.0784238
96	0xbd15a937	-0.03653833
97	0xbd3b4c63	-0.045727145
98	0xbdc53cbb	-0.09630724
99	0xbdcb5b60	-0.09929538

encoder.layer2.weight f4 [256, 100]
0	0xbc4eaaf3	-0.012614
1	0x3d80f1fb	0.06296154
2	0xbd28c0c3	-0.041199457
3	0x3d2bd6b0	0.04195279
4	0xbd8fb923	-0.07017734
5	0x3da77f05	0.08178524
6	0x3d0f1743	0.034934293
7	0x3cdec17a	0.027191866
8	0xbc533727	-0.012891567
9	0xbd74aa60	-0.059732795
10	0x3c76f233	0.015072393
11	0xbda10110	-0.07861531
12	0x3d80d15b	0.062899314
13	0x3d0db2ca	0.034594335
14	0xbd45c033	-0.048279
15	0x3d00e4dd	0.03146826
16	0xbbce541a	-0.006296647
17	0x3c4067da	0.01174351
18	0xbd3a2d93	-0.04545362
19	0x3d66d08d	0.056351233
20	0x3c5a8bb3	0.013338971
21	0xbc33fcc0	-0.010985553
22	0xbdbefcd5	-0.09325568
23	0xbd5cc563	-0.05389918
24	0xbd58fe20	-0.052976727
25	0x3bb232b3	0.0054381727
26	0xbc224a9a	-0.009905482
27	0x3dab2e3f	0.0835843
28	0xbc4e5e8d	-0.012595785
29	0x3d852faa	0.06503232
30	0xbb4cb167	-0.003123367
31	0xbd9bb585	-0.076029815
32	0x3d36b74a	0.04460839
33	0x3d76d37a	0.060260274
34	0x3c359f40	0.011085331
35	0x3cba6580	0.022753477
36	0xbc4106c0	-0.0117813945
37	0x3d7f37ba	0.062309004
38	0x3d3a4a7a	0.045481183
39	0xbdc68acd	-0.09694443
40	0xbcdd8a5a	-0.02704351
41	0x3cfbca00	0.03073597
42	0xbdc21c07	-0.09478002
43	0xbc070200	-0.008240223
44	0x3d6a47f0	0.05719751
45	0x3d293943	0.041314375
46	0x3db5ef0f	0.088834874
47	0xbd542850	-0.051796257
48	0xbd36c1cd	-0.044618417
49	0x3cac0d0d	0.021002317
50	0x3c8e545a	0.017374206
51	0xbca5f867	-0.020260049
52	0x3dadceed	0.084867336
53	0x3cdaaa8d	0.026692653
54	0x3ba697e7	0.005084026
55	0xbc61c627	-0.013780153
56	0xbd16c63d	-0.03681015
57	0x3da64f7b	0.081206284
58	0x3da2b9df	0.07945608
59	0x3db4de30	0.088314414
60	0x3d875f53	0.066099785
61	0x3d7880f0	0.06066984
62	0x3d1e5b60	0.03866136
63	0x3d7d1080	0.061783314
64	0x3d12b5b0	0.035817802
65	0x3dadddda	0.084895805
66	0x3b854467	0.004066992
67	0xbd9bb6c5	-0.0760322
68	0xbdb4cc00	-0.088279724
69	0x3cb80ead	0.022467935
70	0xbd6a40e7	-0.057190802
71	0xbd2ebfb7	-0.042663302
72	0xbc996587	-0.01872517
73	0x3cbc7ce0	0.023008764
74	0xbcebb5ed	-0.028773272
75	0x3da13de7	0.07873135
76	0x3dcabfff	0.098999016
77	0xbd595c4a	-0.05306653
78	0xbcbe2ce0	-0.023214757
79	0x3c93c0ad	0.01803621
80	0xbd955fc2	-0.07293655
81	0x3bd931e7	0.0066282633
82	0xbda9077b	-0.0825338
83	0xbb012bcd	-0.0019709945
84	0x3d916df5	0.07101051
85	0x3d299d2d	0.04140966
86	0x3d4490c0	0.047989607
87	0xbdc86deb	-0.0978659
88	0xbd9270eb	-0.07150444
89	0x3d8e8fd0	0.06961024
90	0x3da5edca	0.08101995
91	0xbdaad168	-0.08340722
92	0x3dbd621a	0.09247227
93	0xbcbd4c00	-0.023107529
94	0xbd0301d3	-0.03198416
95	0xbc802e20	-0.015646994
96	0x3d499cea	0.04922191
97	0x3d0c1503	0.034199726
98	0x3dbcb6eb	0.09214576
99	0x3c6235b3	0.013806748
100	0xbd941b63	-0.07231786
101	0xbdab7b2d	-0.08373103
102	0xbd9839bb	-0.07432886
103	0x3b8b424d	0.004249847
104	0xbd7b97ea	-0.061424173
105	0x3dacf2f7	0.08444779
106	0x3cc65253	0.024209177
107	0x3c83bf60	0.016082466
108	0xbdc39d12	-0.09551443
109	0xbb1be767	-0.002378905
110	0x3cf861e0	0.030320108
111	0xbdb837a8	-0.089949906
112	0x3d906f5f	0.07052492
113	0x3da805c8	0.08204228
114	0x3cd43ced	0.025907958
115	0xbd6db68d	-0.058035422
116	0xbd11e8fa	-0.035622574
117	0xbdbbc53f	-0.09168481
118	0x3baa6b00	0.0052007437
119	0xbdc55608	-0.0963555
120	0xbd60a1bd	-0.054841746
121	0xbd00d510	-0.031453192
122	0x3d38327a	0.044970013
123	0xbdc108f0	-0.09425533
124	0x3d5e4457	0.054264393
125	0x3b21f4cd	0.0024712563
126	0x3d1a6a27	0.03769889
127	0x3d8fc8eb	0.07020744
128	0x3cb291e7	0.021798087
129	0x3dcb3d17	0.09923761
130	0x3d9520c7	0.072816424
131	0xbd83a743	-0.06428387
132	0xbd3e5bda	-0.046474315
133	0x3ce6dca7	0.028181387
134	0xbc205d5a	-0.009787882
135	0x3db23668	0.087017834
136	0xbd96d345	-0.07364515
137	0xbda887c2	-0.08229019
138	0x3d4d2ec3	0.050093424
139	0x3d89595b	0.06706496
140	0x3cc9436d	0.024568284
141	0x3d7cb9c3	0.061700594
142	0xbb1d149a	-0.0023968578
143	0x3b9eb3b3	0.004843199
144	0xbd17542d	-0.03694551
145	0x3cc4d887	0.02402903
146	0x3d190963	0.037362467
147	0xbd6859f3	-0.056726407
148	0xbc84b0cd	-0.016197586
149	0xbca6e120	-0.02037102
150	0xbcb11e87	-0.021621002
151	0xbd745263	-0.059648883
152	0xbd6bee57	-0.057600345
153	0xbb680333	-0.0035402298
154	0x3cea2f80	0.028587103
155	0x3af190cd	0.0018429995
156	0xbd36fba3	-0.044673573
157	0x3da763a3	0.08173301
158	0x3cfba367	0.030717565
159	0xbbca95cd	-0.0061824084
160	0xbd004393	-0.031314444
161	0xba9f1d33	-0.0012139439
162	0xbda2e1bd	-0.079532124
163	0x3d76b84d	0.060234357
164	0xbb7e489a	-0.0038800598
165	0xbdb0304d	-0.08602963
166	0x3d30b8e7	0.043145087
167	0xbd83b9e7	-0.064319424
168	0xbcad9467	-0.021188928
169	0xbdc37c63	-0.09545209
170	0x3d27ee17	0.040998545
171	0xbd91ef7f	-0.071257584
172	0xbcdf017a	-0.027222384
173	0xbd922142	-0.0713525
174	0x3dc5ff62	0.09667851
175	0xbd35e8f0	-0.0444116
176	0x3d438f5d	0.047744144
177	0xbdb83af7	-0.08995622
178	0x3ca91500	0.020639896
179	0xbc6f7ea7	-0.014617599
180	0xbc8726f3	-0.016498065
181	0x3d419ff3	0.04727168
182	0x3dc33ead	0.09533439
183	0x3d3e23c7	0.04642084
184	0xbc6eec40	-0.014582694
185	0x3d44dbba	0.04806111
186	0xbd39126d	-0.045183588
187	0xbdbc7c45	-0.0920339
188	0x3d99aee2	0.075040594
189	0x3d5fe11d	0.054658044
190	0xbd42600a	-0.04745487
191	0x3bd74ae7	0.0065702084
192	0x3d15d1f7	0.03657719
193	0xbb851133	-0.004060888
194	0x3d28b93d	0.041192282
195	0x3d715067	0.05891457
196	0xbc41eeb3	-0.0118366955
197	0xbd8b4223	-0.06799724
198	0xbd7999b7	-0.06093761
199	0xbca14fa7	-0.019691302
200	0x3c0a4e4d	0.00844152
201	0x3af61800	0.0018775463
202	0xbd873a55	-0.06602923
203	0xbd9a5662	-0.075360075
204	0x3cfe267a	0.031024206
205	0xbd6f1470	-0.0583691
206	0xbd58d7d7	-0.052940216
207	0xbd2ed67d	-0.04268502
208	0xbc828d8d	-0.015936637
209	0x3d7f05b7	0.06226131
210	0xbceacb73	-0.028661465
211	0x3cc99dd3	0.02461139
212	0x3dafe330	0.085882545
213	0x3d6a5830	0.05721301
214	0x3cd041fa	0.025422085
215	0x3ca9d5d3	0.020731842
216	0x3ce920ba	0.028457988
217	0x3cfcdf87	0.030868305
218	0x3c887ded	0.016661609
219	0x3cdb5d1a	0.026777793
220	0xbda689c5	-0.08131746
221	0xbc9c8113	-0.019104516
222	0x3b1e5c9a	0.0024164082
223	0x3d9a9a97	0.07549017
224	0xbd4c4b37	-0.049876418
225	0x3d934508	0.07190901
226	0xbd84b2e5	-0.06479434
227	0x3ccf0087	0.025268806
228	0xbd01fcc0	-0.03173518
229	0x3db98d1a	0.09060116
230	0xbd868e50	-0.06570113
231	0xbd72e130	-0.059296787
232	0xbd6a3c8d	-0.057186652
233	0xbcdaece0	-0.026724279
234	0x3db077fb	0.086166345
235	0xbd62834d	-0.055301
236	0xbc971360	-0.018441856
237	0x3d0bbbbd	0.034114588
238	0xbc6e199a	-0.014532471
239	0x3c3e14c0	0.011601627
240	0x3d058b5d	0.03260361
241	0x3dc7c99a	0.09755249
242	0x3d6ab637	0.05730268
243	0x3d9be89a	0.076127246
244	0x3d09693d	0.03354763
245	0xbce0eb33	-0.027455902
246	0xbd04ca9a	-0.03241978
247	0xbd779d37	-0.060452666
248	0x3be50867	0.006989527
249	0xbd63c66d	-0.055609155
250	0x3d85e0bb	0.065370046
251	0xbc2f8d80	-0.010714889
252	0xbd2b394a	-0.041802682
253	0x3cc5f2cd	0.024163628
254	0x3dc8e0b2	0.09808482
255	0xbd8e0aa8	-0.06935626

encoder.layer2.bias f4 [256]
0	0xbc77cd5a	-0.015124643
1	0xbd95e8d7	-0.07319801
2	0xbcf673c7	-0.030084504
3	0xbcc0bfe7	-0.023529006
4	0xbd9c7dbb	-0.07641169
5	0xbd6b3670	-0.057424963
6	0x3cf180ed	0.029480422
7	0x3db2f68f	0.087384336
8	0x3d079ab3	0.033106517
9	0xbd3d18aa	-0.0461661
10	0x3c494127	0.0122836
11	0x3dbefa5f	0.09325098
12	0x3d0bbafd	0.034113873
13	0xbdb98bff	-0.09059905
14	0xbb747c9a	-0.0037305714
15	0xbd6a030a	-0.057131805
16	0xbc2fe367	-0.010735369
17	0xbd86b54b	-0.06577548
18	0x3da26bf2	0.07930745
19	0xbd3a5f63	-0.045501124
20	0x3da15238	0.0787701
21	0x3d9564c3	0.072946094
22	0x3d06782a	0.03282944
23	0xbd803a27	-0.06261092
24	0xbc556540	-0.013024628
25	0xba459333	-0.0007536888
26	0x3d2e2850	0.042518914
27	0x3c6ce14d	0.014458013
28	0xbda674d2	-0.081277505
29	0x3daa3880	0.08311558
30	0x3dbb302f	0.0914005
31	0xbdb3da0d	-0.08781824
32	0x3d6114ad	0.05495136
33	0x3d85da55	0.06535784
34	0xbd8a97df	-0.06767248
35	0x3d4fcc37	0.050731864
36	0x3db776e8	0.089582264
37	0xbdb959bd	-0.09050319
38	0xbdc15c0d	-0.094413854
39	0xbd245137	-0.040116515
40	0x3db534dd	0.088479735
41	0x3c9e15cd	0.019297505
42	0x3d059dca	0.032621183
43	0xbca3fc67	-0.020017816
44	0x3d811bd3	0.06304135
45	0x3d81b1b2	0.06332721
46	0xbd2f76a7	-0.042837765
47	0xbca00f1a	-0.019538451
48	0x3cf95b0d	0.030438924
49	0x3c2e24c0	0.010628879
50	0xbd456d47	-0.048199918
51	0xbcd98c53	-0.02655617
52	0xbd4affe7	-0.049560454
53	0x3d3d20d0	0.04617387
54	0x3d8f223a	0.0698895
55	0x3daa0188	0.08301073
56	0xbc0765b3	-0.008263993
57	0xbd5f1c20	-0.05447018
58	0xbb0dc5cd	-0.002163279
59	0xbb73b267	-0.0037185194
60	0x3d05a3d3	0.032626938
61	0xbd4fb350	-0.050708115
62	0x3d723d1d	0.059140313
63	0x3d0ad6e3	0.03389634
64	0x3dc4b200	0.09604263
65	0xbc127a67	-0.008940316
66	0x3d921a80	0.07133961
67	0x3c7e4c5a	0.015521133
68	0xbd9dac3a	-0.07698865
69	0xbd15791a	-0.036492445
70	0x3d2742a7	0.04083505
71	0xbc123a8d	-0.008925092
72	0x3dabcbda	0.08388491
73	0x3d77550d	0.060383845
74	0xbcb0d3a0	-0.021585286
75	0x3d798973	0.060922097
76	0x3da493ed	0.08036027
77	0x3db8013f	0.08984613
78	0x3dc8aee0	0.0979898
79	0xbbf4d933	-0.007472181
80	0xbd24fe90	-0.040281832
81	0x3d2f2943	0.04276396
82	0xbb9a8b4d	-0.004716313
83	0x3ca0bfed	0.019622767
84	0xbd363c57	-0.04449114
85	0x3cff8613	0.031191861
86	0xbd65a1dd	-0.056062568
87	0x3c77d3b3	0.015126157
88	0x3dc3941f	0.09549736
89	0x3dbb689f	0.09150814
90	0xbcbc82a7	-0.023011519
91	0xbc308f67	-0.010776377
92	0xbdad83ea	-0.08472426
93	0x3d285243	0.041094076
94	0xbd08a983	-0.033364784
95	0xbd955d68	-0.072932065
96	0xbd546820	-0.051857114
97	0x3d8cb8b3	0.06871166
98	0x3b139933	0.0022521734
99	0x3c6b4080	0.01435864
100	0xbcd9afe7	-0.026573135
101	0xbd15e880	-0.036598682
102	0xbca1cd1a	-0.01975112
103	0x3dc3509d	0.0953686
104	0x3db2971b	0.08720227
105	0xbc015ccd	-0.007895661
106	0x3d3f4d53	0.0467046
107	0x3cebcd1a	0.028784323
108	0x3d8550df	0.065095656
109	0x3cba749a	0.022760678
110	0xbdaf974a	-0.08573778
111	0x3dc4188b	0.09574994
112	0xbd0e1ec0	-0.034697294
113	0x3d72c053	0.059265446
114	0x3db3936a	0.087683514
115	0x3d618887	0.055061843
116	0xbda687bd	-0.08131359
117	0xbd889245	-0.06668524
118	0xbb745400	-0.0037281513
119	0x3d163100	0.036667824
120	0xbc7b741a	-0.015347505
121	0x3d03ea7d	0.032206047
122	0x3d9567fd	0.07295225
123	0xbd832122	-0.06402804
124	0xbd2eb60d	-0.042654086
125	0x3d3eb63d	0.046560515
126	0x3da5ef5b	0.08102294
127	0xbd96b87a	-0.07359405
128	0xbc836a9a	-0.016042043
129	0x3db86a9a	0.09004708
130	0x3d4912ed	0.049090315
131	0xbdb99285	-0.090611495
132	0x3ac79200	0.0015226007
133	0xbd4a3077	-0.049362626
134	0x3c5c6773	0.013452399
135	0x3dad7400	0.08469391
136	0xbd8f365a	-0.069927886
137	0xbda4a8b5	-0.08039991
138	0x392f099a	0.00016692877
139	0x3d29ea67	0.04148331
140	0xbd05ac63	-0.032635104
141	0xbdb15d4b	-0.08660372
142	0xbb599c33	-0.0033204674
143	0xbcd64dfa	-0.026160229
144	0x3be6f167	0.0070478204
145	0xbd359817	-0.044334497
146	0x3da17aad	0.07884727
147	0x3dc31c6a	0.09526904
148	0xbdbf1690	-0.09330475
149	0x3db6fc3a	0.08934827
150	0xbd7199b3	-0.05898447
151	0xbcb9047a	-0.022585142
152	0xbc5a791a	-0.013334537
153	0x3d369c47	0.04458263
154	0xbc0f211a	-0.008735919
155	0xbd0f6b83	-0.03501464
156	0x3d8227cd	0.06355248
157	0xbdb1749b	-0.08664819
158	0x3c8e228d	0.01735046
159	0x3c308e67	0.010776139
160	0xbdc15d78	-0.09441656
161	0x3d959430	0.07303655
162	0xbd08116d	-0.033219744
163	0xbd13816d	-0.036012102
164	0x3d026b50	0.031840622
165	0x3d1ba257	0.037996616
166	0xbc701167	-0.014652587
167	0x3d0fcf3d	0.035109747
168	0xbce0d240	-0.027444005
169	0xbd94d69b	-0.07267495
170	0x3d82ae98	0.06380957
171	0xbbd06180	-0.006359279
172	0x3c72d6da	0.014821732
173	0xbd4b4cb3	-0.049633693
174	0xbd24d890	-0.040245593
175	0x3d6feb83	0.05857421
176	0x3da1a24f	0.07892286
177	0xbd68cd53	-0.056836437
178	0x3c98a9a7	0.018635584
179	0x3c53eec0	0.01293534
180	0xbda65bc8	-0.08122975
181	0xbd2dffa0	-0.04248011
182	0x3d2d0eb3	0.042250346
183	0xbdbcca03	-0.09218218
184	0x3d612ded	0.05497544
185	0x3ccabf1a	0.024749327
186	0x3d61025d	0.054933894
187	0x3d628ab3	0.055308055
188	0xbd72efea	-0.05931083
189	0xbd34c8e7	-0.044136908
190	0xbd5f20fa	-0.05447481
191	0xbd4c630a	-0.04989914
192	0x3ca87e2d	0.020567978
193	0xbcd4c87a	-0.0259745
194	0xbb5dfe00	-0.003387332
195	0xbca97947	-0.020687712
196	0xbd2caf2a	-0.042159237
197	0xbcdb4c33	-0.026769733
198	0x3cb8007a	0.022461165
199	0x3dc5a170	0.096499324
200	0x3da3817b	0.07983681
201	0x3d4c3e37	0.04986402
202	0x37f84ccd	2.9599667e-05
203	0x3cc0bfcd	0.023528958
204	0x3cfbc5e0	0.030734003
205	0xbc007367	-0.007840014
206	0x3d9f7ecf	0.07787859
207	0x3db138ad	0.08653388
208	0xbd09b970	-0.033624113
209	0xbd0d0edd	-0.034438003
210	0x3b65359a	0.0034974576
211	0x3d891615	0.06693665
212	0xbd49c070	-0.04925579
213	0x3ced01fa	0.028931607
214	0xbd340320	-0.043948293
215	0xbcbee47a	-0.023302305
216	0xbd9235b5	-0.0713915
217	0x3a87eb33	0.0010369777
218	0x3d86d00d	0.06582651
219	0x3d9b3a30	0.07579458
220	0x3d1310ca	0.035904683
221	0xbcf7b3a7	-0.030237032
222	0x3c10539a	0.008808995
223	0x3d135293	0.03596742
224	0xbd75cbaa	-0.060008682
225	0xbd92b3cd	-0.071632005
226	0xbd2e545a	-0.042560913
227	0xbd8da18f	-0.069155805
228	0x3db76598	0.08954924
229	0xbd022387	-0.031772163
230	0xba9bfa00	-0.0011900067
231	0x3ca31cf3	0.019911265
232	0xbd845518	-0.06461543
233	0x3d9fb41a	0.077980235
234	0xbdb93e17	-0.09045046
235	0xbd347a97	-0.044062223
236	0xbc1b379a	-0.009473706
237	0xbc9ba507	-0.01899959
238	0x3d8c38dd	0.06846783
239	0x3d9e6e30	0.0773586
240	0x3dadaf0f	0.084806554
241	0xbd629cad	-0.0553252
242	0x3d9e9048	0.07742363
243	0x3d41b080	0.047287464
244	0xbb86f71a	-0.0041188123
245	0xbc5b80cd	-0.013397408
246	0xbd9b8f30	-0.0759567
247	0x3d82714f	0.06369268
248	0x3d84792f	0.064684264
249	0xbcb48ed3	-0.02204076
250	0xbd7fd38a	-0.0624576
251	0xbdcadd52	-0.09905495
252	0xbd884803	-0.0665436
253	0xbbad6800	-0.005291939
254	0xbdcb3615	-0.09922425
255	0xbdbc75dd	-0.09202168

fc_mu.weight f4 [2, 256]
0	0x3c8712e8	0.016488507
1	0x3d6c53c4	0.057697073
2	0x3d3478d6	0.04406055
3	0x3bd2d770	0.0064343736
4	0xbc343b68	-0.011000492
5	0x3bfa8f90	0.0076465085
6	0xbb9447f0	-0.004525177
7	0x3d7338ca	0.05938033
8	0x3d78639a	0.060641862
9	0x3d5f68da	0.054543354
10	0xbd749a5a	-0.059717514
11	0x3cc17ae4	0.02361817
12	0x3d0c0908	0.0341883
13	0xbd3b3ee2	-0.045714267
14	0xbd54599c	-0.05184327
15	0xbd7dca7a	-0.061960675
16	0x3d5dc7ae	0.054145508
17	0xbca22bbc	-0.019796245
18	0xbd663a96	-0.056208216
19	0xbca8dff4	-0.020614602
20	0xbc820824	-0.015873022
21	0x3d44714c	0.04795961
22	0xbccadba8	-0.024762943
23	0xbd5b338e	-0.053515963
24	0x3d15bcac	0.036556885
25	0x39c98d00	0.0003844276
26	0xbd075832	-0.033043094
27	0xbbf65980	-0.0075179935
28	0x3d13214c	0.035920426
29	0xbd758dbc	-0.05994962
30	0x3ce48c70	0.027898997
31	0xbd4f76c2	-0.050650366
32	0x3bb21410	0.0054345205
33	0xbd2a17d8	-0.041526645
34	0xbc02df98	-0.007987879
35	0xbd2c5284	-0.04207088
36	0xbd2ac834	-0.041694835
37	0x39fe7e00	0.00048540533
38	0x3cdf02ac	0.027222954
39	0xbc60e8b8	-0.0137273595
40	0xbd462e38	-0.04838392
41	0x3bcc19c0	0.0062286556
42	0x3b61dbe0	0.003446333
43	0x3c180c00	0.009280205
44	0x3c96627c	0.018357508
45	0xbd04a4c4	-0.032383695
46	0xbc8f93c4	-0.017526515
47	0xbd0527ba	-0.03250859
48	0xbd0b452c	-0.034001514
49	0x3c8df91c	0.017330699
50	0xbc94bfbc	-0.018157832
51	0xbd54632a	-0.051852383
52	0x3d2e35a6	0.042531632
53	0xbc247278	-0.010037057
54	0x3d7e0e68	0.062025458
55	0x3c878920	0.016544878
56	0xbd54fb60	-0.051997542
57	0x3d268ed0	0.04066354
58	0xbd74a028	-0.05972305
59	0x3d4c5250	0.049883187
60	0x3d54f25e	0.05198895
61	0xbd23dac8	-0.040003568
62	0x3c19e560	0.009393066
63	0xbc29ab68	-0.010355808
64	0x3d2aac48	0.041668206
65	0x3d1bc956	0.038033806
66	0x3d36c84c	0.04462461
67	0x3ca07ed0	0.019591719
68	0x3ce9eb04	0.028554447
69	0x3d11bed4	0.03558238
70	0x3d7ca298	0.0616785
71	0xbd093a9a	-0.033503152
72	0x3d675aaa	0.05648295
73	0xbca8ce84	-0.020606287
74	0xbd2d0d92	-0.04224927
75	0x3d38b66a	0.04509584
76	0xbd57397e	-0.052545063
77	0x3c90fb4c	0.017697953
78	0x3cb752c0	0.022378325
79	0xbc252b20	-0.010081083
80	0xbcef0c10	-0.029180557
81	0xbcf616e0	-0.030040205
82	0xbbc277c0	-0.0059346855
83	0xbcf24f0c	-0.029578708
84	0xbc3c3da8	-0.011489309
85	0x3d0aab78	0.03385493
86	0xbd27b61e	-0.040945165
87	0x3d42817c	0.047486767
88	0xbd7c4206	-0.061586402
89	0xbafd8180	-0.0019340962
90	0x3d0e5870	0.03475231
91	0xbd2e657c	-0.04257725
92	0x3ceef5ec	0.029169999
93	0x3d753884	0.05986835
94	0xbc3b2f30	-0.011424825
95	0xbc6a75f0	-0.014310345
96	0x3d16663e	0.0367186
97	0xbc87c2f0	-0.016572446
98	0xbc9ed1c8	-0.01938714
99	0xbd3846a2	-0.044989236
100	0xbd0aafaa	-0.033858933
101	0xbccc4700	-0.0249362
102	0x3cfa27e8	0.030536607
103	0xbd19646c	-0.037449285
104	0xbc2815c0	-0.010259092
105	0xbd33037e	-0.043704502
106	0x3bb61130	0.005556248
107	0xba808080	-0.0009803921
108	0x3d2664a8	0.040623337
109	0xbcd668d8	-0.02617304
110	0x3d42db76	0.047572576
111	0x3d1942da	0.03741727
112	0xbcc9d164	-0.024635978
113	0x3cb6f564	0.022333808
114	0x3c42bda8	0.011886038
115	0x3d50a9ca	0.050943173
116	0xbd201d6e	-0.039090566
117	0xbd3407b2	-0.04395265
118	0xbc0c1ac0	-0.0085513
119	0x3cc4a824	0.024005957
120	0x3bff4ab0	0.007790886
121	0x3d306754	0.04306729
122	0x3c77a160	0.015114158
123	0xbc080098	-0.008300923
124	0x3d163874	0.03667493
125	0x3c9e50c4	0.019325621
126	0xbca429e4	-0.020039506
127	0x3d443d50	0.047910035
128	0xbcc72e24	-0.024313994
129	0x3d1bc460	0.038029075
130	0xbd136856	-0.035988174
131	0xbcbb7960	-0.022885025
132	0x3d193d9c	0.03741227
133	0x3c91db64	0.017804809
134	0xbd0439c6	-0.03228166
135	0x3d7d3182	0.061814792
136	0xbc8c9ac4	-0.017163642
137	0xbd00dd44	-0.031461015
138	0xbd608d40	-0.054822206
139	0xbc8f1410	-0.017465621
140	0x3d09ae88	0.03361371
141	0xbc387ed0	-0.011260703
142	0xbcda49c0	-0.026646495
143	0xbc33b7b8	-0.010969095
144	0xbd7c9de0	-0.061674
145	0xbcbe9cf0	-0.023268193
146	0xbcb23240	-0.021752477
147	0x3b9a9370	0.004717283
148	0x3cd5677c	0.026050322
149	0xbd2b7dd4	-0.041868046
150	0x3ccf49b4	0.0253037
151	0x3d480ae2	0.048838504
152	0xbd6df7dc	-0.058097705
153	0xbd0c0592	-0.034185
154	0x3d03d328	0.032183796
155	0xbd7b05dc	-0.061284885
156	0x3cb0768c	0.021540903
157	0xbd0b2516	-0.033970915
158	0x3d1d058a	0.03833536
159	0x3d676d46	0.056500696
160	0xbd62f430	-0.055408657
161	0xbc9985ac	-0.018740498
162	0xbd02e234	-0.031954005
163	0x3b2eaa80	0.002665192
164	0xbd7b04c6	-0.06128385
165	0x3d7489ac	0.059701607
166	0xbc40db80	-0.011771083
167	0xbc1ecd78	-0.009692542
168	0x3c1b72c0	0.009487808
169	0x3c7ddc70	0.015494451
170	0x3ca4229c	0.020036034
171	0xbd351cf0	-0.04421705
172	0xbd443ce4	-0.047909632
173	0xbd65d454	-0.056110695
174	0xbd1f00a4	-0.03881897
175	0x3d73a184	0.059480205
176	0x3c7809a0	0.0151390135
177	0x3ce43c54	0.027860798
178	0xbcaebd40	-0.021330476
179	0xbcdd0aac	-0.026982628
180	0x3cb48bf0	0.022039384
181	0xbd10ff70	-0.035399854
182	0xbd71946e	-0.058979444
183	0xbc06a820	-0.008218795
184	0x3ca22670	0.019793719
185	0x3d20198a	0.039086856
186	0xbd002e58	-0.031294197
187	0x3b341fc0	0.0027484745
188	0xbd20f578	-0.039296597
189	0x3b3f33e0	0.0029175207
190	0x3d53e8b6	0.051735602
191	0x3c47a6e0	0.012185782
192	0xbcbf25d8	-0.023333475
193	0x3c7c0fa0	0.015384585
194	0xbd3bef9e	-0.045882814
195	0xbd6ee35a	-0.058322288
196	0xbb963710	-0.0045842007
197	0xbd7373b8	-0.05943653
198	0xbd78dddc	-0.060758457
199	0x3d140bdc	0.036144122
200	0x3d42aef8	0.047530144
201	0xbc31b530	-0.010846421
202	0xbd25da12	-0.04049117
203	0xbcae59ec	-0.021283112
204	0x3ccb575c	0.02482193
205	0xbc1162e0	-0.008873671
206	0x3d4a6c78	0.04941985
207	0xbc713010	-0.014720932
208	0x3d4493fc	0.04799269
209	0xbb3188c0	-0.0027089566
210	0xbc9d5e84	-0.019210108
211	0xbc472630	-0.012155101
212	0xbc758450	-0.014985159
213	0xbd469c3a	-0.048488833
214	0x3ce99e38	0.028517827
215	0x3d3e1d14	0.04641445
216	0xbd5087b4	-0.050910667
217	0xbd06c86c	-0.03290598
218	0x3d202e9e	0.039106958
219	0xbd48e19a	-0.049043275
220	0xbc1af0c0	-0.009456813
221	0xbc6298a8	-0.013830341
222	0x3c3c37d0	0.011487916
223	0xbd5af88e	-0.053459696
224	0xbd5108dc	-0.05103384
225	0x3d6680a6	0.056275032
226	0xbcc857f4	-0.024456002
227	0xbd613dde	-0.05499064
228	0x3c82c4b4	0.015962936
229	0xbd2bb602	-0.041921623
230	0x3cee3b58	0.029081032
231	0x3ccc13f0	0.02491185
232	0xbd3b8758	-0.04578337
233	0xbc16ddf8	-0.009208195
234	0x3b902020	0.004398361
235	0xbbf0c840	-0.0073480904
236	0x3d1b112c	0.037858173
237	0x3d602bfc	0.054729447
238	0xbc9fa160	-0.01948613
239	0xbd3e51fc	-0.046464905
240	0xbd6bad30	-0.05753821
241	0xbc73c038	-0.0148773715
242	0x3d1a4e9c	0.037672624
243	0x3d748850	0.05970031
244	0x3cd70a30	0.026249975
245	0xbd4764ec	-0.04868023
246	0xbd5ab21a	-0.053392507
247	0xbce40a4c	-0.027836941
248	0xbd6aecfe	-0.05735492
249	0xbd13b9ca	-0.036065854
250	0xbd54e548	-0.051976472
251	0xbc655720	-0.013997823
252	0x3cbadf58	0.022811577
253	0xbd0c32a2	-0.034227975
254	0x3c7e6830	0.01552777
255	0xbd3874de	-0.04503333

fc_mu.bias f4 [2]
0	0x3cd152a0	0.025552094
1	0xbd08b7aa	-0.03337828

fc_var.weight f4 [2, 256]
0	0x3c1eded8	0.009696685
1	0x3cfaf0c0	0.030632377
2	0x3c981c4c	0.01856818
3	0x3c8370a0	0.016044915
4	0xbd3d9c50	-0.04629165
5	0xbcb3b0b0	-0.021934837
6	0x3cf27a80	0.029599428
7	0x3d7b8698	0.061407655
8	0x3c1c2b18	0.009531759
9	0xbc8dfdc4	-0.017332919
10	0xbc5888d8	-0.01321622
11	0x3d731842	0.059349306
12	0x3d784fe4	0.060623065
13	0xbd19dcae	-0.037563972
14	0xbd41d8b8	-0.04732582
15	0xbbf15af0	-0.007365577
16	0x3d27acb8	0.0409362
17	0xb8d2e800	-0.00010056794
18	0x3d2f9e2e	0.04287546
19	0xbd5bea1c	-0.05369006
20	0x3cc6e8b8	0.02428089
21	0xbd22ac68	-0.0397152
22	0x3a8bd980	0.0010669678
23	0xbc47a490	-0.012185231
24	0xbd0b6a20	-0.034036756
25	0xbc1e33e0	-0.009655923
26	0x3d191568	0.03737393
27	0x3d3d1186	0.04615929
28	0x3cd77b48	0.026303902
29	0x3acf7880	0.0015828758
30	0xbd543df6	-0.051816903
31	0x3d57ff6a	0.052733816
32	0xbd55dca6	-0.05221238
33	0x3c968188	0.018372312
34	0x3d4ce05c	0.050018653
35	0x3c7d5f38	0.015464596
36	0x3d1ffade	0.039057605
37	0x3c6aa738	0.014322095
38	0xbbca09c0	-0.006165713
39	0xbc71cff8	-0.014759056
40	0xbc737318	-0.014858983
41	0xbd58196e	-0.052758627
42	0x3c0dbbf8	0.008650772
43	0x3d033b10	0.03203875
44	0xbc7692f0	-0.015049681
45	0x3d1fcd34	0.039014056
46	0x3cad9928	0.021191195
47	0xbc9c0d84	-0.019049414
48	0x3d22024e	0.03955298
49	0x3d36b75c	0.04460846
50	0x3d383494	0.044972017
51	0x3d23449e	0.03986036
52	0x3d735ed2	0.0594166
53	0xba612d80	-0.0008589849
54	0xbd3e1368	-0.046405226
55	0x3cce359c	0.025172047
56	0x3cd30dc4	0.0257634
57	0x3bf9bdc0	0.007621497
58	0xbc8bf484	-0.017084368
59	0xbc1e1190	-0.009647742
60	0xbc9ad9f4	-0.018902756
61	0x3d7f6098	0.06234798
62	0x3d5f1432	0.05446262
63	0xbd1c735a	-0.038195945
64	0xbcca5874	-0.02470038
65	0x3d0674e8	0.032826334
66	0x3c8cedfc	0.017203324
67	0xbd67d628	-0.05660072
68	0xbc6f10f8	-0.014591448
69	0x3c8c4c24	0.01712615
70	0xbd210936	-0.039315425
71	0xbd05824c	-0.032594964
72	0x3c696cc8	0.014247127
73	0xbd0194f6	-0.0316362
74	0x3d5e066a	0.054205336
75	0x3b646580	0.0034850538
76	0xbd4fae32	-0.050703235
77	0xbc754058	-0.014968954
78	0x3d2c89d8	0.042123646
79	0xbcbf02ac	-0.023316704
80	0x3d69da62	0.05709303
81	0x3cb3b7bc	0.021938197
82	0xbc957994	-0.01824645
83	0xbce22970	-0.02760765
84	0xbac43800	-0.0014970303
85	0x36460000	2.95043e-06
86	0x3d469c1c	0.04848872
87	0xbd57434e	-0.05255442
88	0x3cf688d0	0.030094534
89	0x3d6137ae	0.05498474
90	0xbd08d3bc	-0.03340505
91	0xbcb63f00	-0.022246838
92	0x3d5e41b4	0.054261878
93	0x3d74c94c	0.059762284
94	0xbd35c37e	-0.04437589
95	0xb9627200	-0.00021595508
96	0xbd2b51de	-0.04182612
97	0xbd00f66c	-0.031485006
98	0xbd546cf0	-0.051861703
99	0x3d1e323c	0.038622126
100	0x3d696380	0.056979656
101	0xbceb93c0	-0.028756976
102	0xbcd13298	-0.02553682
103	0x3d75349c	0.059864625
104	0xbd05c03c	-0.032654032
105	0xbd250aca	-0.040293492
106	0x3d3c93a6	0.046039246
107	0xbd08106a	-0.03321878
108	0xbd369bfa	-0.044582345
109	0xbd23c0c4	-0.039978758
110	0x3d0e4546	0.034734033
111	0x3bb64190	0.005562015
112	0xbbbec830	-0.005822204
113	0xba890640	-0.0010454133
114	0xbc890f88	-0.016731039
115	0xbd5081f2	-0.050905176
116	0xbcf76f3c	-0.030204408
117	0x3b8ed3d0	0.004358746
118	0x3d4621d4	0.048372105
119	0x3bca2020	0.0061683804
120	0x3d3bf7e2	0.045890696
121	0xbb51b220	-0.003199704
122	0x3c8a1444	0.016855367
123	0x3c904ce0	0.017614782
124	0xbd17f4dc	-0.03709875
125	0x3b6fa640	0.0036567599
126	0x3d3d04a2	0.046146996
127	0x3d253b1c	0.040339574
128	0xbc94afb8	-0.018150195
129	0x3d0cc910	0.034371436
130	0x3ad62080	0.001633659
131	0x3ca5c4c0	0.02023542
132	0x3d6fe130	0.058564365
133	0xbbaa9d50	-0.0052067414
134	0x3d286774	0.041114286
135	0xbd1a8d24	-0.03773226
136	0x3c3ac320	0.0113990605
137	0xbb905f20	-0.004405871
138	0x3d314f96	0.04328879
139	0xbd729b40	-0.05923009
140	0x3bba7a60	0.005690858
141	0xbbf89c80	-0.0075870156
142	0xbcbc6f38	-0.023002252
143	0x3d40800a	0.046997108
144	0xbd4d47d0	-0.050117314
145	0xbc95e6dc	-0.018298559
146	0x3d4d95c0	0.05019164
147	0xbc597f58	-0.01327499
148	0x3c45c9e0	0.0120720565
149	0xbd73b13a	-0.05949519
150	0xbd7b94fa	-0.061421372
151	0x3d50e6ee	0.05100148
152	0xbd1f2ece	-0.038862996
153	0xbd6696a2	-0.056296
154	0xbcc89180	-0.024483442
155	0x3d5ad800	0.05342865
156	0x3d4b6b06	0.049662612
157	0x3ccad1bc	0.024758212
158	0x3d4b8f0a	0.04969696
159	0xbcc2ba00	-0.023770332
160	0x3c482590	0.012215987
161	0xbd7bc6b8	-0.06146881
162	0x3d759338	0.059954852
163	0xbd1b7360	-0.037951827
164	0xbce4b96c	-0.027920447
165	0x3d7970bc	0.060898528
166	0xbd58b57e	-0.05290746
167	0xbd33374c	-0.043753907
168	0x3caedfc4	0.021346934
169	0x3d3b174e	0.045676522
170	0xbd07a89c	-0.033119783
171	0xb955fa00	-0.00020406395
172	0x3d7273d4	0.059192494
173	0x3d40505e	0.046951644
174	0x3c955a30	0.018231481
175	0xbcf40f98	-0.029792592
176	0x3d681356	0.056659065
177	0xbd36b504	-0.044606224
178	0xbd285784	-0.041099086
179	0xbd536170	-0.051606596
180	0x3d0f474a	0.034980096
181	0xbd0cb3c6	-0.034351133
182	0xbd240936	-0.040047847
183	0xbd58fc3c	-0.052974924
184	0x3b9b76e0	0.0047443956
185	0x3bd1f6b0	0.0064075813
186	0xbc967408	-0.018365875
187	0x3ca30c00	0.019903183
188	0xbcddbacc	-0.02706661
189	0x3c277950	0.010221794
190	0xbb91aad0	-0.0044454113
191	0xbd483e8c	-0.048887774
192	0xbd23955e	-0.03993737
193	0x3d63ad10	0.055584967
194	0xbc853928	-0.016262606
195	0xbcf39e40	-0.029738545
196	0xbd21d304	-0.03950788
197	0xbd267716	-0.040640913
198	0xbcea4198	-0.02859573
199	0x3ad55b00	0.001627773
200	0xbd3624fe	-0.044468872
201	0x3c877480	0.016535044
202	0xbcd10c50	-0.025518566
203	0xbc717368	-0.014736988
204	0xbcf8b918	-0.030361697
205	0xbd3b5490	-0.045734942
206	0xbce00c80	-0.02734971
207	0x3d20b7ea	0.039237894
208	0xbd6d27be	-0.05789923
209	0xbd08966c	-0.03334658
210	0x3d613696	0.054983698
211	0x3bfe5900	0.0077620745
212	0xbc9337d4	-0.017970957
213	0xbbd7cbb0	-0.0065855607
214	0xbd307a8a	-0.043085612
215	0xbd46c820	-0.048530698
216	0x3d289a52	0.041162796
217	0xbd59fcf6	-0.053219758
218	0x3c5177f8	0.01278495
219	0x3d2035d0	0.03911382
220	0xbd41dcd4	-0.04732974
221	0xbca303f0	-0.019899338
222	0xbcd6c4b0	-0.026216835
223	0x3d20c7a4	0.039252892
224	0x3ce9f44c	0.028558873
225	0x3d27c6e0	0.040961146
226	0xb94d7800	-0.00019595027
227	0xbaa1bc00	-0.0012339354
228	0xbc78a720	-0.015176564
229	0xbc23c6e0	-0.009996146
230	0x3d63c464	0.055607215
231	0x3c8faa50	0.017537266
232	0x3c1848f8	0.009294741
233	0x3d26bf3e	0.040709727
234	0x3c96aa7c	0.01839184
235	0x3d4249fe	0.047433846
236	0xbd381190	-0.044938624
237	0xbc8adac0	-0.016950011
238	0xbcea5444	-0.028604634
239	0x3d3968be	0.045265906
240	0x3cbbd2c0	0.022927642
241	0x3d181f1c	0.037139043
242	0x3c482cd0	0.012217715
243	0x3ac47040	0.0014987066
244	0x3d2b8526	0.041875027
245	0x3d7bb562	0.061452277
246	0xbd478c60	-0.048717856
247	0x3d086ec4	0.03330876
248	0x3d1a8090	0.037720263
249	0xbc9c1a74	-0.019055583
250	0xbc869508	-0.016428486
251	0x3d22bf84	0.039733425
252	0xbd0df51e	-0.03465759
253	0xbc963e1c	-0.018340163
254	0xbcb4c160	-0.022064865
255	0x3c14b100	0.009075403

fc_var.bias f4 [2]
0	0x3d557440	0.052112818
1	0x3d7cec60	0.061748862

decoder.layer0.weight f4 [2, 2]
0	0x3f034c08	0.5128789
1	0x3e0e469b	0.13894121
2	0xbdcea215	-0.100895084
3	0x3f24931b	0.64286965

decoder.layer0.bias f4 [2]
0	0xbda23cfa	-0.079217866
1	0x3f0be195	0.54641086

decoder.layer2.weight f4 [100, 2]
0	0xbee93eea	-0.45555812
1	0xbde14e42	-0.110012546
2	0xbf051288	-0.519814
3	0xbf173835	-0.5907014
4	0xbf26fa98	-0.65226126
5	0xbef69ef2	-0.4816814
6	0x3de8b5ec	0.11362824
7	0x3e0168d0	0.12637639
8	0x3f13d563	0.5774748
9	0x3ed545ef	0.41654918
10	0x3c99fa60	0.018796146
11	0x3d2681b9	0.040651057
12	0xbf24990d	-0.64296037
13	0x3ee5f2a9	0.44911698
14	0x3ed56b44	0.416834
15	0xbe5e7442	-0.21724036
16	0x3ea92aa2	0.3304034
17	0xbf27b895	-0.65516025
18	0x3d9b6faf	0.07589661
19	0x3efc108b	0.4923137
20	0xbf090fb6	-0.535396
21	0x3e1dd7e2	0.15414384
22	0x3ef09390	0.4698758
23	0x3cd9ea4e	0.026600983
24	0xbd23bc7e	-0.039974682
25	0xbdf583ac	-0.11988005
26	0xbf28a2ad	-0.65873224
27	0xbe9d5837	-0.30731365
28	0xbe6d62e1	-0.2318225
29	0xbf0e69f2	-0.5563041
30	0xbd838c01	-0.06423188
31	0xbeb25358	-0.3482921
32	0x3e932d8e	0.28745693
33	0x3f1acadc	0.6046579
34	0x3eca8922	0.3955775
35	0xbe352bd7	-0.17692505
36	0x3d3ee3b5	0.046603877
37	0xbdabe659	-0.08393545
38	0xbe4b0355	-0.1982549
39	0x3f2ae897	0.66761154
40	0xbe3a6451	-0.1820233
41	0x3ebba774	0.36651194
42	0x3f2d2597	0.6763548
43	0xbf094942	-0.5362741
44	0x3f21b921	0.6317311
45	0xbd4f7988	-0.05065301
46	0xbd0bd0f3	-0.034134816
47	0x3e6e45fe	0.23268887
48	0x3d9d3452	0.07675995
49	0xbe988911	-0.29792073
50	0x3f1d0b9b	0.61345834
51	0x3dbabb28	0.091177285
52	0xbe5a0adb	-0.21293204
53	0xbf0135c9	-0.50472695
54	0x3ee1a98d	0.4407467
55	0x3e9a1990	0.30097628
56	0x3f26a34b	0.65092915
57	0x3d5f080b	0.05445103
58	0x3f3183a4	0.6934149
59	0xbe3747d9	-0.17898501
60	0x3e9a6a46	0.30159205
61	0x3e7e3d44	0.24828058
62	0xbf336968	-0.7008271
63	0xbd775eb7	-0.06039306
64	0xbf2d0da0	-0.67598915
65	0xbde1a17a	-0.11017127
66	0xbe262b8b	-0.16227548
67	0x3f310aaa	0.691569
68	0xbe003df9	-0.1252364
69	0xbf116ca7	-0.56806415
70	0xbe88bdcc	-0.26707304
71	0x3e38fbd9	0.18064822
72	0xbf07bde9	-0.53024155
73	0xbeb3e4a3	-0.35135373
74	0x3ebedf7a	0.37279874
75	0xbd77bd8e	-0.060483508
76	0x3e5e021b	0.2168049
77	0x3ed8909e	0.42297834
78	0x3e3f740c	0.18696612
79	0xbeb77a46	-0.35835475
80	0x3e3dae53	0.1852353
81	0x3e24726b	0.16059272
82	0xbea17d3e	-0.31540865
83	0xbee83fc5	-0.45361152
84	0xbf0bd508	-0.54621935
85	0xbed03d60	-0.40671825
86	0x3ee26baa	0.44222766
87	0x3f07475f	0.5284328
88	0xbf061cd1	-0.5238772
89	0x3f029c98	0.51020193
90	0x3df750d6	0.12075965
91	0x3ee6da70	0.4508853
92	0xbe7e95a8	-0.24861777
93	0xbee90872	-0.45514256
94	0xbcf6528b	-0.030068656
95	0xbe4a1c65	-0.19737394
96	0xbe9dfdb3	-0.3085762
97	0x3f33d51c	0.70247054
98	0x3edda87d	0.4329261
99	0xbf0b2079	-0.54346424
100	0x3f178c91	0.5919886
101	0x3d4b34f6	0.049611054
102	0x3f1481cb	0.5801055
103	0x3de9dd3a	0.11419149
104	0x3f26f062	0.65210545
105	0x3f1eaa75	0.61978847
106	0xbf2be292	-0.67142594
107	0x3dfd09a7	0.12355357
108	0x3f158705	0.5840915
109	0xbeedffb3	-0.46484146
110	0x3daa51a9	0.08316357
111	0xbd4f9fe4	-0.050689593
112	0xbee319c1	-0.44355586
113	0x3dbf85a2	0.0935166
114	0xbf17bb46	-0.5927013
115	0x3f169a61	0.58829314
116	0x3d784ede	0.06062209
117	0x3f0c1dd9	0.54733044
118	0xbd3da3a7	-0.04629865
119	0xbe33387d	-0.17502017
120	0x3f0bd1fd	0.5461729
121	0x3e740586	0.23830232
122	0x3f057446	0.52130544
123	0x3eb94984	0.361889
124	0xbcad6f0f	-0.02117112
125	0x3d98f2ef	0.07468211
126	0x3df07c79	0.11742491
127	0x3f046dbf	0.5172996
128	0x3f2d3fd2	0.6767551
129	0x3e7bb759	0.2458166
130	0xbf348420	-0.70514107
131	0x3f2323c9	0.6372648
132	0x3e945ea3	0.28978452
133	0x3f0774c8	0.5291257
134	0x3e7b4647	0.24538527
135	0xbedd6e5a	-0.43248254
136	0xbece43f9	-0.40286234
137	0xbea2254a	-0.31669074
138	0x3f14a3a6	0.5806221
139	0x3e8e1a61	0.277545
140	0x3c7502d8	0.014954291
141	0xbf22abd6	-0.6354345
142	0x3e8528ae	0.260076
143	0x3d96d643	0.07365086
144	0x3d5e16d5	0.054220993
145	0x3ed90cd6	0.42392606
146	0xbdabfc67	-0.08397751
147	0x3f0fb0be	0.5612906
148	0xbea2e994	-0.3181883
149	0xbf188ba5	-0.5958808
150	0xbe68e44e	-0.22743341
151	0x3e8596a2	0.26091486
152	0xbe657959	-0.22409572
153	0xbead85df	-0.33891198
154	0x3e1ec3c5	0.15504368
155	0xbee0dded	-0.43919316
156	0x3e69c88b	0.22830407
157	0x3e00c4f7	0.12575136
158	0x3cd91249	0.026497977
159	0x3ebf5050	0.3736596
160	0x3d80b80f	0.062851064
161	0x3f2bcd45	0.6711009
162	0xbf2c46cf	-0.67295545
163	0xbe68ab2f	-0.22721551
164	0x3e3850d1	0.17999579
165	0x3eab896b	0.3350328
166	0xbc89f6bf	-0.01684129
167	0xbeb3aa8e	-0.3509106
168	0x3e85f3e2	0.2616263
169	0xbeb396a3	-0.35075864
170	0x3ed6ae02	0.41929632
171	0xbf2a65b7	-0.66561455
172	0xbef89353	-0.485499
173	0x3ecbeee3	0.39830694
174	0x3d304021	0.043029908
175	0xbf34df94	-0.70653653
176	0xbf1d7b13	-0.6151592
177	0x3efd247e	0.49441904
178	0xbf18bb89	-0.59661156
179	0xbec25adc	-0.37959945
180	0x3ec6e013	0.3884283
181	0xbf1fc8c3	-0.62415713
182	0xbe9ef478	-0.3104589
183	0xbebfcd2c	-0.3746122
184	0xbe92e08c	-0.2868694
185	0x3eb6a063	0.3566924
186	0x3f05c12e	0.52247894
187	0xbdd27578	-0.10276312
188	0x3ef9d9c9	0.4879897
189	0x3eebde0c	0.46067846
190	0x3f06fe0b	0.5273139
191	0x3eb839a3	0.35981473
192	0x3f0f9ca5	0.56098396
193	0xbe491b19	-0.19639243
194	0x3eb437e9	0.35198906
195	0x3da154bd	0.07877491
196	0xbe44c6a9	-0.19216408
197	0xbed8036e	-0.42190117
198	0xbeb098a4	-0.34491456
199	0x3ed54e08	0.41661096

decoder.layer2.bias f4 [100]
0	0x3ed3a138	0.41333938
1	0xbe0fbdfe	-0.1403732
2	0xbf08e632	-0.5347625
3	0x3e898ae7	0.26863787
4	0x3c69d14c	0.014271092
5	0xbe8fd0c9	-0.28088978
6	0xbe12ec7d	-0.14348026
7	0xbf21444f	-0.62994856
8	0x3e99e0f6	0.30054444
9	0xbf2d7368	-0.6775422
10	0x3ec3173a	0.38103658
11	0xbe84e515	-0.25956026
12	0x3e07099c	0.1318726
13	0xbf15d9f8	-0.5853572
14	0x3e4b901d	0.19879194
15	0xbe71c771	-0.23611237
16	0x3e92a45d	0.28641024
17	0x3f0867b0	0.53283215
18	0xbeb07a17	-0.34468147
19	0xbe4bac05	-0.19889839
20	0xbe444fb1	-0.19171025
21	0x3ee64625	0.4497539
22	0x3f0f5d84	0.5600207
23	0x3ebb6f9d	0.36608592
24	0x3efc4ae6	0.49275893
25	0x3e8ab848	0.2709372
26	0x3e21c974	0.15799505
27	0x3f145a86	0.5795063
28	0xbe8ca635	-0.27470556
29	0x3e545ea2	0.20739225
30	0x3d2da417	0.042392816
31	0x3e55bfd5	0.2087396
32	0x3f266a82	0.6500627
33	0x3e733cf3	0.23753719
34	0xbec63530	-0.38712454
35	0x3d36d650	0.044637978
36	0xbed910fe	-0.42395777
37	0x3e9f2ffd	0.310913
38	0xbe92c785	-0.28667846
39	0x3ef7e7f3	0.4841915
40	0x3e403291	0.1876929
41	0x3dceb319	0.10092754
42	0x3ec6d295	0.38832536
43	0xbe39223b	-0.18079464
44	0xbf12d826	-0.57361066
45	0x3f0e9225	0.5569175
46	0xbf0a2b92	-0.53972733
47	0xbe4f2a39	-0.2023095
48	0x3f20cac5	0.628094
49	0xbefefd31	-0.49802545
50	0xbf2c9a7a	-0.6742321
51	0x3edb0937	0.42780468
52	0xbef4f120	-0.47840214
53	0x3f01d106	0.5070957
54	0xbed3a143	-0.4133397
55	0x3eb82add	0.35970202
56	0x3e93c4e9	0.28861168
57	0xbf1c88c5	-0.61146194
58	0x3f219fa7	0.63134235
59	0x3e17f526	0.1483961
60	0x3f24ac87	0.64325756
61	0xbee8b841	-0.45453075
62	0x3e1c2196	0.15247187
63	0x3eb9cc1a	0.3628853
64	0x3f0f19cf	0.55898756
65	0xbe2f062d	-0.170922
66	0x3ede72de	0.43447012
67	0x3f19bbcd	0.60052186
68	0xbf108039	-0.5644565
69	0x3f2d916f	0.6780004
70	0x3f058e03	0.5216982
71	0x3ec0ea3d	0.3767871
72	0x3eaf5dfa	0.34251386
73	0xbe9674de	-0.29386038
74	0xbee45391	-0.44595006
75	0xbde71a6e	-0.11284338
76	0xbdbde378	-0.09271902
77	0xbf1ca4f1	-0.6118918
78	0x3f0e184f	0.5550584
79	0x3f20e376	0.6284708
80	0x3f1bf8de	0.60926616
81	0x3f1d4dfb	0.61447114
82	0xbf0239b7	-0.50869316
83	0xbf257445	-0.6463054
84	0xbe90f499	-0.28311613
85	0xbed29933	-0.41132507
86	0xbeb6f5ae	-0.35734314
87	0xbe4f1875	-0.20224173
88	0xbe8e0231	-0.27736047
89	0x3e764de7	0.24053155
90	0xbde845c2	-0.1134143
91	0x3f112881	0.5670243
92	0xbe8579b8	-0.26069427
93	0x3eb31750	0.34978724
94	0x3f0b0cad	0.54316217
95	0xbf162d46	-0.5866283
96	0xbe19f589	-0.1503507
97	0xbba028e1	-0.0048876856
98	0xbf254629	-0.6456018
99	0xbf1f31e9	-0.6218553
